Assets/Brain/1 (30%).onnx (onnx, 107096 bytes, 11 tensors)

discrete_action_output_shape f4 [1, 3]
0	0x40400000	3.0
1	0x40400000	3.0
2	0x40000000	2.0

network_body._body_endoder.seq_layers.0.weight f4 [128, 64]
0	0x3d66dd69	0.056363497
1	0xbe0995cc	-0.13436049
2	0x3ddc5ef2	0.10760297
3	0xbd87b4c9	-0.06626279
4	0xbbe54d3f	-0.006997734
5	0xbe60a05d	-0.21936174
6	0xbd8911fe	-0.06692885
7	0xbda6def1	-0.081479914
8	0xbd7bb4ff	-0.06145191
9	0xbd8849d8	-0.066547096
10	0xbd5f5e64	-0.054533377
11	0xbe50aaaf	-0.2037761
12	0x3cca7860	0.024715602
13	0xbe156a4f	-0.14591335
14	0xbe2ccafd	-0.16874309
15	0xbce1c9f4	-0.027562119
16	0xbdf9b11d	-0.12191985
17	0x3d379ed8	0.04482922
18	0xbda99c71	-0.08281792
19	0xbb30ee3e	-0.0026997472
20	0x3dab75d6	0.08372085
21	0xbd81c7d1	-0.0633694
22	0x3df3536a	0.11881144
23	0x3d985047	0.07437187
24	0xbe029958	-0.12753808
25	0x3d794976	0.060861073
26	0x3d5ba8d2	0.053627796
27	0xbe8f12ae	-0.2794394
28	0xbdde8ff3	-0.108673
29	0x3e2a7bfe	0.16648862
30	0x3dafa4be	0.08576344
31	0xbda82c78	-0.08211607
32	0xbd0eed21	-0.034894112
33	0xbda654a4	-0.08121613
34	0x3e306033	0.17224197
35	0xbd9b2515	-0.07575432
36	0x3dc24b72	0.09487046
37	0x3d985e63	0.07439878
38	0xbcfc7924	-0.030819483
39	0xbda945d6	-0.08265273
40	0xbe694818	-0.22781408
41	0xbd9c987c	-0.076462716
42	0x3d29883b	0.041389685
43	0xbca65c90	-0.02030781
44	0x3b8b0026	0.004241961
45	0x3cf8d608	0.030375496
46	0xbdf15eb8	-0.11785644
47	0xbc947815	-0.018123666
48	0xbdbd4f7c	-0.09243676
49	0xbdf0600a	-0.11737068
50	0xbde32fcf	-0.11093103
51	0xbd95dbf0	-0.073173404
52	0xbe832295	-0.25612321
53	0xbe4c9ea2	-0.19982389
54	0x3d9eba97	0.07750433
55	0x3ca8aba2	0.020589653
56	0xbd6851b3	-0.05671854
57	0xbe0109db	-0.12601416
58	0x3c47fc2d	0.0122061195
59	0xbbf40c0d	-0.0074477256
60	0x3dd01fd1	0.101623185
61	0xbd08ccd5	-0.033398468
62	0xbe30591c	-0.17221493
63	0xbe1eb432	-0.15498427
64	0x3d31f970	0.043450773
65	0xbd4792f7	-0.04872414
66	0x3d1b0bc8	0.037853032
67	0xbd0cf494	-0.034412935
68	0xbb91e67f	-0.004452526
69	0xbce97e68	-0.028502658
70	0x3c20231d	0.009773997
71	0x3df9fd56	0.12206523
72	0x3d232a8e	0.039835505
73	0x3cbb2965	0.022846887
74	0x3db66174	0.089053065
75	0xbc026641	-0.00795895
76	0x3d5c5c65	0.05379905
77	0xbe4d1205	-0.20026405
78	0xbcf1230f	-0.029435663
79	0xbd714bdd	-0.05891024
80	0x3e2422ce	0.16028902
81	0x3dcb7491	0.09934343
82	0x3dc02c6b	0.09383472
83	0xbdcd2946	-0.10017638
84	0x3e8072fc	0.25087726
85	0x3dd1b15f	0.10238909
86	0x3e09ff3f	0.13476275
87	0xbdf43cb0	-0.11925638
88	0x3d933559	0.0718791
89	0xb9c58924	-0.00037676946
90	0xbdafe870	-0.08589256
91	0xbdfc6f0b	-0.12325867
92	0x3e908a5b	0.28230557
93	0xbd011153	-0.031510662
94	0xbdbdcf5e	-0.09268068
95	0xbd68c2da	-0.05682645
96	0x3cf3967d	0.029734844
97	0xbd796142	-0.060883768
98	0x3da93ddf	0.08263754
99	0x3e5edcfb	0.21763985
100	0xbdb11b7b	-0.086478196
101	0x3d82bfec	0.063842624
102	0xbdda2c13	-0.10652938
103	0x3e9018fd	0.28144065
104	0x3d21ca91	0.039499823
105	0x3cfc5355	0.030801455
106	0xbee9ad9c	-0.45640266
107	0x3d869547	0.06571441
108	0xbd605ec6	-0.054777883
109	0xbd538ea1	-0.051649693
110	0xbe9d9290	-0.3077588
111	0x3dc13b84	0.0943518
112	0x3d7b2bb1	0.061320964
113	0x3d2c9448	0.0421336
114	0xbe7700d9	-0.24121417
115	0x3daa5faa	0.08319028
116	0x3de03a39	0.10948605
117	0xbe110f78	-0.14166057
118	0x3da571f3	0.08078375
119	0xbdb466d5	-0.08808676
120	0xbd0ff67f	-0.035147186
121	0x3c5c921a	0.013462568
122	0x3e3e2652	0.18569306
123	0x3df5c575	0.120005526
124	0x3e0715b7	0.13191877
125	0xbaf20602	-0.0018464925
126	0x3da18499	0.07886619
127	0x3ce40508	0.02783443
128	0xbdb218ba	-0.086961225
129	0x3e11cd90	0.14238572
130	0xbdf85049	-0.12124688
131	0x3e7ec706	0.24880609
132	0xbe389f05	-0.18029411
133	0x3e36df91	0.17858721
134	0x3cd6c0a1	0.0262149
135	0x3ea3d5c4	0.31999028
136	0xbdfa966c	-0.12235722
137	0xbde4ec73	-0.111779116
138	0x3ddd7678	0.10813612
139	0x3d77d3df	0.06050479
140	0x3e631828	0.22177184
141	0xbe4ff2a5	-0.20307405
142	0x3d973e0e	0.07384883
143	0xbe103f91	-0.14086749
144	0xbd722f44	-0.059127107
145	0xbd776baf	-0.06040543
146	0xbdb9525a	-0.090489104
147	0xbcecb86e	-0.028896537
148	0x3d7def03	0.061995517
149	0x3cd27cca	0.02569427
150	0x3ea4e33a	0.3220461
151	0xbe0ca1f6	-0.13733658
152	0xbd1097b8	-0.03530094
153	0xbd534295	-0.05157717
154	0x3d7a541d	0.061115373
155	0xbdd37643	-0.10325291
156	0xbd74566f	-0.059652742
157	0xbd653866	-0.05596199
158	0xb964c9f7	-0.00021819012
159	0xbd22b020	-0.039718747
160	0xbd120a19	-0.03565416
161	0x3d9d0735	0.0766739
162	0xbc318d86	-0.0108369645
163	0xbdb941ef	-0.09045779
164	0x3da18298	0.07886237
165	0x3e86d92b	0.2633756
166	0x3e801fab	0.2502416
167	0x3dab3159	0.08359022
168	0xbdd5eec4	-0.104459316
169	0xbcc65135	-0.024208644
170	0xbda5220c	-0.080631346
171	0x3c63144f	0.013859822
172	0x3ed68366	0.41897124
173	0xbdeddb5b	-0.11614104
174	0xbd56ce1f	-0.052442666
175	0x3d6800e2	0.056641467
176	0x3e2a5abf	0.1663618
177	0x3c0c30da	0.008556569
178	0xbd084e0a	-0.03327755
179	0x3b2ab2d8	0.002604654
180	0xbe49980a	-0.19686905
181	0xbd5ab583	-0.05339576
182	0xbbdc0702	-0.0067147026
183	0xbd894a0f	-0.06703579
184	0xbd2b93a0	-0.041888833
185	0x3d632c07	0.05546191
186	0x3c81666a	0.015795905
187	0xbe2cc8e5	-0.1687351
188	0x3e0e218d	0.13879986
189	0x3cbf886a	0.023380477
190	0xbcc3f4b1	-0.023920389
191	0xbd8d7608	-0.06907278
192	0x3e27034c	0.16309851
193	0x3e3de164	0.18543011
194	0xbcda5622	-0.0266524
195	0x3e3afe86	0.18261155
196	0xbbca77ea	-0.0061788457
197	0x3e49a985	0.19693573
198	0xbd806a75	-0.06270305
199	0x3dfeb0e3	0.12436082
200	0x3d87d6f0	0.06632793
201	0x3d6cc386	0.057803653
202	0x3da71415	0.08158127
203	0x3d898046	0.06713919
204	0xbe4c88d8	-0.19974077
205	0xbcda5eb0	-0.026656479
206	0x3dde06d5	0.10841147
207	0xbe54f425	-0.20796259
208	0xbc3a32c9	-0.011364647
209	0x3ea04c3d	0.31308165
210	0x3e07bbb1	0.13255192
211	0x3dc7bbd5	0.09752623
212	0x3e6dd7ad	0.23226805
213	0xbde22b52	-0.11043419
214	0x3d7d68a8	0.061867386
215	0xbc801990	-0.01563719
216	0xbdc37598	-0.095439136
217	0x3dc7fd2e	0.09765087
218	0x3da55a38	0.080738485
219	0xbd5882e2	-0.052859195
220	0x3cc00bf0	0.023443192
221	0xbbf2efcc	-0.00741384
222	0xbc7243a9	-0.014786639
223	0xbd09e498	-0.03366527
224	0xbd57b7a2	-0.05266536
225	0x3d63e9db	0.055642944
226	0x3d7479ec	0.059686586
227	0x3d33200f	0.043731745
228	0xbd719a60	-0.058985114
229	0x3de63d16	0.1124212
230	0x3d8804f5	0.066415705
231	0x3e73bf79	0.2380351
232	0xbdfb64c0	-0.12275076
233	0x3d68f9de	0.056878917
234	0xbd5803d8	-0.05273804
235	0x3e465167	0.1936699
236	0x3dcf70d3	0.101289414
237	0xbdf388c2	-0.11891319
238	0xbd82a25f	-0.06378626
239	0x3e438275	0.19092734
240	0xbe55c40b	-0.20875566
241	0xbe346178	-0.17615306
242	0xb9a1007b	-0.0003070867
243	0xbc1eef6b	-0.009700636
244	0xbd121321	-0.035662774
245	0xbe921c6d	-0.28537312
246	0x3dbb6a97	0.0915119
247	0x37e6f765	2.7533339e-05
248	0xbe0aa986	-0.1354123
249	0x3d95f8c1	0.07322837
250	0x3dd2eb40	0.102987766
251	0x3d1ab3c7	0.037769105
252	0xbd0dcc39	-0.03461859
253	0xb94df5f7	-0.00019641953
254	0xbd62b722	-0.05535043
255	0xbe36f66b	-0.17867438

network_body._body_endoder.seq_layers.0.bias f4 [128]
0	0xbd003b5a	-0.031306602
1	0x3c1209bb	0.008913453
2	0x3c1d6def	0.00960873
3	0x3b974953	0.004616895
4	0xbc70849b	-0.014680053
5	0x3a901295	0.0010991866
6	0x3c4e3519	0.012585902
7	0x3c1e8ccc	0.009677123
8	0xb9289b51	-0.00016079588
9	0xbbd22f8c	-0.0064143594
10	0x3c616580	0.01375711
11	0x3abe99d3	0.0014541693
12	0x3bf5788b	0.0074911765
13	0x3b8e378b	0.0043401173
14	0x3c5a9675	0.013341536
15	0x3c32e27a	0.010918254
16	0x39c0447a	0.00036672113
17	0x3ba71ff5	0.005100245
18	0xbc2a50bc	-0.010395225
19	0x3b5d318e	0.003375146
20	0xba328913	-0.0006810587
21	0x3b524a5e	0.0032087783
22	0x3c137fae	0.009002609
23	0xbaf36c95	-0.0018571789
24	0x3b53d7a1	0.003232457
25	0x3b8f6853	0.00437645
26	0xbc9c1fe4	-0.019058175
27	0x3b9ddb8f	0.004817433
28	0x3b85c360	0.0040821284
29	0x3c543519	0.012952113
30	0x39da3ea2	0.00041626865
31	0x3d10c09c	0.035339937
32	0x3c00ba3e	0.007856904
33	0xbc0ed928	-0.008718766
34	0xba6c35cc	-0.0009010702
35	0xbb05102d	-0.002030383
36	0x3c9a45ac	0.01883205
37	0xbb870afb	-0.004121182
38	0x3d110610	0.035406172
39	0xbbabf64f	-0.005247868
40	0xbbd66cb4	-0.00654372
41	0xbb7e8c08	-0.003884079
42	0x3c1dbf06	0.009628063
43	0xbb429ac9	-0.002969431
44	0xbc07608f	-0.008262767
45	0x3a0f296a	0.0005461188
46	0xba7f953f	-0.00097497174
47	0x3acd0dcb	0.0015644369
48	0x3ac73cef	0.0015200655
49	0x3c8ba5df	0.017046867
50	0xbb600468	-0.0034182314
51	0xbb1b540f	-0.0023701226
52	0x3b808b15	0.00392283
53	0x3b1377ed	0.0022501901
54	0xbaf7c0c3	-0.0018902052
55	0x3c7cc43b	0.015427644
56	0xbbd23a67	-0.0064156535
57	0x3c3991cd	0.0113262655
58	0x3b8cad6d	0.004293135
59	0xbcad025a	-0.021119285
60	0x3c4a4ed2	0.012347894
61	0x3c6431ce	0.01392789
62	0x3bfde77f	0.0077485438
63	0x3baabe18	0.005210649
64	0x3c2c47a0	0.010515124
65	0x3c0740af	0.008255168
66	0xbd17e179	-0.03708026
67	0x3ccccc49	0.024999755
68	0x3b14e76c	0.0022720946
69	0xbc0f889f	-0.0087606
70	0x3b2723fd	0.0025503628
71	0xbbd5347a	-0.0065065
72	0xbc8d2117	-0.017227693
73	0x3c68c726	0.014207637
74	0xbbc150ff	-0.005899548
75	0xbb9c5952	-0.00477139
76	0x3af8549d	0.0018946115
77	0xbaae1ffb	-0.0013284677
78	0x3b8aa55a	0.004231137
79	0x3b0ecd07	0.0021789686
80	0x3c6e43ae	0.014542503
81	0x3b976a2a	0.00462081
82	0x3c037f36	0.008025935
83	0xbb1a9f4f	-0.002359349
84	0x3b62b41d	0.003459222
85	0xbae45167	-0.0017419279
86	0xbca8b315	-0.020593205
87	0xbbeb1e3e	-0.007175236
88	0xbb07e99e	-0.0020738612
89	0x3badd5be	0.005305021
90	0x3a7d2096	0.000965604
91	0x3c1e6154	0.0096667595
92	0x3b9e61d5	0.00483344
93	0xbbe4e158	-0.006984871
94	0x3a24c80a	0.00062859117
95	0x3ac274b8	0.001483581
96	0x3c291089	0.010318884
97	0x3ae907aa	0.0017778773
98	0xbb3ff7a9	-0.0029291904
99	0x3abfb453	0.0014625884
100	0x3cf11d45	0.029432902
101	0xbaf44f4e	-0.0018639357
102	0x3c110bfc	0.008852955
103	0xbc36c3fb	-0.011155124
104	0x39ed9c35	0.00045320546
105	0x3ad31401	0.0016103984
106	0x3ba156b9	0.004923668
107	0xba0c224f	-0.00053456886
108	0x3c086c77	0.008326641
109	0x3d0b62d6	0.034029804
110	0xbb85f8d5	-0.004088501
111	0x39b68d66	0.00034819095
112	0xbc3579aa	-0.01107637
113	0xbb267228	-0.0025397632
114	0xbba0c53f	-0.004906326
115	0xb9ce5177	-0.00039352078
116	0xbca65970	-0.020306319
117	0x3b6489ee	0.0034872252
118	0x3cb97a6f	0.022641389
119	0x3c5272ba	0.012844736
120	0x3c7d6985	0.015467052
121	0xbc280597	-0.010255239
122	0x3a48d503	0.0007661136
123	0x3c5ffae1	0.013670654
124	0xbc83cc26	-0.016088556
125	0xbc349861	-0.011022658
126	0xbc62ff62	-0.013854833
127	0xb8c1aa4f	-9.2346796e-05

network_body._body_endoder.seq_layers.2.weight f4 [128, 128]
0	0xbdc99f83	-0.098448776
1	0xbdec08b5	-0.11525098
2	0x3d45d638	0.048299998
3	0xbe211345	-0.15730007
4	0xbcc3f96e	-0.023922648
5	0xbd54fcc0	-0.051998854
6	0x3d8505a2	0.06495215
7	0x3c5aaa53	0.0133462725
8	0xbdf78a32	-0.120869055
9	0x3e089d72	0.1334131
10	0xbd80d4a5	-0.06290559
11	0xbc1314ad	-0.008977097
12	0xbd44c2b8	-0.04803726
13	0xbd334021	-0.04376233
14	0x3ddaf4c2	0.10691215
15	0xbd89dab8	-0.067311704
16	0x3d3cea37	0.046121802
17	0xbc4af989	-0.012388595
18	0x3da76f65	0.08175544
19	0x3d54ad1e	0.05192291
20	0xbe731c32	-0.23741224
21	0x3d3436c7	0.043997552
22	0x3dd7bf17	0.10534494
23	0x3e70ce7e	0.2351627
24	0xba3307a8	-0.0006829449
25	0x3e4046e3	0.18777041
26	0x3d464783	0.048408043
27	0xbccd702f	-0.025077907
28	0xbdf1bd0f	-0.11803638
29	0xbd1749b8	-0.036935538
30	0x3d896e9e	0.06710552
31	0xbda3a7a4	-0.07990959
32	0xbe173c95	-0.14769204
33	0x3cd3d2b3	0.025857305
34	0x3d8801bc	0.06640956
35	0x3daececf	0.08535539
36	0xbbe3691a	-0.0069400193
37	0xbd080cbb	-0.033215266
38	0x3d1027df	0.035194274
39	0x3d66cc20	0.056347013
40	0x3d7ceee1	0.06175125
41	0xbe33fa63	-0.17575984
42	0xbda3a59d	-0.079905726
43	0xbda8e289	-0.08246333
44	0x3de699ff	0.11259841
45	0x3d566083	0.052338134
46	0x3c58c9aa	0.013231674
47	0xbe25347a	-0.161333
48	0xbe06fd9c	-0.13182682
49	0xbe0048c1	-0.12527753
50	0xbd289803	-0.041160595
51	0x3bfb5ea5	0.0076711946
52	0xbda93a17	-0.08263033
53	0x3d020874	0.031746343
54	0x3d003feb	0.031310957
55	0x3d8f83ce	0.070075616
56	0x3b4d10fc	0.003129064
57	0xbe54ca1e	-0.20780227
58	0xbce3b80d	-0.027797723
59	0xbddf72e1	-0.10910583
60	0xbdeac760	-0.11463809
61	0x3e0114ac	0.12605542
62	0xbd1f1a0e	-0.038843207
63	0x3df37bf0	0.118888736
64	0x3c902138	0.017593965
65	0xbd62083b	-0.05518363
66	0xbdcf851b	-0.1013281
67	0x3e09c493	0.13453893
68	0x3dd8c138	0.105837286
69	0x3e013462	0.12617639
70	0xbd7f36a3	-0.062307965
71	0xbcde5fd8	-0.027145311
72	0x3dc75aab	0.097340904
73	0x3e03968f	0.12850402
74	0x3d34924c	0.044084832
75	0x3d0ca8fb	0.03434084
76	0x3c6c719d	0.014431384
77	0x3e15d305	0.14631279
78	0xbde3db1c	-0.11125776
79	0xbd968e1d	-0.07351325
80	0x3d7514a9	0.059834156
81	0xbe3d21c1	-0.18469907
82	0x3da4d01e	0.08047508
83	0xbd6d6a89	-0.057962928
84	0xbd9c5e29	-0.07635147
85	0xbdccd2dd	-0.100011565
86	0x3db6ef51	0.08932365
87	0x3e53ac60	0.20671225
88	0xbe2ccfdd	-0.16876169
89	0x3e19272e	0.14956352
90	0x3cd7a888	0.02632548
91	0xbdb3313d	-0.08749626
92	0xbd8a02c7	-0.06738811
93	0x3bd8304a	0.0065975534
94	0x3e254187	0.16138278
95	0xbe296b3a	-0.1654481
96	0x3d71e894	0.059059694
97	0xbd22c492	-0.039738245
98	0xbd2f6356	-0.042819344
99	0x3d6905a9	0.056890164
100	0xbdbef616	-0.09324281
101	0xbd598b77	-0.05311152
102	0xbcbb5f05	-0.022872457
103	0x3db94c57	0.09047764
104	0x3d1aa219	0.037752245
105	0xbd9ed9fb	-0.0775642
106	0xbc2e5547	-0.010640449
107	0x3d91284c	0.07087764
108	0x3dc26155	0.09491221
109	0xbe182977	-0.14859568
110	0xbcdc377c	-0.026881926
111	0x3dd13809	0.10215766
112	0xbcebff19	-0.028808163
113	0x3e0041c4	0.12525088
114	0x3d237142	0.039902933
115	0x3d279985	0.040917892
116	0xbdc64f52	-0.09683098
117	0xbdeb24f6	-0.11481659
118	0xbc8a3d57	-0.016874952
119	0xbd85a836	-0.06526224
120	0xbcf011ec	-0.02930542
121	0xbe30450a	-0.17213836
122	0x3d9079d9	0.070544906
123	0x3e1a9aee	0.15098163
124	0xbcb92aef	-0.02260348
125	0xbe25cd13	-0.16191511
126	0xbd8c1b3f	-0.06841134
127	0xbcf28fc9	-0.029609578
128	0x3d381912	0.044945784
129	0x3b04faed	0.0020291165
130	0x3d8b5cc8	0.06804806
131	0x3de89905	0.11357311
132	0x3ccb6371	0.02482769
133	0xbbe9dbcb	-0.007136797
134	0x3db4c0f3	0.08825865
135	0x3ba75866	0.0051069735
136	0xbddf0adc	-0.10890743
137	0xbe09bbc0	-0.13450527
138	0x3c305e99	0.010764741
139	0xbdaa391a	-0.083116725
140	0xbce32203	-0.027726179
141	0x3da22175	0.07916538
142	0xbdee2fd8	-0.11630219
143	0x3e0afdc7	0.13573371
144	0xbcc441ed	-0.023957217
145	0xbd968a3b	-0.07350584
146	0xbd2a30dc	-0.041550502
147	0x3d8961de	0.0670812
148	0x3c5e9666	0.0135856625
149	0xbd1ac70b	-0.03778748
150	0xbd2294b2	-0.03969259
151	0xbdf66ce1	-0.12032486
152	0xbd2aaee9	-0.041670714
153	0xbb0a6ab8	-0.0021120738
154	0x3ca16003	0.019699102
155	0xbc9d0d6d	-0.019171441
156	0xbe950248	-0.29103303
157	0xbdddf3a0	-0.108374834
158	0x3e0c1ba5	0.1368242
159	0x3ce06c77	0.02739547
160	0xbd8d6954	-0.06904855
161	0x3db58553	0.0886332
162	0xbd732dff	-0.059370037
163	0xbd44e4bc	-0.0480697
164	0x3d4e7a45	0.050409574
165	0x3d890462	0.06690289
166	0xbd764251	-0.060121838
167	0xbc00dbed	-0.007864934
168	0x3d455d32	0.04818458
169	0xbd6b628b	-0.057467025
170	0x3d1b001a	0.037841894
171	0x3d4bf0ce	0.049790196
172	0x3de333dd	0.110938765
173	0xbd9c4f53	-0.076323174
174	0xbdac87ad	-0.084243156
175	0xbe2f4862	-0.17117456
176	0x3c181f93	0.009284872
177	0xbe864cc2	-0.26230437
178	0xbba9329f	-0.005163505
179	0xbd058bcb	-0.03260402
180	0x3e5598e7	0.20859109
181	0xbd9c2921	-0.07625032
182	0xbbb20b03	-0.0054334416
183	0x3e1d668c	0.1537115
184	0x3e1df15d	0.15424104
185	0x3d10b00f	0.035324153
186	0xbddbc24d	-0.10730419
187	0x3e391258	0.18073404
188	0x3c5fe0bf	0.0136644235
189	0xbe1716cb	-0.14754789
190	0xbd89c011	-0.06726087
191	0x3dd723bc	0.10504863
192	0x3d447301	0.04796124
193	0x3c040606	0.008058077
194	0xbe1f6d57	-0.15569054
195	0xbd461164	-0.04835643
196	0xb985f502	-0.00025550282
197	0x3e2e39ca	0.17014232
198	0xbdb0bec1	-0.086301334
199	0xbdf9e136	-0.12201159
200	0xbdc39745	-0.09550337
201	0xbb123d26	-0.002231428
202	0xbd7cd216	-0.06172379
203	0x3cab1b4b	0.020887038
204	0xbddd9bef	-0.108207576
205	0xbd8aca49	-0.06776864
206	0x3db7680a	0.08955391
207	0x3e4892d4	0.1958726
208	0xbd04df97	-0.032439794
209	0xbde89cb5	-0.113580145
210	0xbe295577	-0.16536509
211	0x3c68288c	0.014169823
212	0x3d010663	0.03150023
213	0x3d86df7f	0.06585597
214	0x3e23d47e	0.15999028
215	0xbc5a8e42	-0.013339581
216	0xbdff3b00	-0.12462425
217	0x3b71cc69	0.003689552
218	0x3c82eb6e	0.015981402
219	0xbd9d37a8	-0.07676631
220	0xbdffed6a	-0.12496455
221	0x3daad918	0.083421886
222	0xbd1a875c	-0.037726745
223	0x3d8a567b	0.06754776
224	0x3d1388e0	0.036019206
225	0xbd75b2fb	-0.059985142
226	0xbde48aca	-0.111592844
227	0xbe199cfd	-0.15001293
228	0x3b9ec472	0.0048451954
229	0xbda2bf4a	-0.07946642
230	0x3cc8b084	0.024498232
231	0x3e7ef926	0.2489973
232	0x3e008ff8	0.1255492
233	0xbe1038f2	-0.14084223
234	0xbe238af4	-0.15970975
235	0xbd9979bb	-0.07493921
236	0xbde822cb	-0.11334761
237	0x3d62d786	0.05538132
238	0xb8f0d343	-0.00011483442
239	0xbccec9f8	-0.02524279
240	0xbd0b34c4	-0.033985868
241	0xbc6db364	-0.014508102
242	0x3d79bf37	0.060973372
243	0xbd7ef080	-0.062241077
244	0xbd17f4fa	-0.037098862
245	0x3d554fcd	0.052078057
246	0x3dacbfe6	0.08435039
247	0x3dfbb20c	0.12289819
248	0xbc452ca7	-0.012034572
249	0xbd16544c	-0.036701486
250	0x3d47afcc	0.048751637
251	0xbd564bcb	-0.052318376
252	0xbc16bc8d	-0.009200227
253	0xbd0a29ed	-0.03373139
254	0x3d4613e3	0.04835881
255	0xbdb2582b	-0.08708223

network_body._body_endoder.seq_layers.2.bias f4 [128]
0	0x3ce7663f	0.028246997
1	0x39ea1186	0.00044645014
2	0x3c06672e	0.008203311
3	0x3bcf3bfd	0.00632429
4	0x3caf0c2a	0.021368105
5	0xba806e8c	-0.000979857
6	0x392dbfba	0.0001656999
7	0xbb1ff0c0	-0.0024404973
8	0x3c2c8b52	0.010531263
9	0x3b4eb833	0.0031542897
10	0x3b1266de	0.0022339146
11	0x3b9b3a54	0.004737178
12	0xbb649479	-0.0034878536
13	0x3ac2883f	0.001484163
14	0x3a843997	0.0010087964
15	0xb9cbd9be	-0.00038881408
16	0x3c17bda6	0.009261524
17	0x3bd81640	0.0065944493
18	0x3a084a16	0.0005199028
19	0x3c59f5d7	0.013303242
20	0x3b416b15	0.0029513289
21	0x3c101ec1	0.008796395
22	0xbbc15800	-0.005900383
23	0xbb493cf2	-0.0030706492
24	0x3bcd160d	0.006258732
25	0x3b9185e1	0.0044410084
26	0x3af253e9	0.0018488142
27	0x3bd42cdd	0.0064750747
28	0xbb0e5f54	-0.00217243
29	0xbb20c46c	-0.002453114
30	0x3bbac68e	0.005699939
31	0x3c70c02d	0.014694256
32	0x3aa396ea	0.0012480889
33	0x38daea07	0.00010438641
34	0xbbfae951	-0.007657208
35	0xbb92771c	-0.0044697654
36	0x3c20cc69	0.00981436
37	0xbb5b5bf4	-0.0033471556
38	0x3b7b45c2	0.003834114
39	0x39bd7d3c	0.00036142196
40	0xbc0d9ac7	-0.008642859
41	0x3c2c2baa	0.010508457
42	0x3c2a1a74	0.0103822835
43	0x3c0cdb0d	0.008597148
44	0xba88bd84	-0.0010432457
45	0x3b634394	0.003467773
46	0x3ba5f076	0.0050640656
47	0x3bc85f73	0.006114894
48	0xba722e54	-0.0009238471
49	0x3a4bbcb6	0.00077719556
50	0xba3bb634	-0.0007160634
51	0xbb7d2e01	-0.0038632157
52	0x3b67c218	0.0035363492
53	0xbbc74c15	-0.0060820677
54	0xbb705176	-0.0036669648
55	0x3c07adeb	0.008281211
56	0x3b3fb41e	0.0029251645
57	0x3b1ea8bc	0.002420946
58	0x3b821761	0.003970072
59	0x3b7d2415	0.0038626243
60	0xb90f7a2e	-0.00013683058
61	0x3aeca05b	0.0018053161
62	0x3ad727a9	0.0016415018
63	0xbc43177b	-0.011907454
64	0xbbe95624	-0.0071208645
65	0x3c3c0f11	0.0114782015
66	0x3bba8e55	0.005693237
67	0xba0ba3ed	-0.0005326856
68	0x3aa12673	0.0012294784
69	0x3c610c0b	0.013735781
70	0xbbc4b2cd	-0.00600276
71	0x3bdbefd0	0.0067119375
72	0x3c0d39d4	0.008619744
73	0x3c438632	0.01193385
74	0x3c4fcc50	0.012682989
75	0x399db276	0.00030078337
76	0x38e385c4	0.00010849119
77	0x3b4b58fa	0.0031028376
78	0xbabd23b4	-0.0014430196
79	0xbaeffb8e	-0.0018309222
80	0xbc001ae2	-0.007818909
81	0xbbb5dfd8	-0.005550366
82	0x3c4fd8c1	0.0126859555
83	0x3c3586b1	0.011079476
84	0x3bb9865e	0.00566177
85	0x3b81cf5d	0.003961487
86	0xbc9d9845	-0.019237647
87	0x3c300559	0.0107434625
88	0x3c0c7c1e	0.008574514
89	0x3b76fa8c	0.0037685959
90	0x3ac8aaf5	0.0015309738
91	0x3c832a2b	0.016011318
92	0x3adec819	0.001699689
93	0x3bc358bd	0.005961506
94	0x3af29591	0.0018507709
95	0x3b6b273e	0.0035881544
96	0xb9c80074	-0.0003814731
97	0xbaa4330d	-0.0012527421
98	0x3ad04e35	0.0015892448
99	0xbc339081	-0.010959745
100	0x3c975579	0.018473374
101	0x3b767ca6	0.0037610917
102	0x3a98d079	0.0011658809
103	0x3b8a8824	0.004227655
104	0x3b933264	0.004492091
105	0x3b8d22c3	0.0043071224
106	0x3cb9937c	0.022653334
107	0x3b0dadab	0.0021618407
108	0xbb593f35	-0.0033149247
109	0x3c717022	0.014736207
110	0xbb163029	-0.002291689
111	0xb98bcc0d	-0.00026664176
112	0x3c15b5f5	0.00913762
113	0x3aa13ffa	0.0012302392
114	0x3ae9df10	0.0017842967
115	0xbae110ab	-0.0017171105
116	0xbc4281ac	-0.0118717365
117	0xbb383498	-0.002810752
118	0x3b688b9f	0.0035483611
119	0x3c82ae65	0.015952298
120	0x3a4f2f53	0.0007903475
121	0xbc73dd79	-0.014884346
122	0x3b816993	0.003949353
123	0x3b8a3d36	0.0042187227
124	0x3c3fdd91	0.01171054
125	0x3bfa199c	0.0076324474
126	0x3aa5f691	0.0012661983
127	0xbaeed307	-0.001822085

action_model._discrete_distribution.branches.0.weight f4 [3, 128]
0	0xbc1f0321	-0.009705336
1	0xbc14c88e	-0.009081019
2	0x3c59e871	0.013300047
3	0x3bd7755f	0.006575271
4	0xbc0419c8	-0.008062787
5	0xbd01b938	-0.03167078
6	0x3c9d218c	0.019181035
7	0x3d1be671	0.038061563
8	0x3cb19e36	0.021681886
9	0x3cc94a60	0.024571598
10	0xbcead966	-0.028668117
11	0x3c012f8a	0.007884869
12	0x3a90b6fd	0.0011040863
13	0x3c697e25	0.014251267
14	0x3c0093ed	0.007847768
15	0xbc3aab73	-0.011393416
16	0x3c8d5160	0.017250717
17	0x3b36d07b	0.002789526
18	0x3c76fd97	0.015075109
19	0x3ca2984a	0.019848008
20	0xbcd380ff	-0.025818346
21	0x3bae6367	0.0053219083
22	0x3b82993b	0.0039855517
23	0xbc2276cb	-0.009916018
24	0x3b5c3f79	0.0033607169
25	0x3be9468d	0.007119006
26	0x3c8dc280	0.017304659
27	0xbc632269	-0.0138631845
28	0xbd04f43c	-0.032459483
29	0x3c192e33	0.009349394
30	0x3b9c28ea	0.0047656195
31	0x3c61a063	0.013771149
32	0x3b18ae5f	0.0023297293
33	0xbbd0a4d2	-0.0063673044
34	0xbb9a0e11	-0.004701384
35	0xbbf8bf1c	-0.0075911414
36	0x3c26613f	0.010155021
37	0xbc07f505	-0.008298163
38	0xb8feaba3	-0.00012143634
39	0x3c3de44b	0.011590074
40	0x3cc821ba	0.024430145
41	0xbca9e955	-0.020741144
42	0xbc896708	-0.016772762
43	0x3bdd6411	0.0067563136
44	0x3a30bf21	0.00067423476
45	0xbc8f2a28	-0.017476156
46	0xbc81f544	-0.015864022
47	0x3ab51d17	0.0013817874
48	0xbc2ac7b9	-0.010423594
49	0xbc69b32a	-0.014263907
50	0xbcce8ebf	-0.025214551
51	0xbcb04de0	-0.021521509
52	0x3c713879	0.014722937
53	0x3c8c433e	0.017121907
54	0x3c559604	0.013036255
55	0x3c140279	0.009033793
56	0xbcbedb86	-0.023298036
57	0xbbb44ea2	-0.005502538
58	0xbcdd5403	-0.027017599
59	0xbcba3371	-0.022729607
60	0xbbe9c345	-0.0071338736
61	0xbca0fcfb	-0.01965188
62	0xbc407eea	-0.011749009
63	0x3c9b27a8	0.018939808
64	0x3d06aa75	0.032877404
65	0xbb446863	-0.0029969446
66	0xbc761333	-0.015019226
67	0x3be78984	0.0070659537
68	0xbcab6f1b	-0.020927003
69	0x3ad09cc8	0.0015915865
70	0x3cffcca6	0.031225514
71	0x3c5477e0	0.012968034
72	0xbca50d41	-0.020147922
73	0x3ca4c90e	0.020115402
74	0x3c909525	0.017649243
75	0x3b931c06	0.0044894246
76	0xbc065fdc	-0.008201566
77	0xbc785485	-0.01515687
78	0xbbdc1b8d	-0.0067171515
79	0x3c096869	0.00838671
80	0x3cef4fef	0.02921292
81	0xbb6d01db	-0.0036164436
82	0xbc1e8ac4	-0.009676639
83	0xbb4f20c8	-0.0031605233
84	0x3b18045f	0.0023195965
85	0xbca48250	-0.02008167
86	0x3ca8923b	0.02057754
87	0x3beef163	0.007291959
88	0xbbc6d9df	-0.0060684527
89	0xbd0949ac	-0.033517525
90	0xbc5f47c9	-0.013627955
91	0xbc2d76c1	-0.010587395
92	0x3b969f1f	0.0045966054
93	0xbccc43b7	-0.024934633
94	0x3d0a7ad1	0.033808533
95	0xbc014254	-0.007889349
96	0x3c8f2d4b	0.017477652
97	0xb98fb961	-0.00027413203
98	0xbc974eb8	-0.018470153
99	0x3c0a1536	0.008427909
100	0x3ca25c9a	0.019819546
101	0xbc8e2265	-0.017350385
102	0x3c0312be	0.008000074
103	0x3cba9c9c	0.022779755
104	0x3cb9a7ac	0.02266296
105	0xbc079e1b	-0.008277441
106	0xbc5d4602	-0.013505461
107	0xbb2d608f	-0.0026455258
108	0xbcf1ad5f	-0.029501615
109	0x3accd9d8	0.0015628887
110	0x3c3bd06c	0.011463266
111	0x3bacf134	0.005277777
112	0xbbeed561	-0.0072886203
113	0xbca7e78c	-0.020496152
114	0xbbc3b842	-0.005972893
115	0xbc255bbc	-0.010092672
116	0x3cd7a449	0.026323454
117	0xbc3ad2c5	-0.01140279
118	0xba61d961	-0.0008615461
119	0xbc28af74	-0.010295738
120	0xbb9ebf0e	-0.004844553
121	0x3b0529a3	0.0020319007
122	0xbcd8e763	-0.026477521
123	0xbcab73ea	-0.020929296
124	0xbbf5e486	-0.0075040488
125	0xbcf8abe9	-0.03035541
126	0xbc7b79c2	-0.015348854
127	0x3b5ec8a5	0.0033994105
128	0x3b3862c1	0.0028135034
129	0x3bad097a	0.0052806707
130	0xbb61ed65	-0.0034473774
131	0xbc9f25b2	-0.019427154
132	0xbc4485a1	-0.01199475
133	0xbb870c4a	-0.004121338
134	0xbc9e5281	-0.01932645
135	0xbb919416	-0.004442702
136	0x3cb8ce17	0.022559209
137	0xbc95a78f	-0.018268375
138	0x3ced5ee6	0.028975915
139	0x3bac018d	0.0052492083
140	0x3ba4a5a5	0.005024629
141	0xbc18b24c	-0.009319853
142	0x3c7d1079	0.015445822
143	0xbc69a9b6	-0.014261654
144	0x3b68ba86	0.0035511567
145	0xbb539f67	-0.0032291056
146	0xbbb4e80a	-0.0055208253
147	0x3c962ac9	0.018330948
148	0x3c86cfea	0.016456563
149	0xbc7cebe7	-0.015437103
150	0xbc9ae77c	-0.018909208
151	0xbb0f03d5	-0.0021822352
152	0x3c21a043	0.0098648695
153	0xbc3a6c16	-0.011378309
154	0xbc199e9e	-0.009376196
155	0x3c433942	0.011915507
156	0x3ba6eedb	0.0050943918
157	0x3d0edcad	0.03487842
158	0x3ce8c2a0	0.028413117
159	0xbcbc4ffc	-0.022987358
160	0xbd08a6fe	-0.03336238
161	0x3c29693c	0.010340031
162	0x3b22f9b0	0.0024868064
163	0x3a70a649	0.0009180052
164	0xbc367321	-0.011135847
165	0x3aa3f8c6	0.0012510053
166	0xbb8f7daf	-0.0043789963
167	0xbb544ccd	-0.003239441
168	0x3b90930e	0.0044120615
169	0xbc201f3c	-0.009773072
170	0xbbe03688	-0.006842438
171	0xbc4b83a2	-0.01242152
172	0xbb00617e	-0.001958936
173	0x3c4e3912	0.012586849
174	0xbc0a55b8	-0.0084432885
175	0x37d3c297	2.5243773e-05
176	0xbc011b78	-0.007880084
177	0xbbaf8a66	-0.0053570746
178	0x3c1865b8	0.009301595
179	0x3c9b9a37	0.018994434
180	0xbc2e5c6f	-0.010642155
181	0x3c15eb5f	0.009150355
182	0xbc0c667f	-0.008569359
183	0x3c43c1f5	0.011948098
184	0xbc096fda	-0.008388484
185	0xbbb76b0a	-0.005597477
186	0xbc6ba6fd	-0.014383075
187	0xbc952b06	-0.018208992
188	0xbc7f4eec	-0.015582781
189	0x3a9d1f1e	0.0011987423
190	0x3cb70f0a	0.022346038
191	0x3c3d2f09	0.011546859
192	0x3c972a50	0.018452793
193	0x3c60f94c	0.013731312
194	0xbb8f5f6a	-0.004375388
195	0xbc1b8403	-0.009491923
196	0xbbf5e052	-0.0075035477
197	0x3b0c1d33	0.0021379709
198	0xbc80433c	-0.01565706
199	0x3c42289d	0.011850503
200	0x3baedf0d	0.0053366483
201	0xbb8a4a12	-0.0042202557
202	0x38420d8a	4.6265814e-05
203	0x3af0c1fe	0.0018368361
204	0x3c57ce95	0.013171812
205	0x3cd25d28	0.025679186
206	0xbb083b0a	-0.0020787143
207	0xbd293227	-0.041307595
208	0xbc61c2e6	-0.013779378
209	0x3bcc2f92	0.0062312568
210	0xbc65aa38	-0.014017634
211	0xbb119e91	-0.0022219757
212	0xbc554d18	-0.013018869
213	0x3cc8d5a9	0.024515944
214	0x391c0080	0.00014877506
215	0x3744e2d5	1.1735324e-05
216	0x3c6b8ca8	0.014376797
217	0x3bbda6c9	0.0057877046
218	0xbb9fd51a	-0.0048776986
219	0x3ced55f6	0.028971653
220	0xbbb60b5e	-0.0055555543
221	0x3c39edbb	0.011348183
222	0xbaa28ab9	-0.0012400962
223	0x3b4e5ad9	0.0031487255
224	0x3bb2888b	0.005448406
225	0x3c366dd8	0.011134587
226	0x3c5ef729	0.013608732
227	0xbb8c65a6	-0.0042845784
228	0xbce409c3	-0.027836686
229	0x3ce40a16	0.02783684
230	0xbc78fb83	-0.015196684
231	0xbc6d99d6	-0.014502009
232	0xbc33fbdd	-0.010985342
233	0xbcdc8863	-0.026920503
234	0x3c7b1e8c	0.015327107
235	0xbb8afa30	-0.0042412505
236	0xbb47411a	-0.0030403794
237	0xbb9c657b	-0.0047728396
238	0xbc0bc061	-0.008529753
239	0x3ca6ffef	0.02038571
240	0xbc24b963	-0.010053965
241	0x3bb1fc12	0.0054316605
242	0x3c5464b5	0.012963464
243	0x3cbb372f	0.022853462
244	0xbbe0333f	-0.0068420465
245	0x3c4907ec	0.012269955
246	0xbbb6e519	-0.00558151
247	0xbc0f41fa	-0.008743757
248	0x3c7aebba	0.015314991
249	0x3beb8148	0.0071870424
250	0x3c837bce	0.016050246
251	0x3bdbeb6d	0.0067114145
252	0xbd089bd9	-0.033351753
253	0xbc61db11	-0.01378514
254	0x3bb5665b	0.0055358834
255	0xbc403b08	-0.011732824

action_model._discrete_distribution.branches.0.bias f4 [3]
0	0xbc9e1351	-0.01929632
1	0x3bffb1c0	0.007803172
2	0x3bb51490	0.005526133

action_model._discrete_distribution.branches.1.weight f4 [3, 128]
0	0xbcb0be71	-0.021575185
1	0xbc125a69	-0.008932688
2	0x3c06a0a6	0.0082170125
3	0xba9889a5	-0.0011637701
4	0x3c613a5a	0.013746822
5	0xbc052f89	-0.008129009
6	0xbb0f837d	-0.0021898441
7	0xb9534c60	-0.0002015098
8	0x3c0c0d25	0.008548056
9	0xba961401	-0.0011450053
10	0x3ca7303e	0.020408746
11	0x3ca3f7b3	0.020015573
12	0xbc16556c	-0.00917564
13	0xbae825d8	-0.0017711474
14	0x3c11663b	0.008874471
15	0xbc9eed4a	-0.019400258
16	0x3abea4bc	0.0014544944
17	0x3c90f532	0.017695043
18	0x3c490678	0.012269609
19	0xbb960e8f	-0.0045793722
20	0xbcd477da	-0.025936056
21	0x3c979087	0.018501533
22	0xba91715c	-0.0011096406
23	0xbb94a7d3	-0.004536608
24	0xbbf25724	-0.007395642
25	0x3cbc69a8	0.0229996
26	0x3d026215	0.03183182
27	0x3c90bf7c	0.017669432
28	0x3c2f1baa	0.010687748
29	0xbc55c620	-0.013047725
30	0xbc65afd7	-0.014018974
31	0xbc04db9b	-0.008108999
32	0x3bacde60	0.0052755326
33	0xbcb0126d	-0.021493161
34	0xbc4d310b	-0.0125239
35	0xbc1de95d	-0.009638158
36	0xbc87f5db	-0.016596725
37	0x3bc9e1d9	0.0061609563
38	0xbc156dab	-0.009120385
39	0x3aa0669d	0.0012237612
40	0x3cc155bc	0.023600452
41	0xbc824cd3	-0.015905773
42	0x3cb95b7e	0.022626635
43	0x3b9edd6d	0.0048481734
44	0xbc9d5727	-0.019206597
45	0xbc153b4b	-0.009108375
46	0xbc195f36	-0.009361079
47	0x3ce905aa	0.028445084
48	0x3b87f9e4	0.0041496623
49	0xbba33733	-0.0049809455
50	0xbbd06a66	-0.00636034
51	0x3beb40ca	0.0071793543
52	0x3c56fc91	0.01312174
53	0x3b9a1488	0.0047021545
54	0x3c9d8ef0	0.019233197
55	0x3b655b00	0.0034996867
56	0x3c8cb4ee	0.017176118
57	0x3c361f26	0.011115825
58	0xba984619	-0.001161757
59	0x3ccb6a2e	0.024830904
60	0x3c8cd02e	0.017189112
61	0xbb040fd0	-0.0020151027
62	0xbc120d24	-0.008914266
63	0xbbd81a36	-0.0065949215
64	0xbb80af5b	-0.003927154
65	0xbc08e9aa	-0.008356491
66	0x3c73c72e	0.014879031
67	0x3af7a201	0.0018892885
68	0xbcd50fbb	-0.026008477
69	0xbc8bb680	-0.017054796
70	0x3d010ae5	0.03150453
71	0x3832ef77	4.2661526e-05
72	0x3c6f80c0	0.014618099
73	0x3ad53e8c	0.0016269251
74	0x3a04daae	0.0005067986
75	0xbcdbfdbb	-0.026854387
76	0x3b19753d	0.0023415827
77	0xbc2ef3de	-0.01067826
78	0xbaf2c239	-0.0018521018
79	0xbba9fbd3	-0.0051874905
80	0x3c9f80b4	0.01947055
81	0xbc268240	-0.01016289
82	0xba30367b	-0.00067219854
83	0xbc33e658	-0.010980211
84	0x3cc690a5	0.024238894
85	0x39f5b03a	0.0004686134
86	0x3cdc2564	0.026873298
87	0xbc841323	-0.016122406
88	0xbc9d3c88	-0.019193903
89	0xbb901231	-0.0043967
90	0xbc89ca21	-0.016820015
91	0x38d12515	9.972804e-05
92	0x3ac69fe9	0.0015153858
93	0x3baa2b2a	0.005193134
94	0xbb16ca9e	-0.0023008953
95	0xbbe4222e	-0.0069620823
96	0x3c7a30a2	0.015270384
97	0x3cb9521b	0.022622159
98	0xbb14a7d0	-0.0022683032
99	0x3cb1ff55	0.021728197
100	0x3c9c5f81	0.019088509
101	0xbb9975e2	-0.004683242
102	0x3ba0b4c3	0.004904361
103	0xbbbff3a4	-0.0058579016
104	0x3c62f74e	0.013852907
105	0xbb992bb0	-0.0046743974
106	0x3a6cbb02	0.0009030552
107	0x3c7ddacd	0.015494061
108	0xbc3558ea	-0.011068562
109	0xbafb62ef	-0.0019179265
110	0xbcab93d7	-0.020944519
111	0x3caa6462	0.02079982
112	0x3c963170	0.01833412
113	0xbc850dc6	-0.01624192
114	0x3b6108a4	0.0034337426
115	0xbbbd4f23	-0.005777256
116	0x3c2b2b8f	0.010447397
117	0x3bd8f4dc	0.0066209864
118	0xbcd70485	-0.026247272
119	0x3bf25ae9	0.0073960912
120	0xba7c3f52	-0.00096224726
121	0x3b1f9a19	0.0024353324
122	0x3a2a31eb	0.00064924237
123	0xbca399f8	-0.019970879
124	0x3cab119b	0.020882418
125	0xbc172bdb	-0.009226765
126	0xbc06209a	-0.008186484
127	0x3ca1b9ad	0.019741857
128	0xbbd6d7ed	-0.006556502
129	0xbcb47e5d	-0.022032911
130	0xbbe48a3c	-0.0069744866
131	0xbc9c9881	-0.019115688
132	0xbce9662f	-0.028491108
133	0x3b4d1282	0.003129155
134	0x3c1fed84	0.009761218
135	0xbc53510b	-0.01289774
136	0x3c3ac46a	0.011399368
137	0xbc6005e6	-0.013673281
138	0x3b84c334	0.0040515903
139	0xbc3c37be	-0.011487899
140	0x3c48c675	0.012254347
141	0xbc04cddb	-0.00810572
142	0x3c6844b4	0.014176536
143	0xbc388194	-0.011261363
144	0xbbc6c488	-0.006065909
145	0xbd1287e2	-0.03577412
146	0xbc079641	-0.008275569
147	0x3d3db179	0.04631183
148	0xbc0270d8	-0.007961474
149	0xbcd6165e	-0.026133712
150	0xbb815f57	-0.003948133
151	0xbc40925f	-0.011753648
152	0x3d0524a3	0.032505643
153	0xbc521e6c	-0.012824636
154	0xbca5d10e	-0.020241287
155	0x3cc80c0e	0.02441981
156	0xbb5bba1e	-0.0033527683
157	0xbc6d73f8	-0.014492981
158	0x3cd5fabf	0.026120542
159	0xbcf98014	-0.03045658
160	0xbd59e3cb	-0.053195756
161	0x3c2f1168	0.010685302
162	0x3bc29d9c	0.0059391987
163	0xbc9ae61c	-0.018908553
164	0xbc89ada0	-0.016806424
165	0x3c9066ba	0.017627109
166	0xbc4a99fc	-0.012365814
167	0xbcbff1b2	-0.023430679
168	0xba875b78	-0.0010326942
169	0xbc52c8cd	-0.012865257
170	0x3ccf4c05	0.025304804
171	0xbbb62e34	-0.005559707
172	0x3b0aff66	0.0021209358
173	0x3ca2f126	0.01989038
174	0xbc87f7a0	-0.016597569
175	0xbc077a4a	-0.008268902
176	0xbc49f9a9	-0.01232759
177	0xbbb94b1b	-0.005654705
178	0x3c6a3456	0.014294704
179	0xbb263324	-0.0025360072
180	0x3c78259d	0.015145686
181	0xbcd12102	-0.025528435
182	0xbc946b4a	-0.018117566
183	0x3c4c32cc	0.012463283
184	0x3ace8a3c	0.001575775
185	0xbc8a7abf	-0.016904233
186	0xbc24a259	-0.010048472
187	0xbc925a96	-0.01786546
188	0xba935c0b	-0.0011242641
189	0x3c6bf663	0.014402005
190	0x3c70ae14	0.014689941
191	0xbc33c709	-0.010972747
192	0x3b651ceb	0.0034959863
193	0x3c10f8fa	0.008848423
194	0x3c46e8b0	0.012140438
195	0x3c06e73e	0.008233843
196	0x3be434e6	0.006964314
197	0x3b83c083	0.004020752
198	0xb9410fc8	-0.00018411793
199	0xbbda0886	-0.006653848
200	0x3ccdc04b	0.025116106
201	0x3bdf37c8	0.0068120696
202	0xbc168c8b	-0.0091887815
203	0x3b12a7c4	0.0022377828
204	0xbc21e000	-0.009880066
205	0x3ccc9a4a	0.024975915
206	0x3c4dcfd3	0.012561756
207	0x3c213a8d	0.00984062
208	0xbb2cecb2	-0.0026386199
209	0x3c789f0b	0.015174638
210	0xbbcd7611	-0.006270178
211	0xbc7fb6ca	-0.015607545
212	0xbc46307d	-0.012096521
213	0x3a2ebb44	0.0006665478
214	0xbc400391	-0.0117196
215	0xbc86070d	-0.016360784
216	0xbc2fcf49	-0.010730573
217	0x3b5c6879	0.0033631606
218	0x3cb684fc	0.022280209
219	0x3ce15b65	0.0275094
220	0xbb93d676	-0.0045116497
221	0x3cd85803	0.026409155
222	0x3c354da8	0.011065878
223	0x3cf7c9d0	0.030247599
224	0xbc95fd48	-0.01830925
225	0x3cb3aad1	0.021932038
226	0xbc281a8c	-0.0102602355
227	0x3bdcc660	0.0067375153
228	0xbc8f1fff	-0.017471312
229	0x3c1f8836	0.009737065
230	0xbc071ea3	-0.00824705
231	0xbcc80a01	-0.024418833
232	0x3c3cc264	0.011520956
233	0xbc853161	-0.016258897
234	0xbd102ba4	-0.03519787
235	0xbc2e59c2	-0.010641517
236	0xbb2cb8da	-0.0026355297
237	0xbca18e1a	-0.01972108
238	0xba02cd72	-0.000498972
239	0x3ce29159	0.027657198
240	0x3c54661a	0.012963796
241	0xb9f33393	-0.00046386998
242	0x3d09aed4	0.033613995
243	0x3c742b9b	0.0149029745
244	0x3c1a4b1b	0.009417321
245	0x3b4f0cfb	0.003159343
246	0xbbbef457	-0.0058274674
247	0xbc968895	-0.018375674
248	0x3c9a2904	0.018818386
249	0x3b9c58ab	0.0047713122
250	0x3b74f78d	0.0037378997
251	0x3cd04dad	0.025427664
252	0xbcff65b7	-0.031176431
253	0x3bf9248c	0.0076032337
254	0x3c1075bb	0.008817132
255	0x3cbb86b9	0.02289139

action_model._discrete_distribution.branches.1.bias f4 [3]
0	0xbb94cda6	-0.0045411168
1	0x3a2c026d	0.0006561641
2	0x3b611722	0.0034346064

action_model._discrete_distribution.branches.2.weight f4 [2, 128]
0	0x3ad6750d	0.0016361788
1	0x3c1408ba	0.009035284
2	0x3b12a2c8	0.0022374857
3	0xbc326436	-0.01088815
4	0xbcaae7c3	-0.020862466
5	0xba53893d	-0.00080694613
6	0x3b8b8639	0.004257944
7	0xbaed345f	-0.0018097273
8	0x3b668e20	0.0035179928
9	0xbc01b25b	-0.007916058
10	0xbb678442	-0.0035326635
11	0xbc39a6ae	-0.011331243
12	0x3cdf88e4	0.027286954
13	0xb98eec67	-0.00027260484
14	0xbc8036e0	-0.015651166
15	0xbc590c9d	-0.013247636
16	0xbb6e8cec	-0.0036399914
17	0x3bf68e4e	0.0075242883
18	0x3c4cea6d	0.012507063
19	0x3b40aab6	0.0029398627
20	0x3b408058	0.0029373374
21	0xbc6036f9	-0.0136849815
22	0xbbd12006	-0.0063819913
23	0x3c96a742	0.018390302
24	0x3b4892f4	0.003060517
25	0x3bd37030	0.006452583
26	0xbb5cb3e8	-0.0033676568
27	0x3cc8b9c6	0.024502646
28	0xbb56b105	-0.003275932
29	0x3c0ed0c6	0.008716768
30	0xbbbc9325	-0.0057548457
31	0xbc66ed47	-0.014094657
32	0xbccc1cf9	-0.024916159
33	0xbc6f1b69	-0.014593937
34	0x3c3a1a46	0.011358803
35	0xbbc7b6ea	-0.006094803
36	0xbc946787	-0.018115772
37	0x3a64840d	0.0008717187
38	0xbb85ed8e	-0.0040871566
39	0x3b781101	0.0037851932
40	0xbba8acdd	-0.00514756
41	0xbba5a793	-0.005055377
42	0x3c7e8aaf	0.015535994
43	0x3c7fa4de	0.015603272
44	0x3b996e59	0.004682344
45	0x3c368686	0.011140471
46	0x3cabb5da	0.020960737
47	0x3c7402f8	0.014893286
48	0xbc00932e	-0.00784759
49	0xbb6683c9	-0.0035173765
50	0x3b3a9ea2	0.00284759
51	0x3b44be8f	0.0030020808
52	0xbbf6ab6e	-0.00752776
53	0x3c48eb4d	0.012263131
54	0xbb0c95d2	-0.0021451605
55	0xbc5b889e	-0.013399271
56	0xbc74c4fc	-0.014939543
57	0xbc71867a	-0.014741534
58	0xbc3add48	-0.011405297
59	0xb9a7098e	-0.0003185984
60	0xbc7ff9df	-0.015623539
61	0x3c8251f1	0.015908213
62	0xbb08b1b0	-0.0020857863
63	0xbb048740	-0.0020222217
64	0x3bf8b16e	0.0075895106
65	0x3c861724	0.016368456
66	0xbbf48099	-0.007461619
67	0xbcf2cded	-0.029639209
68	0xbc15328e	-0.009106291
69	0x3be22293	0.006901094
70	0x3bc57b2e	0.006026647
71	0x3c344d1e	0.011004714
72	0x3c2f9146	0.010715788
73	0xbc97c093	-0.018524444
74	0xbc1bf10f	-0.009517922
75	0x3a7140bf	0.00092030683
76	0xbbcddeac	-0.006282648
77	0x3c4de09b	0.012565757
78	0xbbe4564f	-0.0069682966
79	0x3c8e3ce4	0.01736302
80	0x3abc5cb3	0.0014370888
81	0xbc23c30e	-0.009995235
82	0xbbc5151b	-0.006014479
83	0xbc33f987	-0.010984785
84	0xbc548755	-0.012971719
85	0xbc0629f8	-0.008188717
86	0xba8cd230	-0.0010743793
87	0xbbd79361	-0.006578848
88	0xbc8a8b05	-0.016911993
89	0xbc351a6b	-0.011053662
90	0xbbb18986	-0.0054180054
91	0x3b57953d	0.003289535
92	0xbc8fcd41	-0.017553927
93	0xbba63bd2	-0.005073049
94	0x3c240e0c	0.010013115
95	0xbb9dc297	-0.0048144567
96	0x3a98e4c0	0.0011664852
97	0x3c7772c7	0.015103049
98	0xbc52e03e	-0.012870846
99	0x3c4beda6	0.0124467965
100	0xbbddf470	-0.006773524
101	0x3ccebae3	0.025235599
102	0xbbfe1c0f	-0.0077548097
103	0xbbd92528	-0.006626744
104	0x3c44a4e2	0.012002202
105	0xbc65df1a	-0.014030242
106	0xbd0e0965	-0.034676928
107	0x3a5f07b0	0.00085079204
108	0xbc007da6	-0.007842457
109	0x3b6e5f55	0.003637274
110	0x3a53ab6c	0.0008074555
111	0x3c3b16c9	0.011419007
112	0xba62017e	-0.0008621438
113	0xbbdbb5ef	-0.006705038
114	0x3c2b866a	0.0104690585
115	0xb90b4d3d	-0.00013284847
116	0x3bbc61ce	0.005748964
117	0x3b9005d2	0.004395225
118	0xbc9dd206	-0.019265186
119	0x3c182449	0.009285995
120	0x3bf166d7	0.007366996
121	0x3beac10b	0.007164126
122	0xbc49ead0	-0.01232405
123	0xbc27597a	-0.010214204
124	0x3afda87a	0.0019352578
125	0xbc2c9aaf	-0.010534926
126	0xbc891971	-0.016735764
127	0xbaf5ed75	-0.0018762784
128	0xba38527d	-0.00070313347
129	0xbcb63e8f	-0.022246627
130	0x3a97d4d6	0.0011583816
131	0xbbc426ba	-0.005986062
132	0x3c8b6bf4	0.01701925
133	0xbc007f3f	-0.007842838
134	0xbaadf3e9	-0.0013271543
135	0xbc73f4e8	-0.014889933
136	0x3b76adc9	0.0037640205
137	0xbb93d141	-0.004511029
138	0x3bb0d9e5	0.005397069
139	0x3c16d646	0.00920636
140	0xbc51f8af	-0.012815638
141	0x3b8fc37d	0.0043873177
142	0x3bdbbc8e	0.006705827
143	0xb8f600f2	-0.0001173037
144	0x3c1025f2	0.008798109
145	0xbc2462bc	-0.010033306
146	0xbc5f32db	-0.013622965
147	0x3ae02125	0.0017099722
148	0x3bc0f682	0.005888761
149	0x3cbd21cb	0.023087403
150	0x3c05d883	0.008169296
151	0x3ab5a4b1	0.0013858286
152	0x3c8b45b8	0.017001018
153	0x3a567c50	0.0008181976
154	0x3c8caec7	0.017173184
155	0xbbc634a2	-0.006048755
156	0xbb6b6cae	-0.0035922932
157	0x3c0bb29f	0.008526473
158	0xbc059aaf	-0.008154555
159	0x3bac975a	0.005267066
160	0xbb419ae8	-0.0029541794
161	0xbb119cd6	-0.0022218726
162	0x3b9f96ff	0.004870295
163	0xbc828e04	-0.015936859
164	0x3a5b4e44	0.00083658495
165	0xbba0d995	-0.0049087503
166	0x3c321d3e	0.01087123
167	0xbbf5e0b0	-0.0075035915
168	0xbcc32e4f	-0.023825793
169	0x3b329c94	0.0027253972
170	0xbccb2101	-0.02479601
171	0x3a0cf60d	0.00053772406
172	0x3ac75863	0.0015208836
173	0x3c383fb2	0.011245655
174	0xba82e694	-0.000998693
175	0xbbe6df8b	-0.0070456914
176	0xbb9670f1	-0.0045911004
177	0xbb89e7d7	-0.0042085457
178	0x3a88c25a	0.0010433898
179	0x3c125708	0.008931883
180	0x3b1032a4	0.002200284
181	0x3bd1a8da	0.0063983025
182	0xbb9e5e5c	-0.004833026
183	0xbba2f979	-0.004973587
184	0x3c9b48fa	0.018955696
185	0x3c30adff	0.010783671
186	0xbac09ee5	-0.0014695792
187	0x3b73d98f	0.0037208532
188	0x3cbbe931	0.022938343
189	0xbca1cb12	-0.019750152
190	0x3c9923f3	0.0186939
191	0xbcb4e027	-0.02207954
192	0xbc5199e4	-0.012793038
193	0xbc372eda	-0.011180604
194	0xbb9ff425	-0.004881399
195	0x3c395c5e	0.011313526
196	0x3b5ae493	0.00334004
197	0x3c35a1a4	0.011085901
198	0x3c865c41	0.016401412
199	0xbc87acca	-0.016561884
200	0xbc1b64a3	-0.009484443
201	0x3c834e53	0.016028559
202	0x3ba8c7e4	0.005150782
203	0x3c2d73d4	0.010586698
204	0x3c1552c2	0.009113969
205	0xbbb6ab9a	-0.0055746557
206	0xbbff2719	-0.007786643
207	0x3c5a6634	0.013330031
208	0xbc1cd103	-0.009571317
209	0xbc1953f6	-0.009358397
210	0xbc52e186	-0.012871152
211	0xbc1aeee3	-0.009456369
212	0x3bff6ec1	0.0077951853
213	0x3b9ffaa7	0.004882175
214	0xbc8ee48f	-0.01744297
215	0xb942b410	-0.0001856836
216	0x3b1e417c	0.0024147918
217	0x3bebdee9	0.007198204
218	0xbb0e797f	-0.0021739898
219	0xbc4b03f3	-0.012391078
220	0x3c1c226e	0.009529693
221	0xbacaeae9	-0.0015481386
222	0xbc5b9c9a	-0.013404036
223	0x3b9b232e	0.0047344184
224	0xbc35df05	-0.011100535
225	0xbc6dc202	-0.014511587
226	0xbb9bbb59	-0.004752558
227	0xbc851b6a	-0.016248424
228	0xba01f5e9	-0.0004957603
229	0xbc01d0f0	-0.00792335
230	0x3b379b75	0.0028016244
231	0x3c7f3b77	0.015578142
232	0xbc50edc2	-0.012751998
233	0x3c1afafb	0.0094592525
234	0x3cd55ceb	0.026045283
235	0x3bcbe8cf	0.0062228213
236	0xbc5b73a7	-0.013394273
237	0xbb2669f3	-0.002539274
238	0xbb38e534	-0.0028212788
239	0xbc05a552	-0.008157091
240	0x3aa7704c	0.0012774556
241	0x3bece5f9	0.0072295633
242	0x3c14f1df	0.00909087
243	0xb9aff582	-0.0003356152
244	0x3bcefafb	0.0063165403
245	0xbb6ca4de	-0.003610901
246	0x3b030651	0.0019992779
247	0xbc91187f	-0.017711876
248	0x3bc47714	0.0059956405
249	0xbb2f8218	-0.0026780423
250	0x3caf048a	0.02136447
251	0x3a0c5a15	0.00053539994
252	0x3c556261	0.013023944
253	0xbc1de539	-0.0096371705
254	0x3c300236	0.010742715
255	0xbbb9b824	-0.005667703

action_model._discrete_distribution.branches.2.bias f4 [2]
0	0xbb46a31a	-0.0030309618
1	0x3b46a306	0.0030309572
