Assets/Brain/10(70%).onnx (onnx, 118105 bytes, 7 tensors)

network_body._body_endoder.seq_layers.0.weight f4 [128, 95]
00000000: 4d97 59bd b2f0 003e 9b0f 12be 8e64 89bd
00000010: 5bd4 ffbd 6f67 843e dce5 2f3e 833c f63d
00000020: 7892 313d 6655 be3e a4c2 2b3c 89b7 573d
00000030: e7a9 b4bd b3c1 063e 6d5e 69bd 49fe af3d
00000040: ef49 aebd 17cb 4f3e fef5 813e 2afb e73d
00000050: e3d2 a13d 0a2d 47bd b746 18bd c147 bcbd
00000060: 48c9 783c 8f16 653e 97fb 093c a670 ef3c
00000070: 691e f23d 1d27 2b3e 467f 0f3d c33f 153e
00000080: 15bb 1bbe 647b 303e 73c9 d33d 7bf1 d83c
00000090: 6656 063c 34f8 f1bd 36f4 e3bd 72af 7c3b
000000a0: 3235 edbc c1f6 e8bd dfe9 093e c961 8f3d
000000b0: 99ff 5f3d 5873 0abd 4e64 74bd 75ff 9e3e
000000c0: 8a6f 0a3d 4858 043d e380 9fbd f533 b2bc
000000d0: abdd 7dbd 410e 2bbe f2e9 293e 5903 103e
000000e0: 67a9 24bd 8352 e1bd 8e60 8bbd 6d28 273e
000000f0: f702 31bd 6866 80bd ab59 a83d 0c3d b13c
00000100: 7f75 193e 7257 77be 5f3d f8bc aaa2 33bd
00000110: 64f7 27bd 977f 48bd 5ced 073e c2e4 66be
00000120: f96f 343e 6e2f cabb f7e8 2c3e 2ee2 9c3d
00000130: 2f33 0b3e c9f5 f83d 28fe b3ba 0107 8fbb
00000140: c53f ea3d 1b7d d53c 17be 073d fc99 f4bd
00000150: 1e03 043e 388b 003e 113c d43d cc1b 45be
00000160: 199a eb3d 6428 f63c a5e0 23bd 4725 1d3d
00000170: 7053 d73d 9b6b 9f3b eaae 9cbd 84eb cd3c
00000180: 024f 8a3e a0aa 3ebc 70fc 0d3c 32c7 51bd
00000190: dcc5 b43c f3a0 3ebd e47f 233e a698 f2bd
000001a0: a475 6ebd 86b8 513e e345 1ebe 8210 dd3d
000001b0: fd73 8ebd 1f8b 733d 416d bf3a ac78 683d
000001c0: e648 50bd 8cf5 e33d 8754 043d 16b5 de3a
000001d0: 61c2 c6bc 88de f4bd 5110 0cbd 222b a9bc
000001e0: a2e5 323d ab7d 74bc 7395 573d d1d7 18bd
000001f0: b4ab 093d e97b 45bd 2470 82be c515 62bd
00000200: aa68 f43c 7e52 00bd 2d44 5e3d 5eab 2ebd
00000210: 27cb 8f3d 4142 453c 2d59 193e 5624 123d
00000220: 59a3 b03e 7dfc 0ebe 98d5 24be 9653 713e
00000230: ec2d e7bd e96f 53bc 67bd f03d 1c93 7a3d
00000240: 4635 1ebe 497e 2cbe 6111 58bd 5975 cebd
00000250: 9ac2 debd ec89 a33e d57d 553e 310e 34bd
00000260: b907 c8bd 9caf 82bc de0f 12be 56b3 563e
00000270: e177 91bd 8547 e0bd ca4d eb3d 29a5 973d
00000280: 9adb ddbd 0d29 253d 2f47 863e bd22 09be
00000290: d8ea 813e f85a 1cbe 0148 30be c8bd 3abc
000002a0: eb9e 973d b0e1 4c3d 05cf b23b 9fcb 9abb
000002b0: b836 863d f70b b9bd 2385 09be 5319 553e
000002c0: a693 3fbd 402e 13be 9918 1e3c cd26 9b3d
000002d0: ce92 d7bd 2d64 413e ccf5 08be 9d28 653c
000002e0: a909 ea3d 1935 cf3c 3cd6 d7bc bb72 0139
000002f0: 37cf a8bd 2558 3b3e b649 d0bd 5745 0d3e
00000300: 5281 6cbe 7a45 37be d1d9 8d3b cc3e b83d
00000310: 093e 10be edfa b4bd 06b0 7abd 0537 713e
00000320: e4ee 8c3d 00c9 98bd 12dc 82bd 059a c3bc
00000330: f754 343e 4627 e4bc e2ec 7e3d 429f 443e
00000340: 5b20 603c 74a5 09bc bb6b 393e 0a30 4cbd
00000350: 7fb5 c7bd 8f1c 1abc 1450 c43d f1aa 153d
00000360: fadf 01be 15bf 583e f932 c03d 2255 213e
00000370: 86db 62bd b6f5 dabd 88bc 953d 6a39 693e
00000380: 1039 c53d bef1 bebc 8c21 4d3d 4edd 47be
00000390: 0d43 9cbd 8936 873d b8b5 483b 1df2 44be
000003a0: 1278 84bd 7e9c f5bb 53db 233e ad37 4c3c
000003b0: 7cce 05bd 914c c03d 83f6 88bd 4d84 a63c
000003c0: 80d4 b03d 3bc8 6d3e 5c26 c8bd 48b7 98be
000003d0: cbcc 383e 6692 193e 8767 333e fa28 2bbe
000003e0: 2798 c3bd 15c3 81be 5d73 b13d f60c c93d
000003f0: 7769 1dbd 77da efbd 783f 79bd 8f5a 57bd
-0.053122807 0.12591818 -0.14263766 -0.067086324 -0.124916755 0.25860164 0.17177528 0.120232604
0.043352574 0.3717453 0.010483418 0.052665267 -0.08821469 0.13159828 -0.056974817 0.08593423
-0.085101955 0.20292316 0.2538299 0.113272026 0.079015516 -0.048626937 -0.037176814 -0.091933735
0.015184708 0.22371887 0.0084218 0.02922852 0.118222065 0.1671414 0.035033487 0.14575104
-0.15208085 0.1723457 0.10341158 0.026482334 0.00819931 -0.11814919 -0.11130564 0.0038556722
-0.02895603 -0.113751896 0.13468121 0.07001073 0.054687116 -0.033801407 -0.05966597 0.31054273
0.03379778 0.032310754 -0.07788255 -0.02175329 -0.061978977 -0.16704656 0.1659315 0.14063777
-0.040200617 -0.11002066 -0.06805526 0.16324015 -0.043215718 -0.062695324 0.08220228 0.021635555
0.14986227 -0.24154451 -0.030302702 -0.0438563 -0.041007414 -0.048949804 0.13274139 -0.22548202
0.17620839 -0.006170205 0.16885744 0.07660328 0.13593744 0.12156255 -0.0013732361 -0.0043648486
0.11437944 0.026060631 0.03314027 -0.11943433 0.12891814 0.12553108 0.10363019 -0.19248885
0.11504001 0.030048557 -0.04000916 0.03836563 0.10513961 0.0048651225 -0.0765055 0.025136717
0.27013403 -0.01163736 0.008666143 -0.051215358 0.022067003 -0.046540212 0.15966755 -0.11845522
-0.05821766 0.20480546 -0.15456347 0.10794164 -0.06955717 0.059458848 0.0014604704 0.056755707
-0.05085077 0.11130819 0.032307174 0.0016991224 -0.024262609 -0.11956507 -0.034195248 -0.02065045
0.043676026 -0.01492254 0.05263276 -0.037315194 0.033611014 -0.048213873 -0.25476182 -0.055196542
0.029835064 -0.03132867 0.054264236 -0.042643897 0.0702117 0.012039722 0.14975424 0.035679184
0.34499624 -0.13963504 -0.16097105 0.23567042 -0.11288056 -0.012905099 0.11754876 0.06117545
-0.1545001 -0.16845049 -0.05275095 -0.10080976 -0.10876961 0.31941164 0.20848782 -0.043958846
-0.09767098 -0.015952878 -0.14263865 0.20966849 -0.07102943 -0.10951141 0.114894465 0.07404549
-0.10832901 0.040322352 0.26226184 -0.13392158 0.25374484 -0.15269077 -0.17214967 -0.011397786
0.07403358 0.05001992 0.0054568076 -0.0047239806 0.065534055 -0.09035485 -0.13429694 0.20810442
-0.046771668 -0.14373112 0.009649419 0.0757576 -0.10526048 0.1888587 -0.13375014 0.013986734
0.11427624 0.025293874 -0.026347272 0.00012345139 -0.08242648 0.18295343 -0.10170309 0.13795982
-0.23096207 -0.17897597 0.0043289443 0.089963526 -0.14086165 -0.08836923 -0.061203025 0.23556145
0.06881502 -0.07460213 -0.06389631 -0.023877153 0.17610537 -0.027850758 0.062237628 0.19201377
0.013679589 -0.0084012635 0.18107502 -0.0498505 -0.097514145 -0.009406223 0.09585586 0.036539976
-0.12683097 0.21166642 0.09384722 0.15755132 -0.055385135 -0.10691397 0.0731135 0.22775808
0.096300244 -0.023308631 0.05008082 -0.19518015 -0.076299764 0.06602199 0.003062589 -0.19232984
-0.06468214 -0.007495462 0.16001634 0.012464446 -0.032667622 0.09389604 -0.066876434 0.020326758
0.08634281 0.23220913 -0.097729415 -0.29827332 0.18046872 0.14997253 0.17519961 -0.1671485
-0.09550505 -0.25344148 0.08664582 0.09816925 -0.038430657 -0.11711591 -0.060851544 -0.052576598

network_body._body_endoder.seq_layers.0.bias f4 [128]
00000000: 4936 b73c 2abb 08bc 313b fe3b 7fee 953c
00000010: aa1c 863c 39c8 393b 107d 883c bc2d 2b3c
00000020: c196 9e3c 8525 8b3c 4a69 5fbb 1ec8 16bc
00000030: 9909 513c 2afa 2eba 0500 a83c 3880 173d
00000040: 57e2 f63b 09a0 293d 532f 7d3d 06de 003c
00000050: 90a9 88bc 2fc6 813c 33d3 8ebc a81e 1e3c
00000060: dd5b 113d 776b a8ba 3794 6c3c 69a6 863c
00000070: fbd2 ac3c 9d25 fcbb 9e47 a43a 2243 3a3d
00000080: 2bdb bb3b 2432 683c bfd6 873c b765 963c
00000090: 745d af3c 482d dabb 7036 9d3d 1dc7 a63c
000000a0: 7ff0 c03c 36ff 933c 4500 8a3a 48cb 693c
000000b0: 1978 583d a169 b9bb 461b f7ba 3cbf 593b
000000c0: 1907 70bb 866c ab3c 8776 503b 6f33 7a3c
000000d0: 8a0e 1aba f456 e9bb 0760 6c3b 743f d53c
000000e0: b39c 4f3d bc21 653b 501f 44bc 124b b63b
000000f0: 4e3a 3c3c 8c93 2d3c b1dd 24bb 5c20 993c
00000100: 9c61 c33c b1bc 9e3c e441 e23c 7710 bf3c
00000110: 2961 b53c 5b2a 363c 51dd a1bc fafe c83c
00000120: ed94 5b3d fc96 053b 143d 733c 762a 313d
00000130: d767 433d ed3e 093c 5703 0b3d 83af 183d
00000140: a324 033d 9a44 0f3d f699 913c b128 413a
00000150: 0d68 10bc bc9a f73c fb93 de39 4219 d13c
00000160: d5b8 c13c 9972 ae3a 0330 24bb e404 133d
00000170: 7590 cb3b a8f4 0e3d 8b53 f13c 12b0 a03c
00000180: e259 2c3b 8363 383d b234 6e3b 4c16 1f3c
00000190: 37be 893c c580 6b3c 7e2f 183d c326 53bd
000001a0: b9ed 913c 84c9 913b b94e bb3c 2411 a73c
000001b0: b111 05bd 41fb db3c 22f1 863c 23da e2bc
000001c0: 7d1b f43c b7e2 03bc 4534 c93c 2d9f fb3b
000001d0: 1275 a53c c0af ef3c 2539 c43c 1194 47bb
000001e0: 0cd2 2d3b 3023 1b3c 8912 853c 3bbc fb3c
000001f0: e429 323d b14b 2abb 4481 403c dd50 3f3d
0.022364752 -0.008345405 0.007758521 0.0183022 0.01637109 0.0028348102 0.016661197 0.010447916
0.019358994 0.016985664 -0.0034089857 -0.009202985 0.012758636 -0.00066748506 0.020507822 0.036987513
0.007534306 0.041412387 0.06181271 0.0078654345 -0.016682416 0.015841572 -0.017434692 0.009650864
0.035488 -0.001284941 0.014439634 0.016436772 0.021096697 -0.0076949135 0.0012533551 0.04547418
0.005732914 0.014172111 0.016581891 0.018359048 0.021406867 -0.00665823 0.07676399 0.020358616
0.023552177 0.01806603 0.0010528645 0.014269657 0.05284891 -0.005658344 -0.0018852733 0.0033225557
-0.0036625324 0.020925771 0.003180893 0.015271052 -0.00058768 -0.0071209613 0.003606798 0.026031233
0.05068655 0.0034962734 -0.011970356 0.0055631483 0.01148851 0.01059426 -0.0025156552 0.018692188
0.023850255 0.019377084 0.02761931 0.02332328 0.022141056 0.011118497 -0.019758852 0.024535645
0.053608824 0.0020384183 0.014846105 0.043253385 0.04770645 0.008376819 0.033938732 0.037276756
0.03201736 0.034977533 0.01777361 0.0007368429 -0.00881387 0.03022515 0.00042453394 0.02552474
0.023647705 0.0013309299 -0.0025053031 0.035893336 0.006212289 0.03490129 0.029458782 0.019615207
0.0026298692 0.045016777 0.0036347327 0.009709906 0.016814334 0.014373963 0.037154667 -0.051550638
0.01781355 0.0044490714 0.022864686 0.020393915 -0.032487575 0.026853206 0.016472403 -0.027691906
0.029798264 -0.0080496585 0.024561057 0.0076788873 0.020197425 0.029258609 0.02395303 -0.0030453245
0.0026522903 0.009468839 0.01624419 0.030729404 0.04349698 -0.0025985057 0.011749569 0.046707977

network_body._body_endoder.seq_layers.2.weight f4 [128, 128]
00000000: 0c38 81bd 21b1 9d3d cfc0 ee3d 4886 883d
00000010: 5a64 8c3d c0ce 4e3e b632 d43d fb27 a03d
00000020: b1ce 623c e507 e2bd f86d 61bc 0fa5 b23d
00000030: 4512 3a3d 6d97 28be 4809 b53d 1d8c a13e
00000040: f622 64bc e94f 49bd 72a4 023c fe60 7cbd
00000050: 3708 88bd a4a2 c53d 982a 963d 7a7f 52bc
00000060: 9b70 38bd 347e 00bd 3628 443e 0bda bfbd
00000070: d7ee 243d b9c6 093d d227 a2bd 3b25 673e
00000080: f6da a63c 5e54 333e 2cc5 6f3d 95f6 6ebe
00000090: c639 eb3d c94d cabd 33eb 463e 7c0d a93d
000000a0: 5a79 883d 8c56 bbbc ab86 38be b70a 08be
000000b0: f2e0 c43c ccb0 0abd fd3e 533e 8bc5 5fbc
000000c0: 47f0 053e 776d fcbd 2604 463d 61df cb3d
000000d0: def2 ec3d 1ac2 12be 7efb ac3d 7eb6 e83d
000000e0: bb1f 0a3e dc2b a0bd 3209 1dbe fb4a 94bd
000000f0: 0cae d53d df87 703d a464 5cbd c23a 143e
00000100: 8729 903d b2a0 4e3d f858 ad3d f43a 5bbc
00000110: 62eb a33c 7736 4c3e 3616 263d 7197 c7bc
00000120: c964 6fbd abae 683c 4138 813d e678 8bbb
00000130: c228 4fbd 8f49 c4bb fc53 953c 8e73 823e
00000140: 958f 8d3d 0124 603e 2f1f 3f3e a83b f8bd
00000150: 4bb9 3bbe 5351 f53d 8328 273e 1b11 2cbd
00000160: 9fe5 53be 5972 073e 9217 bd3d f6b6 8fbd
00000170: 46d7 3ebe 9da4 f33b f28f c4bd 2973 b9bb
00000180: 150d 09bd 2a73 05be 5883 1f3e ea5c 033e
00000190: 2e23 a23d 46b7 683d b4c8 ab3c 0c32 42be
000001a0: b71c 083e e6be b53d d4a5 1b3e 50cc 823e
000001b0: 6794 e9bc 058c 8a3e d8ae 2a3d ea37 b9bb
000001c0: 25d0 113e c9ed 54bd 37b0 89bc 4c9c 82bd
000001d0: ad95 493e ad40 88bd e67d f1bb 9f1e 25be
000001e0: f3e4 70be 6a23 70bd d01a a53d e32e b63d
000001f0: 1e0e 1b3e 54e3 b23d a22d 89bd 225f 113c
00000200: d8cb 22be 4b4f 2cbd 33a5 a5bd b36e 3d3d
00000210: b151 cfbd 6c84 1abd 5560 05be 1dbe 673d
00000220: 3222 f3bd aec2 f23d 397c 36be 425b 0c3e
00000230: 603c 1abe b4cd a33b 3738 253b 2a26 1aba
00000240: 509d d8bd b73a 1c3e 8dfe 173e 110e a53d
00000250: 016b bd3d 6e0e 143d a218 9a3b 4c2e 61be
00000260: 2efd ef3b 0501 93bd dc32 ec3b c285 063d
00000270: 07e3 9fbd fad5 07be 94b7 3cbe c745 02be
00000280: 4e18 3f3d b932 9dbe ad78 3cbe 69fd 873d
00000290: b64e 99bd 34ad a13d 6a96 84bd 373e 193d
000002a0: 209e 38bc b6b1 693e bb24 733e 59f4 523b
000002b0: ae98 7b3d 3d16 40bc 9960 a5bd d77a babd
000002c0: e8ae 1cbe 172e 1a3d e8f0 223d 52d9 09be
000002d0: 9fb1 923d 9c8f a53d 94e7 28be aba9 35be
000002e0: 44ac a9bd bc5c cbbd 1640 08bd 9b2a 513c
000002f0: a899 01be 3f05 97be fe15 35bc fc3d f03c
00000300: 85dd 803c 5a49 313c 91f3 80bb e977 9a3c
00000310: ac72 d53d de73 0ebe 3abf 153d e1fe 403c
00000320: 4d57 a53d a4ac 863d 1660 803e bced e43c
00000330: e25d 8cbe 7c9a a7bd 8873 ef3d 31fe c0bd
00000340: 9511 2fbe 1548 d3bd 1d24 34be 7e43 b7bd
00000350: 8b0b a7be 48d8 483e d8a0 31be 481e 853d
00000360: 3e9d 173d 765a 623b d9c9 cdbd 7457 643d
00000370: f8c1 563e ba96 82bd 8775 2f3e 41f3 a13d
00000380: 106e a63d 4267 a33d 5181 17be 84ed 69bd
00000390: 80d2 4bbe ff9d fd3c a58d 31be e36d b4bd
000003a0: 3cdb 2dbe 3fbd 853c 902c 5a3e d4aa 1dbe
000003b0: 8299 b1bd e7ec 3cbd a23c 1b3e 40ec 02be
000003c0: 75c7 c9bc 55c0 973d 56c9 913d 466c e0bd
000003d0: f94f fe3d e03b 1fbe 48b2 df3d a782 47bd
000003e0: 8daa 20be f068 393d 16ea af3c 6dab 803d
000003f0: 91f1 7abe 7061 c7bd ea9e b93c fb27 2fbd
-0.06309518 0.076998 0.11657869 0.06666237 0.06855078 0.20196056 0.10361235 0.07820126
0.013843224 -0.11036662 -0.013759129 0.08722889 0.04542758 -0.16464014 0.08839661 0.3155221
-0.013924351 -0.049148474 0.007973777 -0.061615936 -0.06642192 0.09650162 0.07332343 -0.012847776
-0.045029264 -0.031370357 0.19155964 -0.0936776 0.040266838 0.033636782 -0.07917751 0.22572796
0.02036808 0.17512652 0.058537647 -0.23336251 0.11485629 -0.098781176 0.19425659 0.08254525
0.06663771 -0.022868417 -0.18020122 -0.13285337 0.024033044 -0.033860013 0.20629497 -0.013657938
0.1307994 -0.12325566 0.0483438 0.099547155 0.11569761 -0.14331856 0.08446406 0.113629326
0.13488667 -0.078208655 -0.15335539 -0.07240864 0.104335874 0.058723327 -0.053806916 0.1447554
0.07039171 0.05044622 0.08464235 -0.013380755 0.0200097 0.19942652 0.040548526 -0.024364205
-0.058445726 0.0142018 0.06309558 -0.0042563556 -0.05057598 -0.005990214 0.018228523 0.25478786
0.06912152 0.21888734 0.1866424 -0.121207535 -0.18332402 0.11978402 0.16324048 -0.0420085
-0.20693062 0.13227214 0.09233011 -0.07017319 -0.18636808 0.007435395 -0.09597768 -0.00565948
-0.03345974 -0.13032213 0.15577447 0.12828413 0.07916866 0.05681541 0.020969726 -0.18964404
0.13292204 0.088743016 0.15199977 0.25546503 -0.028513147 0.2705995 0.04167065 -0.0056524174
0.14239557 -0.051984582 -0.016807659 -0.063774675 0.19686003 -0.06652961 -0.0073697446 -0.16124962
-0.23524837 -0.058627523 0.08061755 0.08895662 0.15142104 0.08734766 -0.06698157 0.008872779
-0.15898073 -0.042067807 -0.0808815 0.04624815 -0.10123003 -0.037723944 -0.13025029 0.05657779
-0.118717566 0.118535385 -0.17820825 0.13706687 -0.15062094 0.004998887 0.0025210509 -0.00058803207
-0.1057688 0.15256773 0.14843197 0.080593236 0.09248925 0.036146574 0.0047026435 -0.21990317
0.0073238825 -0.07177929 0.0072082113 0.032842405 -0.07806974 -0.1326522 -0.18429404 -0.1272193
0.046654038 -0.3070276 -0.18405409 0.06640131 -0.07485716 0.07894364 -0.06474002 0.03741285
-0.011268169 0.22821698 0.2374448 0.00321891 0.061424904 -0.011724052 -0.08075065 -0.09105461
-0.15301096 0.03764161 0.039780527 -0.13461807 0.07162785 0.08084032 -0.1649459 -0.17740504
-0.0828481 -0.09929797 -0.033264242 0.012766506 -0.12656271 -0.2949619 -0.011052607 0.029326431
0.015730629 0.010820711 -0.0039352854 0.018856006 0.104222625 -0.13911387 0.03655932 0.011779518
0.08073292 0.06575897 0.25073308 0.027945392 -0.27415377 -0.081837624 0.11691958 -0.09423483
-0.17096551 -0.10316483 -0.17591901 -0.0894842 -0.32625994 0.19613755 -0.17346513 0.06499916
0.037015192 0.0034538782 -0.10048265 0.055747464 0.2097243 -0.06376405 0.17134677 0.07907725
0.081264615 0.07978679 -0.14795424 -0.05711128 -0.19904518 0.030959127 -0.1733919 -0.08810022
-0.16978163 0.016325591 0.21306062 -0.15397197 -0.086718574 -0.046124365 0.15159848 -0.12785435
-0.024631241 0.07409731 0.0711848 -0.109581515 0.12417597 -0.15550184 0.10922676 -0.048708584
-0.1569006 0.04526609 0.021473926 0.06282697 -0.24506213 -0.097353816 0.022658784 -0.042762738

network_body._body_endoder.seq_layers.2.bias f4 [128]
00000000: 8ae1 0e3d 9474 ca3c 5b0d 3d3b a406 80bc
00000010: 4ebe 393d 439c e33c 35aa 273d 00ec 9c3c
00000020: dafb 783b 5da8 393d 0351 243d ac80 d93b
00000030: b167 53bc 9918 0cbc 9543 923c 8e7a 98bc
00000040: f052 cc3c c1d3 3f3d 82da 83bc 0463 213d
00000050: 9ad5 103d ef45 003d 65b4 f53c 2a96 b23c
00000060: dcd7 2cbc 5a66 ef3b e99c 0abc d7a7 25bc
00000070: 3cbf 003d af74 213c d20d cf3c d1f9 e23c
00000080: a14d 65bb bb08 0d3d 84cb d8bb a377 f53c
00000090: d063 9fbb 2924 f63c dfb0 873c 17c2 993c
000000a0: 071b 033d ca1b 323b 91f7 a23c 65c5 d63b
000000b0: dfeb 2e3a 63a2 ce3c 0b79 d93c f454 243d
000000c0: d0c0 fe3c 26f9 503c a76d 063c 09b0 103a
000000d0: 9604 083d e41e b33c 9049 303c 834b 043c
000000e0: de5c acbb e244 833c 79cb f43c 8ad0 163d
000000f0: 8855 8ebc 1f4e cbba 9f6a c23b 48e1 fe3c
00000100: 5a15 7b39 0e0f 8d3c c802 a83c 685a 223d
00000110: 20da 243b 38a5 a03c dadb 013c b687 eb3b
00000120: 01d2 ec3c b765 2d3d 3f32 083d 7394 863c
00000130: 0689 983c 63a9 6b3c 0354 813d a258 073c
00000140: 1cfc d13c ec80 3d3c bbdc 5f3c 74f9 a83c
00000150: f8c8 e03c 7702 913c 878d a03c 4c83 f43c
00000160: 2db6 233d b620 0d3d 1ed3 3dbb d461 003d
00000170: 86c9 333c 1f5d 0a3d 2065 ac3c ade8 a43b
00000180: ae4f f13c e227 313c 8d88 ee3c 670b 97bb
00000190: a6d4 883c 1782 c33c c62a d3bb abce fb3c
000001a0: bdac 123d 4a73 5cb9 9b38 fd3a 8256 b53c
000001b0: 4bde cc3c d3ad 973c 5d69 0d3d 20e2 e33c
000001c0: a24e 8f3c 719f 64bb 97da 263d e4ba d23b
000001d0: bbf2 9d3c e366 09bc 867f 393d b0ad f63c
000001e0: 619d bb3c bed4 db3b c205 eb3c 8555 35bb
000001f0: 565b e53b ec29 c23c bb26 093d bd8f a13c
0.03488306 0.024713792 0.0028847072 -0.015628166 0.045347504 0.027784472 0.040933806 0.019155502
0.0037991912 0.04532658 0.04011632 0.0066376533 -0.01290314 -0.008550786 0.017854491 -0.018613126
0.024941891 0.046832804 -0.016095404 0.03940107 0.035359956 0.031316694 0.029993245 0.02180012
-0.010549512 0.0073059024 -0.008460262 -0.010110817 0.031432375 0.00985448 0.025275145 0.027707012
-0.0034988897 0.034432154 -0.006616058 0.029964274 -0.0048641935 0.03004654 0.01656383 0.018769307
0.032008197 0.0027177208 0.01989344 0.006554293 0.0006672721 0.025223916 0.026546976 0.04012008
0.0310978 0.012754714 0.008204854 0.00055193953 0.0332075 0.021865316 0.010759726 0.008074644
-0.005260094 0.016024057 0.02988218 0.036819972 -0.017374769 -0.0015510953 0.0059331204 0.031113282
0.0002394518 0.017219093 0.020509139 0.039637 0.0025154427 0.019610032 0.007925952 0.007187809
0.028908731 0.04233333 0.033251043 0.016428208 0.018620025 0.014383647 0.06314852 0.008260878
0.02563291 0.011566382 0.013663466 0.020626761 0.02743958 0.01770137 0.019598735 0.029847763
0.03996866 0.034455024 -0.0028964947 0.031343296 0.01097334 0.033780213 0.021044314 0.00503262
0.02945694 0.010812731 0.029117847 -0.0046095136 0.016702961 0.023865743 -0.006444308 0.030738195
0.035809267 -0.00021023783 0.0019319238 0.022135977 0.025008341 0.018515503 0.03452431 0.027817786
0.01749355 -0.0034885074 0.040735807 0.0064309705 0.019280782 -0.0083863465 0.04528763 0.030112118
0.022902193 0.0067087105 0.028689269 -0.0027669382 0.0069994135 0.02370163 0.033484202 0.01972186

action_model._continuous_distribution.log_sigma f4 [1, 2]
00000000: 9717 893f fe62 ef3f
1.0710324 1.8702085

action_model._continuous_distribution.mu.weight f4 [2, 128]
00000000: 027d c1bd 19e4 153e 69ce 503e 18bb 90bd
00000010: 97a7 e7bd d135 f83d 97e5 1d3e b3ce b43d
00000020: 50d1 de3d 8ba0 613d 3a55 c5bd 0549 d93d
00000030: c3a7 abbd 0864 07bd 7c79 03bd b588 f4bc
00000040: 7c46 e1bb a697 c93d bcc1 87bd c0c4 b83d
00000050: 0e29 363e 2728 423e 2069 163e f71e c4bd
00000060: 8c39 80bd e2a2 e13d 0898 a5bd 45ae e83d
00000070: ab96 c13d da6e c0bd f784 bbbd db0c 863d
00000080: 0177 06bd 36d2 f2bd d862 61bd 06a9 05be
00000090: 0bd0 3a3d 429e 2b3e b916 02be 1e35 09be
000000a0: ebfa 0b3e f669 bcbd 1fad fabd 7311 2a3d
000000b0: 1199 acb9 9db4 dd3d 67f3 fa3d ff0a 163c
000000c0: 83d8 253e a1a1 be3b 7fa3 2cbd 775c ae3d
000000d0: 683c ff3d a254 e2bd f6d7 c9bd 9218 4abd
000000e0: 11b5 64bd afaf 793e ef48 bdbd 5974 283e
000000f0: fc1d 82bd e7fa 763d 9203 1cbc 01b9 bfbd
00000100: 72ab cfbc 939a 9abc f911 abbd 08d1 2e3e
00000110: 2fe4 70bd 1926 823d 4648 0f3e f6da 063e
00000120: 2892 de3d c047 0a3e bb62 f63d cd07 ed3d
00000130: d936 8bbd 4c5f e4bd f249 c73c 52cb 1e3e
00000140: a68f 953d 5939 95bd cf0c bd3d 06f9 fbbd
00000150: a9f2 843d 9f4e d9bc 1e98 033e 5a13 4fbd
00000160: a120 983d 15d1 853d 152c 3bbc 94d8 f0bd
00000170: e6a2 fd3d 18f3 073e 92e5 fbbd d019 db3d
00000180: 2003 7abd b5c9 d9bd 982e dbbd e954 a3bd
00000190: 3b05 2d3d fe48 8ebd 7f82 6abd 92c2 3b3e
000001a0: fd72 e8bd b042 f9bd 08fd 9abd 47e0 fcbd
000001b0: a62d 0f3e 79b3 e1bd a190 193e e375 083e
000001c0: e667 063e 59b6 c63d cb61 b8bd d496 613c
000001d0: 9b3a dfbd 13c1 debd d1b7 14be 4f9c a63d
000001e0: 8a39 173e 48fc 90bd 2564 0cbe 1461 b13d
000001f0: 41bd 1d3e 934d 993d 4516 113e 0596 fb3d
00000200: c5f3 763d 06df a0bb 804c 48be 525d a9bd
00000210: a93e 293c 0283 433d e639 56ba 4ec7 653c
00000220: 1ef1 d0bc 1135 0e3e abf1 053d 736a 12bc
00000230: 1519 82bc 02c5 65be a52f 20be 96ce 2cbd
00000240: 190f 423d fe90 483d 6590 b7bd 0877 cc3d
00000250: b2d4 2abd 18e9 a6bc 0071 4c3d 52fd a43c
00000260: d604 98bd 6268 a9bd 3669 8cbd 43f9 cebc
00000270: e46d a43d 0797 4cb8 3cd3 943b 76a7 473d
00000280: ffaa 74bc ab3f e83b 18fc 9ebd 94b1 a6bc
00000290: 019a 6abe 2a0e 13bd bc40 2ebd d68d 24bb
000002a0: bc93 82bd d090 25bc be19 c53c fe2b 16be
000002b0: 4a08 a4bd 1c4b d73d c80f a7bd 8b7e c83d
000002c0: 503f 493d 7631 223d 60f1 943d cdb8 18be
000002d0: ec3b c63d 0298 bebc 30e7 883c d572 1abc
000002e0: a1cf 26be f013 6ebe 015a 433c 7a63 7cbd
000002f0: bc4f 83bd 91fa 66be 4ae3 583e bf03 8bbd
00000300: 3528 1fbe a6d9 b7be 5b44 afba dab0 343b
00000310: 6278 a2bd e73f b73d 5b61 eabd 4185 ca3b
00000320: 4b97 3cbd adf1 dfbb 13c2 273d 5c1b e4bd
00000330: cfaa 67bd 370b d1bd 0996 9e3d 695e 95bb
00000340: b8a3 7f3d af60 0bba 015c 063c 33af 923c
00000350: 852e 993d 086f 923d cb61 3b3d 7b6c a43d
00000360: 0639 ae3d 1d05 b73d 4ab6 073e bea6 ab3c
00000370: eab4 74bc c1b8 ddbe d1d6 95bc 9093 b3bd
00000380: aef6 a53d 0370 50bd 433c de3c 5c6d fcbc
00000390: 24cf 823d e047 b83d db19 74bc 1d2e de3c
000003a0: fa67 8f3c 2e91 413c d3ad cfbd e317 c93c
000003b0: 74ee 363d 3fff 5fbd 94c1 253d 0d4a 22bd
000003c0: 7585 febb 81a3 0fbe 5a34 2d3d d15b 083e
000003d0: 01b9 653d 7a5b 593c ae7c 263d b754 14bd
000003e0: 1f10 afbd 5fb0 20be af9d 493d 40d7 d23c
000003f0: 300a c3bc 9f0e 4f3d 0693 34bd 08a4 dd3c
-0.094476715 0.14637794 0.20391239 -0.07066935 -0.11311262 0.1211964 0.15419613 0.08828487
0.10879767 0.055084746 -0.09635396 0.106096305 -0.083816074 -0.03305438 -0.03209828 -0.029850343
-0.0068748575 0.09843378 -0.06628749 0.09021902 0.17789099 0.1896063 0.1468854 -0.095762186
-0.06260976 0.110173956 -0.08085638 0.11361364 0.09452566 -0.09396143 -0.091562204 0.06545421
-0.032828335 -0.11856501 -0.055025905 -0.13052759 0.04560856 0.1675959 -0.1270398 -0.13399169
0.13669936 -0.09199898 -0.122400515 0.041520547 -0.0003292044 0.10825465 0.122534566 0.009157895
0.16195874 0.0058176075 -0.04214811 0.0851373 0.124626935 -0.11051299 -0.098556444 -0.04933984
-0.05583674 0.24383424 -0.092424266 0.16450633 -0.06353375 0.060297873 -0.009522336 -0.093614586
-0.025350306 -0.018872535 -0.083530374 0.17071927 -0.058811363 0.06354923 0.13992414 0.13169464
0.10867721 0.13503933 0.1203055 0.115737535 -0.06797571 -0.11150989 0.024327252 0.15507248
0.073027894 -0.07286329 0.09230959 -0.12303357 0.06491596 -0.026526747 0.12850997 -0.050555564
0.074280985 0.0653402 -0.011424084 -0.11760059 0.12384586 0.13276327 -0.122996464 0.10698283
-0.061038136 -0.10634176 -0.107022464 -0.0797518 0.042241316 -0.06947516 -0.057253357 0.18335941
-0.11350057 -0.12170923 -0.07567793 -0.12347465 0.13982257 -0.1102056 0.14996578 0.1332622
0.13125572 0.09702749 -0.090030275 0.01376887 -0.1089985 -0.1087667 -0.14523245 0.08135282
0.14768043 -0.07079369 -0.13710077 0.08661094 0.15404226 0.07485499 0.14168651 0.12284473
0.06029107 -0.004909399 -0.19560432 -0.082697526 0.010329881 0.04773236 -0.00081720797 0.014024569
-0.025505599 0.1388743 0.032701176 -0.008936512 -0.0158811 -0.22438434 -0.15643175 -0.042189203
0.04737768 0.0489664 -0.08963088 0.09983641 -0.04170675 -0.02037482 0.049912453 0.020140324
-0.074227974 -0.082718626 -0.06856005 -0.025265342 0.080287725 -4.8778045e-05 0.0045417827 0.048743688
-0.014933347 0.007087668 -0.07762927 -0.020348348 -0.2291031 -0.03590218 -0.042542204 -0.0025108955
-0.06375834 -0.010105327 0.024060126 -0.14665219 -0.080093935 0.10512373 -0.08157307 0.09789761
0.049132645 0.03959795 0.07272601 -0.14914246 0.09679398 -0.023265842 0.016711801 -0.009426792
-0.16290142 -0.23249793 0.011923314 -0.061618306 -0.064116925 -0.22556521 0.21180454 -0.06787824
-0.15542682 -0.3590824 -0.0013371812 0.0027571232 -0.079331174 0.08947735 -0.1144435 0.006180436
-0.04604272 -0.00683423 0.040956568 -0.11138031 -0.05655938 -0.10207217 0.07743461 -0.0045583737
0.062411994 -0.0005316836 0.008200646 0.017905807 0.07479576 0.07150084 0.04574756 0.080285035
0.0850697 0.08936522 0.13253132 0.020953532 -0.014935711 -0.4330502 -0.018290909 -0.0876838
0.08103691 -0.050888073 0.027128344 -0.030813865 0.06387165 0.08998084 -0.014898743 0.027121598
0.017505635 0.011814399 -0.10140576 0.024547523 0.044661 -0.05468678 0.040467814 -0.0396214
-0.007767374 -0.14027216 0.042286254 0.13316275 0.056084637 0.013266439 0.040646248 -0.036213603
-0.08547997 -0.1569228 0.049222644 0.025737405 -0.023808569 0.050551053 -0.044085525 0.027055755

action_model._continuous_distribution.mu.bias f4 [2]
00000000: df31 6cba 428e 0c3d
-0.0009010117 0.034315355
