Assets/Brain/2(40%).onnx (onnx, 107096 bytes, 11 tensors)

discrete_action_output_shape f4 [1, 3]
3.0 3.0 2.0
00000000: 0000 4040 0000 4040 0000 0040

network_body._body_endoder.seq_layers.0.weight f4 [128, 64]
0.2875638 -0.009817196 -0.10413309 -0.058635242 0.026014246 0.10264041 -0.01858697 0.051740054
-0.01627725 -0.1479906 -0.06021743 0.0646552 0.0014832994 -0.004027307 -0.10194294 -0.21206856
-0.004281526 -0.065785065 -0.24756606 0.027404722 -0.05914092 -0.32707027 0.20595792 -0.09651864
0.17202277 -0.17327894 -0.0071017127 0.008296804 0.031016406 0.056858566 -0.13605063 0.09234146
-0.044668723 -0.044649202 -0.10662012 0.0004222191 0.3427515 0.14193206 -0.009068033 -0.011284877
0.05464993 -0.16534431 0.07979036 -0.11982581 -0.10486268 -0.07313133 0.028052736 0.093649164
0.17320494 0.07667808 0.09989511 0.14886725 0.07034267 0.036895655 -0.042619523 0.10345193
-0.0075257393 0.1472067 -0.28268775 -0.09897472 0.017051961 -0.087081335 -0.070365466 -0.09509283
-0.032726366 -0.20945852 0.18473248 -0.17799139 0.14993891 -0.026105553 -0.05913389 0.24726433
0.064664826 -0.036693968 -0.032862682 0.2145113 0.19302185 -0.08331334 0.02301117 0.06350261
-0.0059615835 -0.04021473 0.11549154 -0.13766487 0.15034688 -0.1393069 0.014369856 -0.08083228
0.07281591 -0.0880677 0.031243876 0.16954085 0.10661848 -0.14216231 -0.11319672 0.061973475
0.012834009 0.113729976 0.068004794 -0.055897437 0.1181901 0.11733828 0.14410278 0.06839615
0.11024258 0.23294275 0.07187039 -0.036505073 0.0054823426 0.018368188 -0.030712662 -0.005372125
0.12615366 -0.11516976 0.013437539 0.0679738 0.17706862 0.06835169 0.012072571 -0.24459083
0.048210416 -0.09170485 0.17294373 0.15082133 0.037111618 0.031106824 0.12041322 0.072888896
-0.092135355 -0.0056405375 0.07763095 -0.006772236 -0.06321041 -0.123355106 -0.039702415 0.15257779
-0.08926335 -0.11795526 -0.29222447 -0.07207042 0.009421761 0.12896632 0.09170506 -0.05415564
-0.016689107 -0.10418695 0.018761758 0.09127234 0.13821933 0.18744582 -0.13780746 0.062347382
-0.10482859 0.07344055 -0.050183173 0.18925911 0.02792453 0.27091533 -0.15838961 -0.084121026
-0.0729403 0.09431045 -0.008619209 0.2309582 0.22694393 -0.14600863 0.09966359 -0.09691473
0.031763818 0.12867993 -0.036850773 0.024841182 -0.14945515 0.20341155 -0.082700334 0.026920686
-0.14121811 0.019126069 0.0011933397 -0.24775241 -0.20196588 0.112262875 -0.066117965 -0.08908155
0.22944283 0.041017495 0.29743075 0.112217166 -0.10450948 -0.18525283 0.07679515 0.081357226
0.07906805 0.112124056 0.014508795 -0.06226944 0.06730746 -0.11859859 -0.040668666 0.12238721
0.29669118 -0.09490685 -0.057452716 0.044913556 0.093033016 0.3224748 -0.1951987 0.05455331
0.1749767 -0.094361305 -0.13962382 0.09202448 0.29042754 -0.34705532 0.025093988 0.124788985
-0.1213879 0.20088707 -0.2328689 -0.26225358 -0.12583621 -0.09172122 -0.07982283 0.03441399
-0.15263584 -0.065532394 0.058444627 -0.049601637 0.10129131 0.022733819 0.008458491 -0.1690514
0.22588703 0.25664508 0.10527014 0.16286409 0.17126702 -0.020577636 -0.026282176 0.16710353
-0.04336211 -0.01522908 0.27415714 0.0071372176 -0.0910187 0.03247734 -0.04059597 0.04794885
-0.16006462 -0.024314404 0.2346551 -0.00036305015 -0.09882291 -0.01198708 0.16684914 0.16543145
00000000: 903b 933e 4ed8 20bc bb43 d5bd 822b 70bd
00000010: d41b d53c 2335 d23d b443 98bc 61ed 533d
00000020: de57 85bc d98a 17be 8da6 76bd f269 843d
00000030: 456b c23a 80f7 83bb 76c7 d0bd 8028 59be
00000040: 0b4c 8cbb 52ba 86bd f581 7dbe de7f e03c
00000050: c03d 72bd c175 a7be a2e6 523e 91ab c5bd
00000060: bd26 303e 0970 31be 7cb5 e8bb 51ef 073c
00000070: 1e16 fe3c 87e4 683d db50 0bbe 851d bd3d
00000080: 8df6 36bd 15e2 36bd a65b dabd 4a5d dd39
00000090: 207d af3e a356 113e 1692 14bc 34e4 38bc
000000a0: 9bd8 5f3d 0550 29be 2169 a33d 3c67 f5bd
000000b0: 3fc2 d6bd e1c5 95bd dace e53c 22cb bf3d
000000c0: a35c 313e 6609 9d3d cf95 cc3d a870 183e
000000d0: d10f 903d e61f 173d cf91 2ebd 9bde d33d
000000e0: 7a9a f6bb 5abd 163e 73bc 90be 42b3 cabd
000000f0: 8eb0 8b3c b357 b2bd c51b 90bd 08c0 c2bd
00000100: 150c 06bd 4b7c 56be 832a 3d3e 6043 36be
00000110: 9689 193e 50db d5bc 6136 72bd dc32 7d3e
00000120: fe6e 843d 6a4c 16bd 059b 06bd daa8 5b3e
00000130: 85a7 453e 2fa0 aabd ec81 bc3c a80d 823d
00000140: 6359 c3bb 33b8 24bd d486 ec3d 05f8 0cbe
00000150: 88f4 193e 78a6 0ebe 8b6f 6b3c 658b a5bd
00000160: 8220 953d d75c b4bd 28f3 ff3c 1e9c 2d3e
00000170: ca5a da3d ff92 11be afd3 e7bd e6d7 7d3d
00000180: bc45 523c 43eb e83d 1946 8b3d b6f4 64bd
00000190: a70d f23d 0d4f f03d ae8f 133e 4813 8c3d
000001a0: ddc6 e13d 8b88 6e3e c830 933d 5886 15bd
000001b0: 39a5 b33b e278 963c 1f99 fbbc a708 b0bb
000001c0: 6d2e 013e 20de ebbd 2029 5c3c d935 8b3d
000001d0: 7a51 353e f9fb 8b3d 08cc 453c 0576 7abe
000001e0: 4978 453d c1cf bbbd 2918 313e e870 1a3e
000001f0: 5a02 183d bdd3 fe3c 359b f63d c646 953d
00000200: 76b1 bcbd 42d4 b8bb fafc 9e3d a2e9 ddbb
00000210: 7674 81bd 9aa1 fcbd 009f 22bd 5a3d 1c3e
00000220: b4cf b6bd 8792 f1bd 729e 95be a899 93bd
00000230: bb5d 1a3c bf0f 043e ddcf bb3d 4ed2 5dbd
00000240: 98b7 88bc f85f d5bd 42b2 993c feec ba3d
00000250: 5e89 0d3e ccf1 3f3e 661d 0dbe f85f 7f3d
00000260: 5fb0 d6bd 0068 963d df8c 4dbd 24cd 413e
00000270: fcc1 e43c 6ab5 8a3e e330 22be a547 acbd
00000280: b961 95bd d625 c13d 9537 0dbc 4e80 6c3e
00000290: fd63 683e 4983 15be 6d1c cc3d 3b7b c6bd
000002a0: c71a 023d acc4 033e d6f0 16bd bc7f cb3c
000002b0: c50a 19be 1e4b 503e cb5e a9bd c588 dc3c
000002c0: 7b9b 10be 46ae 9c3c d669 9c3a cfb2 7dbe
000002d0: 25d0 4ebe 14ea e53d db68 87bd 6370 b6bd
000002e0: 10f3 6a3e f601 283d d848 983e 1dd2 e53d
000002f0: 1109 d6bd ebb2 3dbe c746 9d3d 9e9e a63d
00000300: 6eee a13d 4ca1 e53d 4cb6 6d3c 3e0e 7fbd
00000310: 7ed8 893d d1e3 f2bd 3094 26bd 25a6 fa3d
00000320: e8e7 973e 865e c2bd 8a53 6bbd 47f7 373d
00000330: 1888 be3d 6b1b a53e 2be2 47be 4b73 5f3d
00000340: 182d 333e 8040 c1bd 8cf9 0ebe 5577 bc3d
00000350: ebb2 943e 3cb1 b1be e891 cd3c 5e91 ff3d
00000360: 389a f8bd 57b5 4d3e 2f75 6ebe 1a46 86be
00000370: 35db 00be 56d8 bbbd 277a a3bd aff5 0c3d
00000380: 924c 1cbe d935 86bd a263 6f3d 162b 4bbd
00000390: d171 cf3d 463c ba3c 7c95 0a3c cf1b 2dbe
000003a0: ee4e 673e fc66 833e df97 d73d d8c5 263e
000003b0: 9f60 2f3e 6e92 a8bc b84d d7bc 301d 2b3e
000003c0: 789c 31bd 6483 79bc 535e 8c3e 52df e93b
000003d0: 0368 babd f606 053d f647 26bd 0366 443d
000003e0: fbe7 23be 002f c7bc 6d49 703e c457 beb9
000003f0: aa63 cabd 7565 44bc 80da 2a3e dd66 293e

network_body._body_endoder.seq_layers.0.bias f4 [128]
0.010836319 -0.0024858678 0.019920686 0.014149257 0.0040645357 0.012948452 0.009641565 -0.018942432
0.044310268 -0.021590406 0.031052185 -0.02712009 -0.0041310154 0.014749117 0.008696842 0.017195217
-0.022962442 0.011866866 0.0059908987 0.007245559 0.030809304 0.0039552846 -0.033626378 0.016670125
-0.060453545 0.030479735 0.032226685 -0.022667434 -0.030262912 -0.008686869 0.01540072 0.010738327
-0.022705562 -0.04262735 0.0021906071 -0.017790696 0.010826542 0.027712287 -0.025260216 0.011136566
-0.036205992 -0.037353884 -0.010155948 0.027692668 0.028430486 0.05927106 -0.00046247817 0.0027373112
-0.009890438 0.0420244 0.0074716774 0.017581975 -0.019851655 -0.021379484 -0.0028370083 0.014054291
0.008565588 0.024348421 0.0076024137 -0.03445225 0.027884245 0.06183045 0.013150546 0.03427867
0.041151855 0.01411416 0.045994535 -0.058229927 -0.009356293 -0.041093912 0.029085925 -0.000897985
-0.013246758 -0.0060339696 0.019002162 -0.028523788 -0.021794438 -0.012235378 0.04207378 -0.04503252
-0.022113118 0.05072052 -0.0046515167 0.04989109 0.034497797 0.01293134 0.0031680649 0.0057252063
0.04716045 0.048494488 0.0319417 0.045743126 -0.018453281 -0.032772116 -0.0013832835 -0.0091227805
0.02465864 -0.04027383 0.029506043 -0.027758248 -0.007864324 0.01602773 0.007120246 -0.018590664
-0.011441515 -0.03934563 0.02618378 0.012889866 -0.011258413 -0.03666938 0.018639628 0.07322631
-0.031531885 0.0049905293 0.009655062 0.004793468 -0.021071082 0.0019233106 -0.029569456 0.0007211766
0.00034434852 0.03194371 0.041220434 0.029349348 0.024916308 -0.0014175129 -0.0068159713 0.03091965
00000000: d18a 313c f1e9 22bb b530 a33c 49d2 673c
00000010: cc2f 853b be25 543c a8f7 1d3c 292d 9bbc
00000020: af7e 353d 5dde b0bc 2761 fe3c f32a debc
00000030: 785d 87bb 48a6 713c 337d 0e3c fcdc 8c3c
00000040: bb1b bcbc 3e6d 423c 4d4f c43b 276c ed3b
00000050: cb63 fc3c 559b 813b d0bb 09bd c98f 883c
00000060: 239e 77bd a3b0 f93c 2100 043d 0eb1 b9bc
00000070: ede9 f7bc 5f53 0ebc 4d53 7c3c cfef 2f3c
00000080: 0401 babc 049a 2ebd 4a90 0f3b cbbd 91bc
00000090: cf61 313c e104 e33c 83ee cebc 2576 363c
000000a0: bc4c 14bd 6300 19bd 2265 26bc bcdb e23c
000000b0: 0de7 e83c 36c6 723d c578 f2b9 7664 333b
000000c0: 810b 22bc c721 2c3d f9d4 f43b 1308 903c
000000d0: f09f a2bc 0724 afbc 1aed 39bb f843 663c
000000e0: ae56 0c3c 5776 c73c ab1d f93b cd1d 0dbd
000000f0: 806d e43c ed41 7d3d 6375 573c ca67 0c3d
00000100: d98e 283d 143f 673c c464 3c3d 8182 6ebd
00000110: 234b 19bc 1752 28bd 9b45 ee3c c166 6bba
00000120: ee08 59bc 9bb8 c5bb 6caa 9b3c b8aa e9bc
00000130: 408a b2bc e576 48bc 8e55 2c3d 0574 38bd
00000140: 9226 b5bc 52c0 4f3d c06b 98bb 995a 4c3d
00000150: 904d 0d3d f9dd 533c 4f9f 4f3b 839a bb3b
00000160: 512b 413d 28a2 463d 4dd5 023d 255d 3b3d
00000170: 562b 97bc 0e3c 06bd 4b4f b5ba b777 15bc
00000180: eb00 ca3c 2cf6 24bd a8b6 f13c 4465 e3bc
00000190: 5ed9 00bc 964c 833c f450 e93b 734b 98bc
000001a0: 3175 3bbc e228 21bd 5e7f d63c 0430 533c
000001b0: 3575 38bc a232 16bd 22b2 983c adf7 953d
000001c0: 9427 01bd 9887 a33b 4430 1e3c 8612 9d3b
000001d0: 439d acbc 9817 fc3a a53b f2bc 580d 3d3a
000001e0: ad89 b439 68d7 023d c2d6 283d 0b6e f03c
000001f0: 491d cc3c d7cb b9ba 8358 dfbb 354b fd3c

network_body._body_endoder.seq_layers.2.weight f4 [128, 128]
0.020971807 0.021729607 -0.11672865 0.00095120515 0.0462885 0.0766894 -0.07205985 0.0046701166
-0.1306928 -0.017673476 0.06358666 -0.029460879 0.09394527 -0.14170247 -0.071422786 0.07033936
-0.015433065 -0.047014996 0.065066226 -0.013951379 -0.028587598 0.004883079 -0.019709848 0.1715945
0.002070733 -0.02511939 0.17289375 0.04303688 0.028070817 -0.2309761 -0.005199809 -0.12990107
0.14312448 0.13044363 0.010135492 -0.022687702 -0.120568596 0.09705384 -0.057711303 0.029490355
0.004260237 -0.054039154 -0.042052597 0.06550291 -0.010911367 0.015262299 -0.074662775 0.021401681
-0.01208781 -0.09949859 0.15927742 0.1311346 0.027980383 0.15344661 0.02251481 0.10622543
-0.13353887 0.017640082 0.003979132 -0.06323059 0.098535545 0.04060161 -0.11111157 0.0083094975
0.24821189 -0.059153773 -0.100991175 0.058066763 -0.07182746 0.014793445 -0.13864337 -0.14728893
0.00985688 -0.07414408 0.14219128 -0.034374192 0.05089314 0.1260229 -0.062086023 0.028036673
-0.05983243 0.13739516 -0.059885364 -0.17189789 -0.07266422 -0.10201833 -0.014498609 -0.06504848
0.13958006 -0.066256866 -0.07535724 0.038694512 -0.024266306 0.053136904 -0.020669041 0.039363258
-0.15633513 0.050144605 -0.047328852 -0.08607118 -0.025836237 -0.1626371 0.015439537 0.12082789
-0.008852412 0.009143521 0.021148432 -0.18127123 -0.10806606 0.031132812 -0.047156155 -0.12890774
0.026579894 0.08820834 0.07292634 0.008872184 0.020483952 -0.15760185 0.20963416 -0.15438573
-0.1794664 0.11545454 0.10951923 0.031630203 0.12905134 0.07389156 -0.09360635 0.07285956
-0.081331715 -0.113234565 0.038304947 0.08456042 0.09020745 0.18615028 0.076571636 0.0070614954
-0.08671292 -0.11831349 0.12846608 -0.013597351 0.13952278 -0.05418666 0.13390085 -0.07839972
0.038675923 -0.040060673 0.019785397 0.06936987 -0.015865881 0.06393836 -0.055685077 -3.9665185e-05
-0.095994934 0.10668262 0.04684489 0.038309593 0.12871894 0.08652834 0.16466361 -0.050177783
0.07994167 0.16895357 0.0914623 0.08966211 -0.011963886 0.08888777 -0.17217082 0.06054873
-0.13474114 -0.02458232 0.011842289 0.06377389 0.09845554 0.056908894 0.025438081 -0.021782866
-0.07511615 0.20130284 0.04218465 0.12354938 -0.14538573 -0.0672798 -0.033803303 0.025246026
0.030954635 0.0067410395 -0.036196772 -0.062794276 -0.07155911 0.013424168 0.02973234 -0.028547568
-0.05250188 0.0073057804 0.054074105 -0.07002126 0.05446301 0.0033326421 -0.0870396 0.14738859
-0.12284761 -0.016581453 0.045919865 0.08862576 -0.097175874 -0.06581515 -0.08168512 -0.022374999
0.059505105 -0.036053564 -0.00954539 0.11293353 0.008445149 0.075210676 0.06182543 0.08084701
0.18423273 -0.017547568 -0.021167431 0.10250302 -0.008330384 -0.005816177 -0.08033058 -0.08832369
0.020734334 -0.14305061 0.025370114 -0.020608595 0.06900015 0.07272452 0.08392738 -0.04182903
0.08432508 -0.03210549 -0.02849567 0.020214198 -0.08580298 -0.10815455 -0.028785251 0.3344442
-0.21239825 -0.065703064 -0.23979963 0.124232516 -0.1034676 -0.14657366 -0.032758363 -0.06665109
0.14468873 0.14033541 0.098681 0.01721542 -0.017597722 0.076551296 -0.11240255 0.08265854
00000000: 11cd ab3c 4a02 b23c 6e0f efbd 4c5a 793a
00000010: 0399 3d3d 550f 9d3d 1d94 93bd c707 993b
00000020: 55d4 05be f7c7 90bc b939 823d f157 f1bc
00000030: 6166 c03d 741a 11be 1c46 92bd 150e 903d
00000040: f7da 7cbc cc92 40bd 7141 853d 5394 64bc
00000050: 8a30 eabc 3c02 a03b 8c76 a1bc 78b6 2f3e
00000060: 23b5 073b 2ec7 cdbc 0f0b 313e 7147 303d
00000070: c5f4 e53c 0085 6cbe 2963 aabb c904 05be
00000080: 398f 123e 0493 053e 560f 263c 8fdb b9bc
00000090: abec f6bd 2ac4 c63d b062 6cbd c295 f13c
000000a0: 7599 8b3b 2958 5dbd 583f 2cbd 6426 863d
000000b0: 97c5 32bc b90e 7a3c cce8 98bd 9452 af3c
000000c0: f30b 46bc ebc5 cbbd 9f19 233e 2648 063e
000000d0: 1e37 e53c 1c21 1d3e fb70 b83c b88c d93d
000000e0: 6abe 08be ef81 903c 6163 823b 0a7f 81bd
000000f0: 01cd c93d e04d 263d 768e e3bd 8f24 083c
00000100: 422b 7e3e 3a4b 72bd 76d4 cebd 6ad7 6d3d
00000110: 461a 93bd 3560 723c 87f8 0dbe e9d2 16be
00000120: c07e 213c dad8 97bd 979a 113e f4cb 0cbd
00000130: 5375 503d 260c 013e ea4d 7ebd 2aad e53c
00000140: da12 75bd 51b1 0c3e 5b4a 75bd 0006 30be
00000150: fbd0 94bd fcee d0bd 938b 6dbc 2338 85bd
00000160: 13ee 0e3e aeb1 87bd e654 9abd 237e 1e3d
00000170: 22ca c6bc 15a6 593d 1f52 a9bc 5e3b 213d
00000180: 5116 20be 6e64 4d3d e6db 41bd 1646 b0bd
00000190: 84a6 d3bc 578a 26be 1df6 7c3c 9d74 f73d
000001a0: b509 11bc b5ce 153c 7a3f ad3c 2a9f 39be
000001b0: bd51 ddbd 3d0a ff3c d026 41bd 6400 04be
000001c0: 14be d93c 93a6 b43d 685a 953d a35c 113c
000001d0: f6cd a73c 6162 21be 56aa 563e 4b17 1ebe
000001e0: 0ac6 37be 6e73 ec3d 9e4b e03d ac8e 013d
000001f0: 0926 043e 7554 973d b0b4 bfbd 6537 953d
00000200: 3e91 a6bd 86e7 e7bd a6e5 1c3d 032e ad3d
00000210: afbe b83d 2e9e 3e3e 97d1 9c3d 1e64 e73b
00000220: 8b96 b1bd 584e f2bd 9d8c 033e 6cc7 5ebc
00000230: 0fdf 0e3e d5f2 5dbd 4e1d 093e 0890 a0bd
00000240: a56a 1e3d a916 24bd fc14 a23c ca11 8e3d
00000250: 2af9 81bc 1df2 823d 0916 64bd 2b5e 26b8
00000260: fe98 c4bd 6b7c da3d 6de0 3f3d 85ea 1c3d
00000270: e6ce 033e c535 b13d 949d 283e 3887 4dbd
00000280: 75b8 a33d 2a02 2d3e 9650 bb3d c5a0 b73d
00000290: 2d04 44bc cb0a b63d 8c4d 30be f201 783d
000002a0: 95f9 09be dd60 c9bc 2906 423c e39b 823d
000002b0: 0fa3 c93d 4d19 693d 8663 d03c fb71 b2bc
000002c0: 7fd6 99bd 5522 4e3e d0c9 2c3d 7507 fd3d
000002d0: ffdf 14be fec9 89bd 5575 0abd c1d0 ce3c
000002e0: 9394 fd3c f0e3 dc3b 1143 14bd 499a 80bd
000002f0: 958d 92bd 0bf1 5b3c 3c91 f33c 97dc e9bc
00000300: 360c 57bd 5465 ef3b cf7c 5d3d 4e67 8fbd
00000310: 9b14 5f3d 7568 5a3b d141 b2bd 09ed 163e
00000320: 8797 fbbd d4d5 87bc 7816 3c3d 6c81 b53d
00000330: 2504 c7bd 18ca 86bd 874a a7bd c64b b7bc
00000340: a0bb 733d e7ac 13bd 4464 1cbc b249 e73d
00000350: 865d 0a3c 0e08 9a3d a93c 7d3d 1e93 a53d
00000360: 81a7 3c3e ebbf 8fbc 5267 adbc 1aed d13d
00000370: 2a7c 08bc a195 bebb 5c84 a4bd 0de3 b4bd
00000380: 0ddb a93c dc7b 12be fcd4 cf3c 5bd3 a8bc
00000390: f34f 8d3d 98f0 943d 1ee2 ab3d eb54 2bbd
000003a0: a1b2 ac3d 0c81 03bd c06f e9bc 3f98 a53c
000003b0: 79b9 afbd 2280 ddbd 0ccf ebbc 453c ab3e
000003c0: ed7e 59be 548f 86bd 098e 75be 9e6d fe3d
000003d0: d2e6 d3bd 6817 16be a22d 06bd 5e80 88bd
000003e0: 4829 143e 16b4 0f3e 4419 ca3d 5a07 8d3c
000003f0: 1929 90bc edc6 9c3d 4f33 e6bd e148 a93d

network_body._body_endoder.seq_layers.2.bias f4 [128]
-0.022316134 0.022531334 0.028392427 0.008392617 0.021498704 0.04064298 -0.0054709422 0.008417541
0.0030299136 0.03897941 -0.008778285 -0.011150305 -0.011627639 0.01674595 0.001187249 0.03290529
0.010775761 0.0021016332 -0.019309135 0.01328607 0.028842002 -0.011806257 0.023795549 0.023056766
-0.022766044 0.026235072 -0.017469075 0.045343228 0.0009920012 -0.007662179 0.005077013 0.034706075
0.04237459 0.004912807 -0.008195613 0.023807213 0.021976482 0.00994671 -0.015016738 0.02079636
0.024079327 0.011846366 -0.014118412 -0.0036551466 -0.011433491 0.029185997 0.0004781654 -0.022942036
0.004155071 -0.016091628 0.024340497 -0.016263757 -0.014310656 0.056973632 0.0029813785 0.01052801
0.009089338 -0.022422438 0.011525174 -0.0055214907 -0.016457835 -0.016234862 0.04752707 0.031847343
-0.0022455468 0.0041688606 0.021427752 -0.0016571298 0.023359733 0.0054835654 -0.0023645086 0.0047242707
-0.016904008 0.001572103 -0.019496966 -0.022462538 -0.02441002 0.0031508238 0.01095691 0.03255343
0.034330733 0.03443262 0.034225617 -0.013057707 -0.018287389 -0.0028999222 0.008632076 -0.012566165
-0.015844934 -0.0077200443 -0.005339241 -0.0031120835 0.016960531 0.033194065 -0.022826422 -0.02618642
-0.0029881026 0.041933864 0.018380743 0.029336309 -0.0056452183 0.018816834 -0.011354906 -0.009276634
0.007220129 0.023188733 0.013914046 0.019250367 0.005607751 0.025662804 0.0008645097 -0.029835107
0.0031371734 0.027071109 0.024529347 0.0025739037 0.04615187 -0.013606047 0.021719776 -0.013458809
0.015770236 0.016629862 -0.016270593 -0.023299603 0.031574667 0.049709994 -0.01629482 -0.014230175
00000000: 53d0 b6bc a293 b83c 3c97 e83c 3081 093c
00000010: 0d1e b03c 4179 263d 9745 b3bb bae9 093c
00000020: 8491 463b e0a8 1f3d ccd2 0fbc c5af 36bc
00000030: da81 3ebc cd2e 893c 779d 9b3a b3c7 063d
00000040: d18c 303c 8ebb 093b 312e 9ebc d1ad 593c
00000050: 1046 ec3c 086f 41bc e2ee c23c 8be1 bc3c
00000060: db7f babc efea d63c 4e1b 8fbc d2b9 393d
00000070: 0906 823a 0413 fbbb 125d a63b f527 0e3d
00000080: fa90 2d3d 9dfb a03b e446 06bc 5807 c33c
00000090: 0608 b43c 87f7 223c c408 76bc 215d aa3c
000000a0: 0242 c53c 4317 423c e950 67bc 2f8b 6fbb
000000b0: 8953 3bbc 7917 ef3c 46b2 fa39 f0f0 bbbc
000000c0: 4327 883b 97d2 83bc b965 c73c 923b 85bc
000000d0: 3e77 6abc 2f5d 693d 3b63 433b ad7d 2c3c
000000e0: 72eb 143c 43af b7bc 15d4 3c3c 9fed b4bb
000000f0: 95d2 86bc f9fe 84bc bfab 423d 5c72 023d
00000100: 062a 13bb f09a 883b 4189 af3c 0d34 d9ba
00000110: e95c bf3c 7baf b33b dff5 1abb 0ece 9a3b
00000120: 467a 8abc 060f ce3a 1ab8 9fbc 5b03 b8bc
00000130: 86f7 c7bc 0d7e 4e3b 9d84 333c bf56 053d
00000140: 629e 0c3d 3809 0d3d 2930 0c3d feef 55bc
00000150: 6fcf 95bc 9f0c 3ebb 8d6d 0d3c 51e2 4dbc
00000160: 3ccd 81bc 6df8 fcbb cdf4 aebb 19f4 4bbb
00000170: d0f0 8a3c 80f6 073d 7afe babc e784 d6bc
00000180: 0bd4 43bb d8c2 2b3d 3693 963c b352 f03c
00000190: 86fb b8bb c325 9a3c ed09 3abc 06fd 17bc
000001a0: d596 ec3b 4cf6 bd3c bdf7 633c f2b2 9d3c
000001b0: 3ac1 b73b cd3a d23c 44a0 623a c168 f4bc
000001c0: 0999 4d3b 3bc4 dd3c c5f1 c83c f0ae 283b
000001d0: be09 3d3d e6eb 5ebc aced b13c 5682 5cbc
000001e0: 9530 813c 593b 883c e849 85bc cfde bebc
000001f0: 7054 013d b59c 4b3d b77c 85bc ae25 69bc

action_model._discrete_distribution.branches.0.weight f4 [3, 128]
-0.012283766 0.00062225515 0.024656475 -0.00921122 -0.021568272 -0.007504909 0.018461535 -0.024306146
-0.0027623835 0.031385086 -0.0014322044 -0.037998836 0.016302982 0.010667781 0.0030702678 -0.061592337
-0.01493127 -0.003419665 0.00057337637 0.0038368697 0.034979437 0.019496659 -0.025810335 0.016161302
-0.028421747 -0.022846892 -0.031954475 -0.009202753 0.03740463 -0.03250242 -0.05236428 0.0107677635
0.0029521133 0.004971363 -0.017176349 0.0006386653 0.0034041293 0.046220105 -0.0010142882 0.011227769
0.009646123 0.0013835597 0.021822827 -0.022892134 0.0032015848 0.04922839 0.020219132 0.0020614946
0.0580916 0.0029439034 0.007709349 0.004695938 -0.008517491 -0.017109895 0.009913439 -0.0029872044
0.017155983 0.010197647 0.036833923 0.048226833 -0.017549278 -0.020224003 0.020559965 -0.03504524
-0.007673495 0.025228167 0.027048416 -0.024506377 0.019915046 0.050211918 -0.003655463 0.007968497
-0.013055091 0.007227282 -0.023344753 -0.019371849 -0.0028521256 -0.008579454 -0.01487685 -0.012303804
0.0038650553 -0.017838184 0.018016128 -0.0111441985 0.008289336 0.013366375 0.04263528 0.032683562
0.014831081 -0.0022754718 -0.0049529043 -0.009516598 -0.011473806 0.0014259281 -0.011246503 -0.020733597
-0.018516669 0.012366194 0.020992909 0.021158375 0.018580647 0.04015444 -0.025076386 0.0138080185
0.00413482 0.007716641 0.006826562 0.03365644 0.013719646 0.017722929 -0.006850189 0.0014059519
0.0026127903 0.016167028 -0.0037290195 0.008574618 0.01126815 -0.021337867 -0.0011263913 0.004737088
-0.003004592 -0.008040821 0.023413498 -0.011092897 -0.0013786891 -0.011309337 0.0056638336 -0.010435534
0.026567321 0.015222768 -0.014258724 0.011938731 -0.022019982 -0.0058528767 -0.044097655 0.0334152
0.018287033 -0.010004313 0.001058687 0.046174917 -0.012646582 -0.019143352 -0.02648175 0.063800804
-0.024194729 -0.00012074556 0.021930935 -0.010767404 -0.00039678355 -0.014584094 0.029044025 0.019737147
0.02025288 0.042785414 0.015367823 0.026833821 -0.03171344 0.021757176 0.054169454 -0.0077436995
0.008197496 -0.00058468693 0.0062017143 0.023943372 0.018346906 -0.048704673 -0.018626085 -0.017189825
0.0062007783 -0.021054776 0.0023382336 0.020045403 -0.0015253752 -0.047778767 0.0030674245 0.020383159
-0.06658894 -0.030753138 -0.012968587 0.011206938 0.009055944 0.00024360023 -0.008769769 -0.033483285
-0.02650278 0.006805272 -0.03270812 -0.048243884 0.026833257 0.0040167016 -0.029917877 0.04505857
0.010556579 -0.020281702 0.021299148 0.03324364 -0.020383896 -0.030985955 0.02460097 0.0109583605
0.0012229815 -0.004819375 0.023253249 0.02985643 0.012085433 -0.009254133 0.037356958 0.008749143
0.00059121085 0.04052775 -0.021430297 0.03570539 -0.013112518 -0.018011525 -0.053049695 -0.05150506
0.00057975797 0.010443391 0.015773457 0.021392537 -0.0009345986 -0.01700911 0.022162596 0.017092032
0.023087148 -0.014518717 0.0049513495 -0.011842878 -0.008131 -0.02107833 0.013308286 -0.008508268
0.0006533736 -0.004872295 0.013175715 -0.045017544 -0.015143336 0.0054437723 -0.007791305 0.0121476725
0.012638966 0.012378666 0.023333307 0.001674718 0.01361835 -0.00967806 -0.0042895167 -0.01201871
0.01642625 0.027878128 -0.0155221755 -0.005414887 0.020256711 -0.0065403567 0.005034252 0.0017298353
00000000: d941 49bc d61e 233a 60fc c93c a8ea 16bc
00000010: f2af b0bc bdeb f5bb a53c 973c af1d c7bc
00000020: 1b09 35bb a68d 003d ceb8 bbba aba4 1bbd
00000030: d58d 853c ebc7 2e3c 8c36 493b 3f48 7cbd
00000040: 49a2 74bc 751c 60bb a34e 163a fe73 7b3b
00000050: 9946 0f3d 75b7 9f3c 3270 d3bc b564 843c
00000060: b9d4 e8bc 6829 bbbc b2e2 02bd 25c7 16bc
00000070: 9935 193d 4221 05bd ed7b 56bd 466b 303c
00000080: 3e78 413b d1e6 a23b 6ab5 8cbc 1a6c 273a
00000090: d017 5f3b 4b51 3d3d ddf1 84ba adf4 373c
000000a0: c60a 1e3c 8f58 b53a c9c5 b23c 4988 bbbc
000000b0: aed1 513b b5a3 493d 98a2 a53c 241a 073b
000000c0: 75f1 6d3d 81ee 403b b59e fc3b 62e0 993b
000000d0: f28c 0bbc 0d2a 8cbc fa6b 223c f9c4 43bb
000000e0: b48a 8c3c 0814 273c 2bdf 163d 8089 453d
000000f0: 81c3 8fbc cfac a5bc 5f6d a83c 998b 0fbd
00000100: f171 fbbb 4dab ce3c a494 dd3c 99c1 c8bc
00000110: e124 a33c 03ab 4d3d 7e90 6fbb 4d8e 023c
00000120: 05e5 55bc d6d2 ec3b 7f3d bfbc b6b1 9ebc
00000130: baea 3abb d790 0cbc 08be 73bc e595 49bc
00000140: de4c 7d3b 6221 92bc 8f96 933c 2896 36bc
00000150: ffcf 073c a4fe 5a3c 55a2 2e3d 33df 053d
00000160: 10fe 723c 1520 15bb f94b a2bb 81eb 1bbc
00000170: a1fc 3bbc 35e6 ba3a 4143 38bc 81d9 a9bc
00000180: 45b0 97bc 949b 4a3c 52f9 ab3c 5454 ad3c
00000190: 7136 983c fb78 243d fe6c cdbc 073b 623c
000001a0: 627d 873b e0db fc3b 5ab1 df3b 56db 093d
000001b0: 5ec8 603c ad2f 913c 8d77 e0bb eb47 b83a
000001c0: 593b 2b3b b770 843c 9162 74bb 8e7c 0c3c
000001d0: 0c9e 383c c0cc aebc 6ca3 93ba 9339 9b3b
000001e0: b0e8 44bb a6bd 03bc aacd bf3c fbbe 35bc
000001f0: 21b5 b4ba cc4a 39bc ae97 b93b cdf9 2abc
00000200: b6a3 d93c eb68 793c 6c9d 69bc ab9a 433c
00000210: 4063 b4bc 7dc9 bfbb be9f 34bd 60de 083d
00000220: b0ce 953c 21e9 23bc a4c3 8a3a e921 3d3d
00000230: 9c33 4fbc 85d2 9cbc 41f0 d8bc ffa9 823d
00000240: 0634 c6bc c738 fdb8 81a8 b33c c469 30bc
00000250: 6307 d0b9 20f2 6ebc bced ed3c ccaf a13c
00000260: 5ee9 a53c c23f 2f3d 52c9 7b3c 9ad2 db3c
00000270: f4e5 01bd 1b3c b23c cae0 5d3d dcbe fdbb
00000280: ca4e 063c ad45 19ba c037 cb3b e424 c43c
00000290: 404c 963c 8d7e 47bd bb95 98bc add1 8cbc
000002a0: e62f cb3b 117b acbc 0d3d 193b 4236 a43c
000002b0: 19ef c7ba abb3 43bd d806 493b 95fa a63c
000002c0: c85f 88bd 01ee fbbc 327a 54bc 4e9d 373c
000002d0: 625f 143c f06e 7f39 14af 0fbc c525 09bd
000002e0: 5c1c d9bc c2fe de3b f3f8 05bd 619b 45bd
000002f0: 6bd1 db3c 899e 833b 5616 f5bc 568f 383d
00000300: 80f5 2c3c d025 a6bc 8d7b ae3c 7c2a 083d
00000310: 21fc a6bc 42d6 fdbc f987 c93c b28a 333c
00000320: 734c a03a d9eb 9dbb 997d be3c 7995 f43c
00000330: fb01 463c a69e 17bc 9c03 193d 9158 0f3c
00000340: 7dfb 1a3a 6d00 263d 978e afbc d13f 123d
00000350: e3d5 56bc e88c 93bc a34a 59bd f8f6 52bd
00000360: e6fa 173a c21a 2b3c 5637 813c 673f af3c
00000370: daff 74ba b056 8bbc 558e b53c 9704 8c3c
00000380: 4221 bd3c eadf 6dbc ee3e a23b a108 42bc
00000390: e337 05bc 76ac acbc ff0a 5a3c 4366 0bbc
000003a0: 2947 2b3a c6a7 9fbb f4de 573c 5164 38bd
000003b0: c11b 78bc ac61 b23b 344e ffbb 0807 473c
000003c0: aa13 4f3c e3cf 4a3c 7e25 bf3c 3682 db3a
000003d0: 801f 5f3c ba90 1ebc 138f 8cbb 20ea 44bc
000003e0: 5890 863c ac60 e43c b950 7ebc 5d6f b1bb
000003f0: 67f1 a53c 7d50 d6bb 5ef6 a43b a4bb e23a

action_model._discrete_distribution.branches.0.bias f4 [3]
0.011940602 -0.0137053905 0.0020137955
00000000: 84a2 433c 938c 60bc e2f9 033b

action_model._discrete_distribution.branches.1.weight f4 [3, 128]
-0.005851986 0.0015626897 0.017576996 0.020162912 0.014669971 -0.003172494 0.021560287 -0.01523836
-0.0035139294 -0.032216877 -0.0067469613 0.021131648 -0.044124432 0.015263101 -0.024629876 0.014844804
-0.0027856575 0.0006305428 -0.016036557 -0.032815866 -0.027923476 0.039773915 0.04012379 -0.020963017
-0.017514551 0.027101045 -0.0125720715 0.013804321 -0.01210925 0.023272047 0.035346135 0.008957743
0.022643028 0.011603001 -0.015760556 -0.0042260517 0.01680354 0.0291211 0.02879829 0.016917257
0.009313749 -0.016589323 -0.025147982 -0.018433072 -0.006353597 0.018851375 0.020546306 -0.0139310025
-0.0510827 0.0185994 0.0053981915 -0.004813123 0.017399052 0.014131657 -0.0007366433 -0.01414714
0.017082589 -0.013305098 -0.0043471768 0.01677321 0.008274928 0.033014517 -0.0137355225 -0.0102943955
0.023996238 -0.040494975 0.018231874 -0.0040740087 -0.033536572 -0.056537766 -0.019104121 0.00027520477
-0.005513798 0.015965203 -0.0075265327 -0.013580011 0.0039441506 0.03485833 -0.008224351 0.008692204
-0.0014944788 0.015141601 -0.010145295 -0.020339241 -0.02550986 -0.014190151 -0.038701292 0.011292221
-0.008506742 -0.028214604 0.0015655516 -0.030482508 -0.006941014 0.020044211 -0.009046691 -0.015064628
0.023033818 -0.013748968 0.0045744563 -0.001849143 0.025634704 -0.016630245 0.019142618 -0.0007911539
9.92612e-05 0.024689294 -0.0068269763 -0.013728788 0.02551796 -0.012684722 0.013420144 0.010075371
0.009379171 0.004685251 -0.004817229 -0.0048765563 -0.062295143 0.01989955 0.026972594 0.009983071
-0.010500664 0.0028030982 0.015804937 -0.0029944212 -0.019301146 0.008733405 -0.012558367 0.010585484
0.017576879 -0.021966647 -0.0132020945 0.00094365334 -0.0062855366 -0.0028346833 -0.034446508 0.052864123
-1.5264704e-06 -0.0021735947 0.0020603002 0.0056818607 0.011054262 0.019902041 0.007469822 0.009847305
0.007852033 -0.001971046 -0.002583954 -0.0059635225 0.011268933 -0.021187345 -0.054992247 0.008105488
0.0065946695 -0.007743195 0.0021451898 -0.030782618 -0.00039288565 0.0100780865 -0.040967282 0.003535371
-0.021827314 -0.0023058555 0.0127499 0.038985312 -0.0066123107 -0.053302173 -0.021549793 -0.016720532
-0.016316524 0.005100646 -0.011725302 0.033919763 0.013970571 -0.017551674 0.0014711027 0.010240262
0.03518117 0.015047342 -0.006492132 0.0049962187 -0.012068567 -0.021604955 0.012236108 -0.005516689
0.019555043 -0.013861256 0.016219018 -0.060482115 0.01431305 0.0069205845 -0.0076437276 0.0051653376
0.004473656 0.009874411 -0.006902031 -0.019635238 0.018852154 0.014145335 0.017542042 0.0018484169
0.008287701 -0.0141427405 0.0015088334 0.016717205 -0.008136932 -0.023500074 -0.016473558 -0.016463233
-0.024756668 -0.013232852 0.01725438 0.010347989 0.018590173 0.01413958 0.041721683 -0.037529595
-0.027810678 0.0065083443 -0.011122336 -0.01117758 -0.0078040757 -0.00739764 0.013694275 0.00955355
0.009833901 0.0025847708 0.013860073 -0.01853747 -0.0269604 0.015422298 0.016537908 0.015140381
-0.004790765 -0.017406825 -0.011338825 0.018946607 -0.02553599 -0.010057843 -0.007869594 -0.0006042489
0.008324506 -0.008550338 0.025881587 0.0071938494 0.04237313 0.0005555399 -0.011199426 -0.018139629
0.013190426 0.013439599 -0.019329468 0.010660472 0.028364537 -0.028429974 0.004065752 -0.0011581646
00000000: 04c2 bfbb 2ad3 cc3a a2fd 8f3c b12c a53c
00000010: 515a 703c 9ee9 4fbb 339f b03c 50aa 79bc
00000020: f449 66bb d8f5 03bd 9d15 ddbb 471c ad3c
00000030: d2bb 34bd 1612 7a3c 98c4 c9bc 9f37 733c
00000040: 948f 36bb 034b 253a 195f 83bc ee69 06bd
00000050: c6bf e4bc f9e9 223d d858 243d a2ba abbc
00000060: ad7a 8fbc 0303 de3c 17fb 4dbc 852b 623c
00000070: e065 46bc 05a5 be3c 1cc7 103d 7fc3 123c
00000080: df7d b93c 831a 3e3c 481c 81bc b17a 8abb
00000090: 94a7 893c 608f ee3c 64ea eb3c 0f96 8a3c
000000a0: b298 183c 55e6 87bc 2403 cebc f400 97bc
000000b0: d631 d0bb 336e 9a3c ba50 a83c dc3e 64bc
000000c0: 183c 51bd c55d 983c 50e3 b03b 67b7 9dbb
000000d0: 7588 8e3c 7788 673c 4c1b 41ba 68c9 67bc
000000e0: c9f0 8b3c a0fd 59bc c372 8ebb f967 893c
000000f0: 9093 073c 3b3a 073d f50a 61bc d3a9 28bc
00000100: c293 c43c 0fde 25bd 035b 953c 437f 85bb
00000110: a55d 09bd 2594 67bd 3f80 9cbc 5c49 9039
00000120: 17ad b4bb 75c9 823c 22a1 f6bb b27e 5ebc
00000130: ef3d 813b 9cc7 0e3d 6ebf 06bc bf69 0e3c
00000140: 63e2 c3ba 7a14 783c 7438 26bc 7b9e a6bc
00000150: 0efa d0bc cf7d 68bc 3f85 1ebd 0203 393c
00000160: dd5f 0bbc 5022 e7bc 3233 cd3a 74b6 f9bc
00000170: 7271 e3bb c233 a43c 9238 14bc a1d1 76bc
00000180: 6bb1 bc3c 5a43 61bc 52e5 953b f15e f2ba
00000190: dfff d13c 273c 88bc fbd0 9c3c 7165 4fba
000001a0: 732a d038 3441 ca3c d4b4 dfbb b6ee 60bc
000001b0: 0a0b d13c 95d3 4fbc 2ae0 5b3c 2b13 253c
000001c0: 18ab 193c bc86 993b d9d9 9dbb 85cb 9fbb
000001d0: 3129 7fbd 6204 a33c a1f5 dc3c 0990 233c
000001e0: fa0a 2cbc 2fb4 373b 5b79 813c 0d3e 44bb
000001f0: 701d 9ebc 8e16 0f3c 9cc1 4dbc bd6e 2d3c
00000200: 63fd 8f3c 66f3 b3bc 994d 58bc 815f 773a
00000210: e7f6 cdbb 18c6 39bb c817 0dbd 0d88 583d
00000220: 20e1 ccb5 de72 0ebb 1a06 073b e72e ba3b
00000230: ef1c 353c 9b09 a33c 69c5 f43b 9756 213c
00000240: d0a5 003c aa2c 01bb 8e57 29bb a769 c3bb
00000250: 55a1 383c 1591 adbc 8d3f 61bd e1cc 043c
00000260: 1918 d83b a1ba fdbb 5096 0c3b d42b fcbc
00000270: 38fc cdb9 8f1e 253c 4fcd 27bd afb1 673b
00000280: 32cf b2bc d61d 17bb f5e4 503c 10af 1f3d
00000290: 15ac d8bb 6153 5abd 3189 b0bc 7ff9 88bc
000002a0: 3baa 85bc 5223 a73b 7b1b 40bc 73ef 0a3d
000002b0: d2e4 643c 87c8 8fbc 04d2 c03a c6c6 273c
000002c0: 211a 103d 2089 763c f3bb d4bb 52b7 a33b
000002d0: 3dbb 45bc e0fc b0bc f579 483c 57c5 b4bb
000002e0: e631 a03c 521a 63bc bfdd 843c 18bc 77bd
000002f0: 4881 6a3c 12c6 e23b 3c78 fabb fe41 a93b
00000300: bf97 923b 48c8 213c 6f2a e2bb 14da a0bc
00000310: d56f 9a3c d6c1 673c 54b4 8f3c 9446 f23a
00000320: 23c9 073c f4b6 67bc 0cc4 c53a 85f2 883c
00000330: c450 05bc 3a83 c0bc 8ef3 86bc e7dd 86bc
00000340: 7fce cabc 9bce 58bc 0f59 8d3c 9d8a 293c
00000350: 6b4a 983c b2a9 673c 5be4 2a3d a2b8 19bd
00000360: 38d3 e3bc f343 d53b 753a 36bc 2b22 37bc
00000370: 55b9 ffbb e767 f2bb f45d 603c 7e86 1c3c
00000380: 5f1e 213c 4265 293b 5c15 633c e4db 97bc
00000390: 0fdc dcbc cead 7c3c 827a 873c 5c0f 783c
000003a0: d9fb 9cbb c298 8ebc 7bc6 39bc ea35 9b3c
000003b0: da30 d1bc a7c9 24bc 78ef 00bc 7566 1eba
000003c0: 8263 083c b816 0cbc 9f05 d43c 62ba eb3b
000003d0: 728f 2d3d a7a1 113a cc7d 37bc 8f99 94bc
000003e0: a81c 583c c431 5c3c d558 9ebc 43a9 2e3c
000003f0: bf5c e83c fae5 e8bc 003a 853b 8ecd 97ba

action_model._discrete_distribution.branches.1.bias f4 [3]
0.013987576 -0.001454584 -0.009666765
00000000: 252c 653c bda7 beba 5a61 1ebc

action_model._discrete_distribution.branches.2.weight f4 [2, 128]
-0.024024723 0.03378533 0.020660786 0.017991679 -0.011461629 0.029381175 -0.014653016 0.010553289
-0.001989519 0.035144065 -0.019188367 0.0013244764 -0.023668928 0.012683823 -0.017220836 0.0014864025
-0.01882778 -0.015865922 -0.014825135 -0.02563293 0.021690711 0.008608733 0.020930192 0.047654428
-0.021365572 0.038137805 -0.019341154 0.039402105 0.013419574 -0.02289078 -0.0038684623 0.017384162
0.038030263 -0.01597329 -0.020483943 0.042375088 0.021540655 -0.006241222 -0.03743687 0.0044375914
0.018051244 -0.019216398 -0.012854279 0.023100806 -0.020105744 0.02293437 0.033735275 -0.008361709
-0.002062971 -0.034141317 0.042281315 -0.018667068 -0.025727088 0.040403787 0.0057500806 -0.0025260518
-3.5433206e-06 -0.031219427 0.012023485 -0.014979109 -0.020283319 -0.008540422 0.028985595 0.038334593
0.037803724 -0.03021711 0.038953435 0.018852582 -0.033980448 -0.018817216 -0.0087610185 0.04193198
-0.010334633 0.007747326 -0.010635118 -0.020846773 -0.0032907214 -0.007078232 0.04848102 0.032854628
0.011286498 0.048928224 0.025898073 -0.019810757 -0.026803894 0.0065072123 0.0024414752 0.020032214
-0.021773221 -0.011358621 -0.028365828 -0.013477394 -0.006541868 0.024574054 -0.018842768 -0.015118295
0.018094793 0.025544524 0.026238007 0.032731958 0.0016834687 0.019430129 0.02047827 -0.013072295
0.015345521 0.022639051 0.020844832 -0.032352198 0.011596821 0.07274953 -0.024588527 -0.021013033
0.017625317 0.029988825 0.038623013 0.03188707 0.0253126 -0.025093729 0.024346372 -0.0020001298
0.024756752 0.027727252 -0.055236205 -0.030565916 -0.007935739 0.03768508 -0.026807802 -0.03264548
0.020931652 -0.03274193 -0.038696412 -0.028843971 0.016514266 -0.036841616 -0.007973121 -0.0138008995
0.015826039 -0.038625166 0.035808288 -0.004874263 0.012304262 -0.024503745 0.013884526 -0.008265945
0.027113652 0.023301123 -0.013647156 0.03418906 -0.02331377 -0.0133519275 -0.028330436 -0.028740076
0.011228436 -0.032120235 0.024528079 -0.03276847 0.013024991 0.0023927016 -0.010078795 -0.03232021
-0.03164286 0.026587995 0.005699377 -0.036937993 -0.031233104 -0.0049062977 0.035532426 0.0038674276
-0.02507516 0.009507966 0.022695605 -0.022229305 0.025271498 -0.025037797 -0.03309877 0.013973395
0.016502993 0.03259735 -0.021478811 0.024177419 0.013916769 -0.035163734 -0.007608801 0.0029074484
0.0045447047 0.023817055 -0.018790247 -0.00068208063 0.0265574 0.0042921193 -0.04006693 -0.040178634
-0.044784795 0.025593668 -0.05147958 -0.02940165 0.008969782 0.014031963 0.01416085 -0.043639764
0.015914304 -0.015322943 0.0120395 0.009444481 0.029381575 0.016008664 -0.044457044 -0.049614266
-0.013482913 -0.03832832 -0.031657904 0.0087374905 0.033342544 -0.02453691 0.0013857104 0.012616447
0.019653607 0.022298548 0.029249193 0.015563217 0.03623177 -0.014042298 0.01923114 0.018591475
0.0016311889 -0.047000572 -0.027648842 -0.035906862 -0.010745257 -0.01421807 -0.031979717 0.018678036
-0.023045497 -0.029780488 -0.025825555 0.0060123457 -0.016621608 -0.059679694 0.006827417 0.016097564
-0.034865037 -0.031210344 -0.030177645 -0.027437821 -0.03397054 0.022300066 -0.018131517 0.0104952
-0.03867494 -0.013191239 0.014166918 0.02075809 0.014794562 -0.030438656 0.014247937 0.008489657
00000000: 7fcf c4bc 7c62 0a3d cf40 a93c 4963 933c
00000010: 8ec9 3bbc cab0 f03c 3413 70bc b4e7 2c3c
00000020: 9762 02bb 39f3 0f3d ec30 9dbc 0e9a ad3a
00000030: 57e5 c1bc cfcf 4f3c b612 8dbc 64d3 c23a
00000040: b73c 9abc 40f9 81bc 1fe5 72bc 27fc d1bc
00000050: b8b0 b13c a50b 0d3c cb75 ab3c 4a31 433d
00000060: da06 afbc 6336 1c3d 5771 9ebc 1a64 213d
00000070: c6dd 5b3c 7285 bbbc 0786 7dbb 3b69 8e3c
00000080: 9fc5 1b3d 6bda 82bc f1cd a7bc 8091 2d3d
00000090: 0776 b03c 2a83 ccbb 6757 19bd 3769 913b
000000a0: 34e0 933c b56b 9dbc c19a 52bc e73d bd3c
000000b0: cdb4 a4bc dce0 bb3c 002e 0a3d 8dff 08bc
000000c0: e932 07bb c4d7 0bbd 2c2f 2d3d aeeb 98bc
000000d0: 9dc1 d2bc 717e 253d 2c6b bc3b 1e8c 25bb
000000e0: c9c9 6db6 e2bf ffbc 27fe 443c f06a 75bc
000000f0: 3429 a6bc 20ed 0bbc 3373 ed3c bc04 1d3d
00000100: 14d8 1a3d df89 f7bc a38d 1f3d bb70 9a3c
00000110: 152f 0bbd 9026 9abc 608a 0fbc dec0 2b3d
00000120: 9852 29bc 48dd fd3b eb3e 2ebc dac6 aabc
00000130: 25a9 57bb 83f0 e7bb 0994 463d 9392 063d
00000140: 01eb 383c f668 483d 3228 d43c 2b4a a2bc
00000150: d793 dbbc 743a d53b 2801 203b 991a a43c
00000160: c15d b2bc 8219 3abc 745f e8bc 4ad0 5cbc
00000170: 2b5d d6bb 874f c93c 265c 9abc bab2 77bc
00000180: 883b 943c c042 d13c 17f1 d63c f211 063d
00000190: d6a7 dc3a ef2b 9f3c 0bc2 a73c 2e2d 56bc
000001a0: c86b 7b3c 8875 b93c c8c2 aa3c bd83 04bd
000001b0: 9800 3e3c b5fd 943d e16d c9bc 8623 acbc
000001c0: f862 903c 20ab f53c 2a33 1e3d 049c 023d
000001d0: 5f5c cf3c 5d91 cdbc 0b72 c73c 9c14 03bb
000001e0: acce ca3c 4324 e33c 5c3f 62bd 5f65 fabc
000001f0: e704 02bc ac5b 1a3d 099c dbbc 44b7 05bd
00000200: db78 ab3c 671c 06bd 2180 1ebd 314a ecbc
00000210: ed48 873c 3ce7 16bd b1a1 02bc 2b1d 62bc
00000220: 9ca5 813c 6c35 1ebd b6ab 123d 48b8 9fbb
00000230: d197 493c 14bc c8bc ec7b 633c e36d 07bc
00000240: 731d de3c ffe1 be3c 5298 5fbc d409 0c3d
00000250: 85fc bebc 0bc2 5abc 3b15 e8bc 4f70 ebbc
00000260: 79f7 373c 8290 03bd 1cef c83c 3b38 06bd
00000270: c666 553c dfce 1c3b 8821 25bc 3262 04bd
00000280: f29b 01bd 11cf d93c d7c1 ba3b 4b4c 17bd
00000290: 91dc ffbc 02c5 a0bb 738a 113d ab74 7d3b
000002a0: 6c6a cdbc 4dc7 1b3c 22ec b93c 3b1a b6bc
000002b0: 2c06 cf3c 111c cdbc 9392 07bd abf0 643c
000002c0: 4931 873c cd84 053d 55f4 afbc b90f c63c
000002d0: 2903 643c d907 10bd 4053 f9bb e48a 3e3b
000002e0: bfeb 943b fc1b c33c 01ee 99bc a8cd 32ba
000002f0: e88e d93c e8a4 8c3b 391d 24bd 5a92 24bd
00000300: 4370 37bd d0a9 d13c 41dc 52bd bbdb f0bc
00000310: fef5 123c 52e6 653c e902 683c 9cbf 32bd
00000320: b75e 823c 150d 7bbc 5341 453c 06bd 1a3c
00000330: a1b1 f03c 9a24 833c 9718 36bd 5438 4bbd
00000340: 70e7 5cbc 28fe 1cbd b8ab 01bd b127 0f3c
00000350: 3192 083d a101 c9bc baa0 b53a 37b5 4e3c
00000360: 9a00 a13c 72ab b63c 019c ef3c ddfc 7e3c
00000370: c467 143d ab11 66bc a08a 9d3c 264d 983c
00000380: 9ecd d53a ac83 40bd d37f e2bc 1313 13bd
00000390: e00c 30bc e8f2 68bc 2afd 02bd ae02 993c
000003a0: e9c9 bcbc 36f6 f3bc 1d90 d3bc 3603 c53b
000003b0: 0a2a 88bc b272 74bd 86b8 df3b 0adf 833c
000003c0: a4ce 0ebd d6ac ffbc 1c37 f7bc 48c5 e0bc
000003d0: b124 0bbd a1ae b63c 8c88 94bc 0ff4 2b3c
000003e0: 9d69 1ebd 1120 58bc 5c1c 683c df0c aa3c
000003f0: e464 723c 7d5a f9bc 2e70 693c 3418 0b3c

action_model._discrete_distribution.branches.2.bias f4 [2]
0.011423571 -0.01142357
00000000: ee29 3b3c ed29 3bbc
