Assets/Brain/3(40%).onnx (onnx, 107096 bytes, 11 tensors)

discrete_action_output_shape f4 [1, 3]
0	0x40400000	3.0
1	0x40400000	3.0
2	0x40000000	2.0

network_body._body_endoder.seq_layers.0.weight f4 [128, 64]
0	0x3d5e8558	0.054326385
1	0x3e13101b	0.14361612
2	0xbda01ede	-0.078183874
3	0xbdf9f7f9	-0.122055
4	0xbd9eb76a	-0.07749827
5	0xbd3f42c0	-0.046694517
6	0xbdcd90dd	-0.10037396
7	0xbcbc9d0c	-0.023024105
8	0x3e2c9342	0.1685305
9	0xbd2529c9	-0.040323053
10	0x3c8bb892	0.017055783
11	0x3da02d5c	0.078211516
12	0x3da31e0e	0.07964717
13	0x3d19e037	0.037567344
14	0x3d905656	0.07047717
15	0x3e2b1d67	0.16710435
16	0x3e07c64c	0.13259238
17	0xbb6e878f	-0.0036396717
18	0x3dece8e1	0.115678556
19	0xbd8ec045	-0.06970266
20	0xbd588d85	-0.05286934
21	0xbd0e287b	-0.034706574
22	0xbd882eb9	-0.06649537
23	0xbd0c5b17	-0.034266558
24	0xbe26355c	-0.16231292
25	0x3e608143	0.2192431
26	0xbd5cc0b2	-0.053894706
27	0xbe186f3f	-0.14886187
28	0x3dfd7c8e	0.123772725
29	0x3e532a92	0.20621708
30	0x3e032ea7	0.12810765
31	0xbe63c2b8	-0.22242248
32	0x3db674c5	0.08908991
33	0xbdb6a144	-0.08917478
34	0x3daa11cc	0.08304176
35	0xbe2273a1	-0.15864421
36	0x3e0ad507	0.13557826
37	0xbd58ea8d	-0.05295806
38	0x3e0ed444	0.1394816
39	0x3e7136ba	0.23556033
40	0x3e00b00a	0.12567154
41	0xbe078ae5	-0.13236578
42	0xbc732229	-0.014839687
43	0xbdca97f6	-0.098922655
44	0x3de24613	0.11048522
45	0xbce32ba8	-0.027730778
46	0xbdc50404	-0.096199065
47	0x3e10805a	0.14111462
48	0xbd873e03	-0.06603625
49	0xbe59db71	-0.21275117
50	0xbd3c11d1	-0.04591543
51	0x3e5bd4f3	0.21467952
52	0xbd2915f3	-0.041280698
53	0xbd5d9020	-0.054092526
54	0xbe37e083	-0.17956738
55	0x3d8163f5	0.063178934
56	0x3d9b9001	0.07595826
57	0xbda258bf	-0.07927083
58	0x3e94e1ea	0.2907861
59	0xbb736378	-0.0037138145
60	0xbd1dcb80	-0.03852415
61	0xbcdf3ec1	-0.027251603
62	0x3d5798e9	0.05263606
63	0xbdcee2eb	-0.10101875
64	0x3e418455	0.18898137
65	0xbe667cd6	-0.22508559
66	0xbd9a0bd3	-0.075217865
67	0xbd9b68b4	-0.0758833
68	0x3e4d6cd9	0.20061053
69	0xbda71f29	-0.0816024
70	0x3e08dc42	0.13365272
71	0x3d130f91	0.035903517
72	0xbe57e749	-0.21084322
73	0xbc918c12	-0.017766986
74	0xbe3ccc21	-0.18437244
75	0x3c6fc047	0.014633245
76	0x3d80d950	0.06291449
77	0xbda7b608	-0.081890166
78	0x3e0adda6	0.13561115
79	0xbd6d600d	-0.05795293
80	0x3cddfce6	0.02709813
81	0xbe0e14fc	-0.13875192
82	0x3e137a40	0.14402103
83	0xbc15746f	-0.009121998
84	0x3df52019	0.11969013
85	0xbdd50d74	-0.104029566
86	0xbdd5b880	-0.10435581
87	0x3c555630	0.013021037
88	0xbe298b1c	-0.16556972
89	0x3d83df54	0.06439081
90	0x3d3b1979	0.04567859
91	0xbd89022c	-0.066898674
92	0xbde52da0	-0.11190343
93	0x3e5ccb7d	0.21562
94	0x3cf456fd	0.029826635
95	0x3a2551c4	0.00063064345
96	0xbd8ff518	-0.0702917
97	0x3ec6c0bd	0.38818923
98	0x3c0bdc6d	0.00853644
99	0xbe32abda	-0.17448369
100	0xbe551e2e	-0.20812294
101	0x3d4594c0	0.048237562
102	0x3e49c126	0.19702587
103	0xbe5088c7	-0.20364676
104	0xbd97dc95	-0.074151196
105	0x3e8a8adf	0.27059075
106	0x3aaf298e	0.0013363825
107	0x3d300e1d	0.04298221
108	0xbd0cd256	-0.03438028
109	0xbd800233	-0.062504195
110	0xbd07432c	-0.033023044
111	0xbde12dc4	-0.10995057
112	0xbe73accb	-0.23796384
113	0x3dfa5b22	0.122244135
114	0xbd64b05b	-0.05583225
115	0x3dbb6221	0.09149576
116	0x3dd9f8e6	0.10643177
117	0xbdd15128	-0.102205575
118	0xbd21ae1f	-0.039472695
119	0xbdcfb96a	-0.10142787
120	0xbd842899	-0.06453056
121	0x3d8f552a	0.06998666
122	0x3d7c7750	0.061637223
123	0xba910515	-0.0011064137
124	0x3d6d71b4	0.057969764
125	0xbdcdbb28	-0.10045463
126	0x3d054bee	0.032543115
127	0x3e07811f	0.1323285
128	0xbe158bea	-0.14604154
129	0xbd760378	-0.0600619
130	0x3ac1b730	0.0014779326
131	0x3e100dee	0.14067814
132	0xbdaa8308	-0.083257735
133	0xbe161155	-0.14655049
134	0xbd92ef1e	-0.07174514
135	0x3ddeeba1	0.108847864
136	0x3e158c8f	0.146044
137	0x3dc381b4	0.09546223
138	0xbe16583e	-0.14682099
139	0xbcc7b6e8	-0.024379209
140	0x3e4e3246	0.20136365
141	0xbe60a6ea	-0.21938673
142	0x3e442a9f	0.19156884
143	0x3e4d5eed	0.20055743
144	0x3e5f67b1	0.21816899
145	0xbce64ee6	-0.028113794
146	0x3e46b3ca	0.19404522
147	0xbda4174e	-0.080122575
148	0xbd88942b	-0.06668886
149	0xbd559dd0	-0.052152455
150	0x3e223fe9	0.15844692
151	0xbe78b603	-0.24288182
152	0xbbfb9d39	-0.0076786545
153	0xbda53391	-0.08066476
154	0xbd561a50	-0.052271187
155	0x3e777c94	0.24168617
156	0xbcb13da6	-0.021635842
157	0x3c22a468	0.009926893
158	0x3ddaf5c4	0.10691407
159	0xbd655d31	-0.055997077
160	0xbd116075	-0.03549238
161	0x3cc0b178	0.023522124
162	0xbd01f224	-0.031725064
163	0x3d6e30e9	0.058152113
164	0x3d1bd5dc	0.03804575
165	0xbc73035f	-0.014832347
166	0x3e400156	0.1875051
167	0x3e15299c	0.14566654
168	0x3e4f0788	0.20217717
169	0xbd8061fb	-0.06268688
170	0xbc1399df	-0.009008854
171	0x3d85c1f9	0.06531138
172	0xbd7b4083	-0.06134082
173	0x3e07c408	0.13258374
174	0xbdd4252c	-0.103586525
175	0xb9b69602	-0.0003482551
176	0x3d90d7b1	0.0707239
177	0xbe65e40d	-0.22450276
178	0xbd7f5713	-0.0623389
179	0x3d46c2ef	0.048525747
180	0x3c1623bf	0.009163796
181	0x3e0e65ff	0.13906096
182	0xbde9fa71	-0.11424721
183	0x3d8eecfe	0.069787964
184	0xbd428a36	-0.04749509
185	0x3c3e5663	0.011617276
186	0x3d009887	0.03139546
187	0x399ffbe1	0.00030514508
188	0x3e1327c2	0.14370635
189	0xbd0d75cd	-0.03453617
190	0x3e34d906	0.17660913
191	0x3d079e09	0.0331097
192	0x3cb851f1	0.02250001
193	0x3e095910	0.13412881
194	0xbd41592d	-0.047204185
195	0xbe0941d6	-0.1340402
196	0x3cde56b7	0.027140958
197	0x3cc85271	0.024453374
198	0xbd5368e6	-0.05161371
199	0xbd83965b	-0.064251624
200	0x3da690bd	0.081330754
201	0xbead22e5	-0.33815685
202	0xbe3d957a	-0.18514052
203	0xbc605f41	-0.013694585
204	0x3e4243aa	0.18971124
205	0x3db6f14c	0.089327425
206	0x3daef141	0.08542109
207	0x3b72e2ba	0.003706141
208	0xbc0590f1	-0.0081522325
209	0x3df39628	0.118938744
210	0xbdbb852d	-0.09156261
211	0x3d504d97	0.050855245
212	0x3d2bc584	0.041936412
213	0xbe0b8537	-0.13625036
214	0xbe36e4f4	-0.17860776
215	0x3ce7668d	0.028247142
216	0xbd9b4acd	-0.075826265
217	0xbcd34da5	-0.02579386
218	0xbd947f2e	-0.0725082
219	0x3d744d5c	0.05964409
220	0x3c41b160	0.011822075
221	0xbbc68c65	-0.006059217
222	0xbd982bea	-0.07430251
223	0x3d0ced61	0.03440607
224	0xbe38a41b	-0.18031351
225	0x3cee806a	0.029113967
226	0x3dc81611	0.09769834
227	0x3da285a6	0.07935648
228	0x3e768e3a	0.24077693
229	0xbc3b3e4b	-0.011428426
230	0x3e43e3f8	0.19129932
231	0x3c9f9cd4	0.019483961
232	0xbcb2bd7a	-0.021818865
233	0x3e241e16	0.16027102
234	0xbd81cb57	-0.06337612
235	0x3e7b18b1	0.24521138
236	0xbd91429b	-0.07092782
237	0xbd6ad982	-0.057336338
238	0x3e6519de	0.22373149
239	0x3cf2615c	0.02958744
240	0xbca04858	-0.019565746
241	0x3e7910f7	0.24322878
242	0x3d9997e4	0.07499674
243	0x3c0701e5	0.008240198
244	0x3dcaf557	0.09910076
245	0xbd29eed7	-0.04148754
246	0x3c91e94e	0.017811444
247	0xbeb4681d	-0.35235682
248	0xbd72eeb5	-0.05930968
249	0x3e14160b	0.14461534
250	0x3d2aef9c	0.041732416
251	0xbd63a1c8	-0.05557421
252	0x3c0ebcbd	0.008711991
253	0x3e8494e0	0.25894833
254	0x3d88413e	0.06653069
255	0xbd5f0fb0	-0.05445832

network_body._body_endoder.seq_layers.0.bias f4 [128]
0	0x3ca23c92	0.019804273
1	0x3b1f148c	0.0024273722
2	0x3c422f46	0.011852091
3	0x3b907e20	0.0044095665
4	0xbb940d5b	-0.0045181937
5	0x39a74ea6	0.0003191132
6	0xbbc375b3	-0.0059649586
7	0x3b828dcc	0.0039841887
8	0x3cbc7e64	0.023009486
9	0x3b4f9ee5	0.0031680402
10	0x3c672406	0.01410771
11	0xbb8b3c18	-0.004249107
12	0x3ae5be01	0.0017527939
13	0x3c66b91b	0.0140822185
14	0x3c8d9fbb	0.01728808
15	0x3c44d5f2	0.012013899
16	0xba4cd192	-0.0007813211
17	0x3a081042	0.0005190411
18	0x3cad6c00	0.021169662
19	0x3bef4120	0.0073014647
20	0x3a7b26dc	0.00095806806
21	0xba5bad93	-0.00083800516
22	0xbbbbeac0	-0.0057347715
23	0xbbc738cb	-0.0060797683
24	0x3b8aa22b	0.0042307577
25	0x3b071bb0	0.0020615868
26	0x3b9ca060	0.0047798604
27	0x3a23b85b	0.00062454276
28	0x3c42ecd2	0.011897283
29	0x3b00cfe4	0.0019655162
30	0x3b07b8e0	0.002070956
31	0xbc86ba6d	-0.016446317
32	0x3c68b38e	0.014202965
33	0x3b4e3c22	0.0031468947
34	0xbb7de39c	-0.0038740402
35	0x3cbb1d78	0.0228412
36	0xbc0d9c55	-0.0086432295
37	0xbc00b91c	-0.0078566335
38	0xbc3482b4	-0.01101749
39	0x3c20ccb8	0.009814434
40	0x3c8d3a33	0.017239666
41	0x3c5ae15d	0.013359395
42	0x3cde605f	0.027145563
43	0x3c75c4a8	0.0150005
44	0xbceb7fb2	-0.028747413
45	0xba72a3a7	-0.00092559535
46	0x3bf01323	0.0073265
47	0xbbe7b660	-0.0070713013
48	0xb92a4cf4	-0.0001624113
49	0x3b96ba59	0.004599851
50	0xbc0ce578	-0.0085996315
51	0x3cc96bb6	0.024587493
52	0x3a55bd08	0.0008153473
53	0xbbc64c90	-0.0060516074
54	0x3d0ad7c9	0.033897195
55	0xbb22275c	-0.0024742698
56	0x3b75fe39	0.0037535562
57	0x3c72dc66	0.014823055
58	0x3c86251c	0.016375117
59	0x3ae3b650	0.0017373059
60	0xbbae3737	-0.0053166407
61	0x3c608428	0.0137033835
62	0x3bcbc32e	0.0062183356
63	0x3c139c73	0.009009468
64	0x3a850759	0.0010149284
65	0x3ca2f8e7	0.019894077
66	0x3d02bdba	0.03191922
67	0x3d1a1f6f	0.037627634
68	0xbb28626c	-0.002569343
69	0xbb76b060	-0.0037641749
70	0x3c199ac6	0.00937528
71	0x3a445983	0.0007490145
72	0xbb91490d	-0.004433757
73	0x3c699072	0.01425563
74	0x3bdb0368	0.0066837557
75	0x3cc024f8	0.023455128
76	0x3b96713f	0.0045911367
77	0x3cd02153	0.025406515
78	0x3c56184b	0.013067315
79	0x3d13880b	0.036018413
80	0x3c84229f	0.01612979
81	0x3a5dcad2	0.00084607035
82	0x3c4913a7	0.012272752
83	0xbc6f2935	-0.014597227
84	0x3ca73225	0.020409653
85	0xbb88c916	-0.004174362
86	0x3bb498e1	0.0055113886
87	0xbba22e58	-0.0049493723
88	0xbbf3ece4	-0.007444011
89	0x3a00d719	0.00049148645
90	0x3cb540fc	0.022125714
91	0xbc50afe6	-0.01273725
92	0xbab6b944	-0.0013940712
93	0xbca20847	-0.019779338
94	0xb97b8134	-0.00023985357
95	0xbb2ec879	-0.0026669784
96	0x3bf582b9	0.00749239
97	0x3c6f7545	0.014615362
98	0x3cbee532	0.023302648
99	0x3c8e5558	0.01737468
100	0x3c2a9490	0.010411397
101	0x3ba3b681	0.0049961214
102	0xbd12c680	-0.035833836
103	0xbca60e87	-0.020270599
104	0x3cd03833	0.025417423
105	0x3b697b82	0.0035626595
106	0xbac7b34d	-0.0015235931
107	0x3c2b6589	0.01046122
108	0x3c407bf3	0.011748302
109	0x3cb20b33	0.021733856
110	0x3b3aece2	0.002852254
111	0x3c318a84	0.010836247
112	0x3c135d06	0.0089943465
113	0x3a8e4442	0.0010854083
114	0xba342bbe	-0.0006872973
115	0x3c82fdaa	0.015990097
116	0xbbe9be79	-0.007133302
117	0xbc048132	-0.008087443
118	0x3d011998	0.03151855
119	0x3c0ff861	0.0087872455
120	0x3a894f9c	0.0010475996
121	0x3bb3a255	0.005481998
122	0x3b38398b	0.002811047
123	0x3c554eda	0.013019288
124	0x3b9c56a3	0.00477107
125	0x3b895c13	0.0041918843
126	0xbb907346	-0.004408273
127	0x3c818e00	0.015814781

network_body._body_endoder.seq_layers.2.weight f4 [128, 128]
0	0x3da86f5d	0.08224366
1	0x3de02d67	0.1094616
2	0xbd81f169	-0.063448735
3	0xbd12da27	-0.035852578
4	0xbc510203	-0.012756827
5	0xbbb28030	-0.00544741
6	0x3e470cee	0.19438526
7	0x3dcbcfec	0.09951767
8	0x3db0cbb5	0.08632604
9	0xbcdbf78d	-0.02685144
10	0xbb602c80	-0.0034206212
11	0x3e26b246	0.16278943
12	0xbd68f50a	-0.056874312
13	0xbcf66bcb	-0.030080697
14	0x3da692f9	0.081335016
15	0x3dc3cb75	0.09560291
16	0xbd4b7bd3	-0.049678635
17	0xbda6e615	-0.081493534
18	0xbc060379	-0.008179539
19	0x3d741c3e	0.059597246
20	0xbe08a343	-0.1334353
21	0xbd475021	-0.0486604
22	0x3d9378a0	0.07200742
23	0xbd6fade7	-0.058515456
24	0xbd8f98d4	-0.070115715
25	0xbdf209ca	-0.11818273
26	0xbdf73a35	-0.12071649
27	0x3c381e5c	0.011237707
28	0x3abc9df8	0.001439034
29	0x3e0b1a63	0.13584284
30	0xbd0f8c10	-0.035045683
31	0xbbb937b5	-0.0056523927
32	0xb9907ed9	-0.0002756033
33	0xbd39bcb1	-0.045345966
34	0x3dbcc04d	0.09216366
35	0xbdd3aca0	-0.1033566
36	0xbe074314	-0.13209182
37	0x3d05f2cc	0.032702252
38	0x3d226d83	0.03965522
39	0x3b697ca7	0.0035627277
40	0x3c7b3c55	0.0153342085
41	0x3ddfd84e	0.10929929
42	0x3db99c35	0.09062997
43	0xbc825c29	-0.015913086
44	0x3db33f8c	0.08752355
45	0xbccc9f85	-0.024978409
46	0x3e0841ee	0.133064
47	0xbc590170	-0.013244972
48	0x3debd450	0.11515105
49	0x3ddb6092	0.10711779
50	0xbe17e765	-0.14834364
51	0x3c9caa27	0.019124104
52	0xbdb57608	-0.08860403
53	0xbe06ab02	-0.13151172
54	0xbb7fa0d2	-0.0039005768
55	0x3d4df6c5	0.050284166
56	0xbd66b867	-0.056328204
57	0xbc80aafc	-0.015706532
58	0x3dcb9a9e	0.099416
59	0x3e5c5bc9	0.21519388
60	0x3dfbb891	0.122910626
61	0xbda8dda3	-0.08245399
62	0xbccc61ba	-0.024948943
63	0x3ca042d9	0.019563125
64	0x3a0800ff	0.0005188137
65	0x3d3cbc75	0.046078164
66	0xbd0a1b97	-0.033717718
67	0xbe0aa38a	-0.13538948
68	0xbd639efd	-0.055571545
69	0x3db7f8f6	0.089830324
70	0x3ccc3f62	0.024932567
71	0xbdff41e3	-0.12463739
72	0x3e100eb1	0.14068104
73	0xbce85fcf	-0.028365998
74	0x3de2f4e1	0.11081863
75	0xbd0f5bae	-0.034999542
76	0x3d566ecf	0.05235177
77	0xbd957275	-0.072972216
78	0x3dac77e3	0.08421304
79	0xbdbf2f2f	-0.093351714
80	0xbe3606f8	-0.17776096
81	0x3dc1a46f	0.09455191
82	0xbc6082b2	-0.013703035
83	0x3d8303a0	0.06397176
84	0xbe5ca978	-0.21549022
85	0xbe74839c	-0.2387833
86	0xbe0e0ff0	-0.13873267
87	0x3d01744d	0.031605054
88	0xbdde1d22	-0.108454004
89	0xbe650a8c	-0.22367305
90	0x3e42d10f	0.19025062
91	0x3d584a48	0.052805215
92	0xbddfda52	-0.10930313
93	0x3e328b22	0.17435887
94	0xbd7c4c89	-0.061596427
95	0xbdb062c7	-0.0861259
96	0x3e183dab	0.14867274
97	0x3d74231c	0.059603795
98	0x3ce5da8b	0.028058311
99	0x3da74601	0.08167649
100	0xbc01df58	-0.007926784
101	0xbdedd403	-0.11612704
102	0x3c95679d	0.018237883
103	0xbc8c9e5f	-0.017165361
104	0xbd3c7af4	-0.046015695
105	0x3d0a74d8	0.033802837
106	0xbe0bc99d	-0.13651128
107	0x3da1d417	0.07901781
108	0x3d6dd80a	0.05806736
109	0x3cced4ec	0.025248013
110	0x3deabb8e	0.114615545
111	0xbc7ac324	-0.015305314
112	0xbcb5a0b6	-0.02217136
113	0x3c42284a	0.011850426
114	0x3d9bc3af	0.07605683
115	0xbc6a1ee8	-0.014289595
116	0x3d7676f3	0.060172033
117	0x3d7e544c	0.06209211
118	0xbdcae882	-0.099076286
119	0xbd4fb21c	-0.050706968
120	0xbe09cfa2	-0.13458112
121	0x3dce1246	0.10062079
122	0xbd156c77	-0.036480393
123	0xbe0e53c7	-0.13899146
124	0x3ccabf5b	0.024749449
125	0x3e33d523	0.17561774
126	0xbe00856a	-0.12550893
127	0x3cdd0d87	0.02698399
128	0xbe1589e9	-0.1460339
129	0xbda07c02	-0.078361526
130	0xbdc29dfa	-0.09502788
131	0xbcbe0e53	-0.02320019
132	0x3deeca44	0.11659673
133	0xbdb455f4	-0.08805457
134	0x3d9255ac	0.07145247
135	0xbdcbab29	-0.099447556
136	0xbd91fefd	-0.07128713
137	0x3dd51d7a	0.10406013
138	0xbe196e44	-0.14983469
139	0x3da0547f	0.07828616
140	0xbd6155ff	-0.055013653
141	0x3c1f5cfc	0.009726759
142	0xbc4acb74	-0.012377609
143	0x3c0cd726	0.008596217
144	0xbd38f3c8	-0.045154363
145	0xbd8ddd2e	-0.06926952
146	0x3d0049a1	0.031320218
147	0xbd68b6ca	-0.056814946
148	0x3c2fffb7	0.0107421195
149	0xbdc51947	-0.09623962
150	0xbca06877	-0.019581063
151	0xbbefbb51	-0.007316031
152	0xbd564618	-0.05231294
153	0x3dd8792b	0.10569986
154	0xbd71e9b7	-0.05906078
155	0xbd9cfdb8	-0.076655805
156	0x3dfb3342	0.12265636
157	0x3e29ccab	0.16581981
158	0x3caae4c5	0.020861039
159	0x3dc90556	0.09815471
160	0xbdfddd7f	-0.12395763
161	0x3cb5b07f	0.022178886
162	0xbde2d84c	-0.110764116
163	0xbd355bb8	-0.044276923
164	0x3a657cb6	0.000875424
165	0x3cfcb6b8	0.030848846
166	0x3d0f4e31	0.03498668
167	0x3d699e93	0.057035994
168	0xbce30110	-0.027710468
169	0xbdc36866	-0.09541397
170	0xbd9c81a7	-0.07641917
171	0x3d9fdae9	0.07805426
172	0x3d36871b	0.04456244
173	0xbe07bbc5	-0.13255222
174	0xbdee1fd6	-0.11627166
175	0x3d3e6848	0.04648617
176	0x3dd3d11d	0.103426196
177	0xbc926c62	-0.017873947
178	0x3dfb7688	0.122784674
179	0xbe207cac	-0.15672559
180	0x3dbeb1a4	0.09311226
181	0xbdbb26a2	-0.09138228
182	0x3c812844	0.01576627
183	0x3c52f329	0.012875357
184	0x3e1c1c39	0.15245141
185	0x3c66cbbd	0.014086661
186	0xbd80ae17	-0.06283205
187	0x3ddf9d32	0.109186545
188	0xbdc820bd	-0.09771869
189	0x3d5afed8	0.053465694
190	0xbda010b4	-0.07815686
191	0xbddd635a	-0.108099654
192	0x3d71d006	0.059036277
193	0x3d319de2	0.04336346
194	0xbcad6cb5	-0.02117
195	0xbc6187fe	-0.013765333
196	0x3e404733	0.1877716
197	0xbd74b7f7	-0.059745755
198	0xbd45dc6d	-0.048305918
199	0xbbbc79b6	-0.0057518138
200	0xbdf5497a	-0.11976905
201	0x3d936f97	0.071990184
202	0x3dbaf340	0.091284275
203	0xbd33ac32	-0.04386539
204	0x3d4f26b2	0.050574012
205	0xbda87e04	-0.082271606
206	0xbd182c62	-0.0371517
207	0x3d11df24	0.035613194
208	0xbe4278b3	-0.18991356
209	0xbc6c1620	-0.014409572
210	0x3c0a4c5e	0.008441059
211	0x3d06fc9a	0.032955743
212	0xbc588ce1	-0.013217182
213	0x3e62c463	0.22145228
214	0x3d245b01	0.04012585
215	0x3bf46263	0.0074580177
216	0x3d556727	0.052100327
217	0x3d8b5284	0.06802848
218	0x3d9a3493	0.07529559
219	0x3d9468a8	0.07246524
220	0xbd93da0c	-0.072193235
221	0xbdf2fece	-0.118650064
222	0x3db0ba48	0.0862928
223	0x3d5e0348	0.054202348
224	0x3b97e94a	0.0046359645
225	0xbe81175d	-0.25213137
226	0x3e0fc42a	0.14039674
227	0xbdd52848	-0.10408074
228	0xbafea4a0	-0.0019427724
229	0xbe469a7b	-0.19394867
230	0xbdae57db	-0.08512851
231	0x3d5942b4	0.05304213
232	0xbd909136	-0.07058947
233	0x3e1dd434	0.1541298
234	0x3d492e3b	0.049116354
235	0x3d6c20b0	0.05764836
236	0x3db0f58b	0.086405836
237	0xbd9c6825	-0.076370515
238	0x3dee9e80	0.11651325
239	0xbdcdd690	-0.1005069
240	0x3d963edb	0.073362075
241	0xbc8dbe34	-0.01730261
242	0x3d874fa7	0.06606989
243	0x3adc379f	0.0016801244
244	0xbd412c3c	-0.047161326
245	0xbd813977	-0.06309789
246	0x3d764e40	0.06013322
247	0x3e1bf812	0.1523135
248	0xbd0bb601	-0.03410912
249	0xbe5d1b29	-0.21592392
250	0xbe2f2806	-0.17105111
251	0x3db76f62	0.089567915
252	0x3e1a8bf7	0.15092455
253	0x3dcdb51d	0.1004431
254	0xbd2e7d70	-0.042600095
255	0x3df4136e	0.119177684

network_body._body_endoder.seq_layers.2.bias f4 [128]
0	0x3b8ad827	0.004237193
1	0xbb187d0b	-0.002326789
2	0xbc0120b6	-0.007881334
3	0x3a893a04	0.001046956
4	0x3b381f3a	0.0028094784
5	0xbbb1e4d7	-0.005428891
6	0x3baecc4a	0.0053344117
7	0x3c321b59	0.010870778
8	0x3c7f7ce4	0.015593741
9	0x3c891b1e	0.016736563
10	0x3b26cd8a	0.00254521
11	0x3c11db6b	0.008902411
12	0xbc7f4807	-0.0155811375
13	0x3c27f84d	0.010252071
14	0x3c5078e5	0.012724136
15	0x3c9c1d4e	0.019056942
16	0x3b5a6a20	0.0033327416
17	0x3c7cf2fd	0.015438792
18	0x3b332fac	0.0027341647
19	0x3bcd224a	0.006260191
20	0xbc92be1b	-0.017912915
21	0x3b0bc9bc	0.002132996
22	0xbc4acd8b	-0.012378107
23	0x3b67e13d	0.0035382055
24	0xbaf54c10	-0.0018714685
25	0x3b66f240	0.0035239607
26	0x3c3e96c8	0.011632629
27	0x3c7d893d	0.015474615
28	0xbc297e04	-0.010344986
29	0x3b8d2192	0.0043069804
30	0xbb9eb10a	-0.004842882
31	0x3b8bbf91	0.00426478
32	0x3bc1d32e	0.005915067
33	0xbb0e50c9	-0.0021715632
34	0x3b5a6fd2	0.003333081
35	0x3c03f88a	0.008054862
36	0xba85e322	-0.0010214786
37	0x3c7c47b6	0.015397957
38	0x3c83028c	0.015992425
39	0x3c2ce0d9	0.010551655
40	0x3bb77663	0.0055988296
41	0xbb1270c3	-0.0022345043
42	0x3c8c1d7a	0.0171039
43	0x3cf6e57f	0.03013873
44	0x3c3a2807	0.011362082
45	0x3b8d58b6	0.0043135537
46	0xbcee94fb	-0.029123774
47	0x3bdaa2d1	0.0066722413
48	0x3c4f98c9	0.012670704
49	0xbabb5ce3	-0.001429465
50	0x3b816f5d	0.003950043
51	0x3b60a27b	0.0034276533
52	0x3c6e18ea	0.014532307
53	0x3bc33b0b	0.005957966
54	0x3bbcbe81	0.0057600145
55	0x3b3d65bc	0.002889975
56	0x3c8422f8	0.016129956
57	0x3b537f3f	0.003227189
58	0x3ba2a9c8	0.004964087
59	0x3cd8c89c	0.026462846
60	0x3c3f93f6	0.0116929915
61	0x3bcfef71	0.0063456823
62	0x3b1365f7	0.0022491196
63	0x3ae1b503	0.0017220083
64	0x393884a5	0.00017597021
65	0xbb90b807	-0.004416469
66	0x3a5e8915	0.0008489055
67	0xbba6458a	-0.0050742077
68	0xbc09bd3b	-0.0084069325
69	0xbc192bf2	-0.009348856
70	0x3cb8cc0d	0.022558236
71	0xba90dc15	-0.0011051918
72	0x3cf6170a	0.030040283
73	0x3bbaf4f1	0.005705469
74	0x3b8c3bf6	0.004279609
75	0x3b1abb8b	0.002361032
76	0x3b714f99	0.0036821126
77	0x3c900c0e	0.017583873
78	0x3c1a6ede	0.009425847
79	0x3c600b18	0.01367452
80	0xbc03de3a	-0.008048588
81	0x3bb7b1e1	0.0056059216
82	0x3c424340	0.011856854
83	0x3ad28cc7	0.0016063683
84	0xbb81cf51	-0.0039614816
85	0x3c7d02e4	0.015442584
86	0x3b999f7e	0.0046882024
87	0x3c29b7c2	0.010358753
88	0x3c3af4b3	0.01141088
89	0xbaaf5592	-0.0013376942
90	0x3c565abd	0.013083157
91	0x3abac7d7	0.0014250231
92	0x3bd999e3	0.006640659
93	0x3c6bb138	0.014385514
94	0x3c2a80fe	0.010406731
95	0x3a6d7fd8	0.0009059883
96	0x3bb822a6	0.005619365
97	0x3c41dc68	0.011832334
98	0x3c8b2c9c	0.016989045
99	0x3c113c4f	0.008864476
100	0xbc11f326	-0.008908069
101	0x3c312450	0.01081188
102	0xbb540ce9	-0.0032356328
103	0x3ca55286	0.020180952
104	0x3cdb2388	0.026750341
105	0x38d438ef	0.000101195525
106	0xbc1aba94	-0.009443898
107	0x3b0f6e74	0.0021885904
108	0x3b7663c8	0.0037596095
109	0x3aac746d	0.0013157256
110	0xb9279e12	-0.00015985247
111	0x3b3230bd	0.0027189695
112	0x3c355127	0.0110667115
113	0x3b51ea4f	0.0032030528
114	0x3c423a55	0.011854728
115	0x3c203b53	0.009779769
116	0x3bd83ab7	0.006598796
117	0x3cb27ae3	0.021787113
118	0xbad39653	-0.0016142823
119	0xbb440287	-0.0029908733
120	0x3b0a4e69	0.0021103865
121	0xbbd65c61	-0.006541774
122	0x3c04eef0	0.008113608
123	0x3bf8cb9f	0.007592633
124	0x3bc0268c	0.00586397
125	0x3b460e71	0.003022101
126	0x3c1939d5	0.009352167
127	0xbb7651c7	-0.0037585364

action_model._discrete_distribution.branches.0.weight f4 [3, 128]
0	0xbc07eb90	-0.008295909
1	0x3cbf35a3	0.023341006
2	0x3c0b521c	0.008503463
3	0x3b90d373	0.004419738
4	0xbbe7b1ce	-0.0070707565
5	0x3c6d9288	0.014500268
6	0x3bac0177	0.005249198
7	0xbab7c56d	-0.001402063
8	0xbcfb6471	-0.030687543
9	0xbc878899	-0.016544627
10	0xbcee6b8f	-0.029104022
11	0x3ca789e4	0.020451494
12	0x3c355a61	0.011068911
13	0xbae9b1ef	-0.0017829518
14	0xbc3ac084	-0.011398438
15	0xbcac7c2b	-0.021055302
16	0x3bf9c5ce	0.007622457
17	0xbca7d6c7	-0.020488156
18	0xbc0d34ec	-0.008618575
19	0xbbfa5f0c	-0.007640725
20	0x3c462980	0.012094855
21	0xbbc1e1e0	-0.005916819
22	0x3c2f9011	0.0107155
23	0x3b855343	0.0040687635
24	0xb9c5e518	-0.00037745456
25	0x3c91e46e	0.01780912
26	0x3bd5679a	0.0065125944
27	0xbc3a8c72	-0.011386024
28	0x3c37c55c	0.011216488
29	0x3c3abe48	0.011397906
30	0x3bc1fda6	0.00592013
31	0x3a5faece	0.0008532823
32	0xbc8612af	-0.01636633
33	0x3c324e49	0.010882922
34	0xb8ba75a3	-8.891083e-05
35	0xbc92d6c1	-0.017924668
36	0x3adc4d9d	0.0016807799
37	0x3ab3abbc	0.0013707797
38	0x3c7e3843	0.0155163435
39	0xbc44e68d	-0.012017858
40	0xbbbc83db	-0.005753023
41	0x3b5bf608	0.0033563394
42	0x3c02c457	0.007981381
43	0xbc3d6415	-0.011559506
44	0xb884e111	-6.3361724e-05
45	0xbc1c3ae7	-0.009535528
46	0x3b074263	0.0020638935
47	0xbcb3a90c	-0.021931194
48	0x3ad4275c	0.0016186046
49	0x3c37080c	0.011171352
50	0xbc2c3da8	-0.010512747
51	0x3bae270e	0.0053147143
52	0xbbc80ea0	-0.006105259
53	0xbc37818d	-0.011200321
54	0xbbcbd0c4	-0.006219955
55	0xbc275001	-0.0102119455
56	0x3c3f9a3f	0.01169449
57	0xba7a1819	-0.0009540334
58	0x3a5e3c33	0.00084775983
59	0xbc4aeb6c	-0.0123852305
60	0xbc30149b	-0.0107471
61	0xbc02ccd2	-0.007983403
62	0x3a918a9b	0.001110393
63	0xbbcf60d2	-0.0063286806
64	0x3c39e7e8	0.011346795
65	0x3c812901	0.015766622
66	0xbb938b55	-0.0045026937
67	0x3c3e8308	0.01162792
68	0x3bce836f	0.006302289
69	0xbbac285c	-0.0052538346
70	0xbc2a14f0	-0.010380968
71	0x3c96b139	0.018395053
72	0xbc4022a2	-0.011727007
73	0x38d6a2c1	0.000102346305
74	0x3b7aff27	0.0038299055
75	0x3c0ff9e4	0.008787606
76	0x3b2f7f7f	0.0026778874
77	0xbc875d33	-0.016523933
78	0x3b3c222e	0.0028706896
79	0x3c067157	0.008205733
80	0x3c857198	0.016289517
81	0xbbc7f5c3	-0.006102295
82	0x3c1f64dd	0.0097286375
83	0xba8e29b5	-0.001084617
84	0x3bfcccef	0.0077148597
85	0xbbafe7bd	-0.0053682015
86	0xba260a29	-0.00063339114
87	0x38243308	3.9148174e-05
88	0xbc09e95c	-0.008417454
89	0xbae39736	-0.001736379
90	0x3c556319	0.013024115
91	0xbbd13088	-0.006383959
92	0xbbe2f732	-0.0069264406
93	0xbb058aa7	-0.0020376833
94	0xbcaf2321	-0.021379055
95	0x3b8d0feb	0.004304876
96	0xbc1e4356	-0.009659609
97	0xbca6eb73	-0.020375943
98	0xbc6ec140	-0.014572442
99	0x3b9f54a8	0.0048623867
100	0x3befddfd	0.0073201642
101	0xbc5b9ebc	-0.013404544
102	0x394379c7	0.00018642015
103	0xbcdb23e8	-0.02675052
104	0xbc77bcd0	-0.0151207
105	0x3c927bb6	0.017881256
106	0x3b321413	0.002717261
107	0xbb1dd41a	-0.0024082721
108	0xbada79a3	-0.0016668331
109	0xbb28f1c8	-0.0025778878
110	0x3c7ddeb6	0.015494993
111	0xba08f02e	-0.0005223778
112	0xbbcb1b61	-0.006198332
113	0x3c792a1f	0.015207796
114	0xbb3767b2	-0.0027985391
115	0xbc2b6c4f	-0.0104628345
116	0x3c9dc70e	0.019259956
117	0xbc41fb14	-0.011839647
118	0x3c5b6228	0.0133901015
119	0xbb0ffb60	-0.00219699
120	0x3c4e6062	0.012596222
121	0xbb480e09	-0.0030525944
122	0x3c470af4	0.0121486075
123	0x3aec489d	0.0018027012
124	0xbb144aa0	-0.0022627488
125	0x3cb1945d	0.02167719
126	0xbc26f16a	-0.010189394
127	0x3ae1d42a	0.0017229368
128	0x3c14e947	0.009088821
129	0xbbf76845	-0.0075502717
130	0x3a93f7eb	0.0011289095
131	0xbba2544c	-0.0049538966
132	0x3cdb260b	0.026751539
133	0xbc93bd8a	-0.018034715
134	0x3c9ed6fb	0.01938962
135	0x3addfba8	0.0016935961
136	0x3d1641cc	0.036683843
137	0x3cac7184	0.021050222
138	0x3ad836d5	0.0016495833
139	0xbc946109	-0.018112676
140	0xbb73c3e0	-0.0037195608
141	0xbc3907e8	-0.011293389
142	0x3c49056a	0.012269357
143	0x3c016767	0.007898188
144	0xbbebc1e8	-0.0071947463
145	0x3c9bbc00	0.019010544
146	0x3b992d21	0.0046745692
147	0x3c26e455	0.010186275
148	0xbc387ff5	-0.011260976
149	0x3b24e3b7	0.0025160143
150	0x3b3d403d	0.00288774
151	0xbc27e9c1	-0.010248602
152	0xbbd56cbb	-0.006513206
153	0xbcade255	-0.021226088
154	0xbc57ebf0	-0.0131788105
155	0x3ce43980	0.02785945
156	0xbc5c88d3	-0.013460356
157	0xbb9f9a6d	-0.004870704
158	0xbc08f98a	-0.008360276
159	0xbc9e80be	-0.019348498
160	0x3cb759ce	0.02238169
161	0xbba2b0f2	-0.004964941
162	0xbcbcb053	-0.023033297
163	0xbbec4bf6	-0.0072112037
164	0xbc93b07b	-0.018028488
165	0x3bb29cb3	0.005450809
166	0x3b9f26f6	0.0048569394
167	0x3c937115	0.017998258
168	0x3c627f80	0.013824344
169	0xbb62cb5a	-0.003460607
170	0xbd06888b	-0.03284506
171	0x3b552c40	0.0032527596
172	0xbd0c1b4f	-0.03420573
173	0x3b6869d8	0.0035463478
174	0xbc465fcc	-0.012107801
175	0xbbf7dd87	-0.00756425
176	0x3c95906c	0.018257342
177	0xbca53a10	-0.020169288
178	0x3b1c8f56	0.0023889146
179	0xbc4bff13	-0.012450951
180	0xbbd1d83f	-0.0064039524
181	0xbbc8e242	-0.0061304877
182	0xbc9b7b1e	-0.018979605
183	0x3bf74ead	0.0075472207
184	0xbbdaf7c0	-0.006682366
185	0xbc044485	-0.008072977
186	0x3bb97287	0.0056594047
187	0xbb41d087	-0.0029573755
188	0x3b98e922	0.0046664635
189	0x3b7c0f86	0.00384614
190	0x3b9de42a	0.004818459
191	0x3c8d363d	0.017237777
192	0xbc36b5b6	-0.011151722
193	0xbb8e7422	-0.00434734
194	0x3c44a1a9	0.012001433
195	0xbb8f7b7b	-0.0043787337
196	0x3bb93a20	0.005652681
197	0x3bbdbad6	0.005790095
198	0xba5e1c93	-0.0008472886
199	0xbbf252bc	-0.0073951166
200	0x3c417222	0.011806997
201	0xbcd86a0c	-0.026417755
202	0x3b313a7c	0.0027042916
203	0xbbf7ba20	-0.0075600296
204	0xba93e8c8	-0.0011284584
205	0x3d03f291	0.03221375
206	0x3c1702fc	0.00921702
207	0xbac7dce9	-0.0015248331
208	0xbbdf1d7b	-0.0068089343
209	0xbc305d51	-0.010764436
210	0xbbc49934	-0.0059997085
211	0x3b80ab0c	0.0039266404
212	0xbc4cbff2	-0.012496935
213	0x3c112efd	0.008861301
214	0x3b9f4598	0.004860591
215	0xbccff882	-0.025387052
216	0x3c5d848a	0.013520369
217	0x3b4c03ec	0.0031130267
218	0xbd170a90	-0.036875308
219	0xbc718444	-0.014741007
220	0x3d07ced5	0.033156235
221	0xbbb6e1a0	-0.005581096
222	0x3d32a0d7	0.04361042
223	0xbc8adfd2	-0.016952429
224	0x39a9c353	0.0003237972
225	0x3c40a316	0.011757633
226	0x3bdeae45	0.006795677
227	0xbbef05ab	-0.007294377
228	0x3c2fe0de	0.010734765
229	0x3bc6dd47	0.006068859
230	0xbc461ddc	-0.01209208
231	0x3a5ce933	0.00084270834
232	0x3c2652b6	0.010151556
233	0xbad1b354	-0.0015998879
234	0xbb43b310	-0.0029861368
235	0x3c4bad34	0.012431432
236	0xbc2d71cf	-0.010586216
237	0x3bb02f89	0.0053767604
238	0xbc5b7212	-0.013393896
239	0xbbd28f6c	-0.0064257886
240	0xbcdba854	-0.026813664
241	0x3c2fa29f	0.010719924
242	0xbb57dbaf	-0.0032937338
243	0xb98ef6be	-0.00027268188
244	0x3c2fb8df	0.010725229
245	0x3c931afa	0.0179572
246	0xbc9c4d43	-0.01907981
247	0xbc17fe04	-0.009276871
248	0xbc3f2a17	-0.01166775
249	0xbc1a0c7d	-0.0094023915
250	0xbc477eb6	-0.012176206
251	0xbc58314d	-0.013195348
252	0x3c50b8cc	0.0127393715
253	0xbba69bb3	-0.0050844788
254	0x3c0b824f	0.008514955
255	0xbcb4fab5	-0.022092203

action_model._discrete_distribution.branches.0.bias f4 [3]
0	0xbbbe22c9	-0.0058024866
1	0x3c2bce59	0.010486209
2	0xbbc00296	-0.0058596833

action_model._discrete_distribution.branches.1.weight f4 [3, 128]
0	0xbc42909b	-0.011875297
1	0xbb3fac00	-0.0029246807
2	0xba9ba76a	-0.0011875455
3	0xbbafe78d	-0.005368179
4	0xbba94d05	-0.005166652
5	0xbb140550	-0.0022586174
6	0xbc21438c	-0.009842765
7	0x3bf6a320	0.0075267702
8	0xbc536f45	-0.012904947
9	0xbba7aca1	-0.0051170145
10	0x3b1e2171	0.002412882
11	0x3bf68d91	0.0075242002
12	0xbbb82565	-0.005619692
13	0xbc5e1b17	-0.013556263
14	0xbc16e1e5	-0.009209131
15	0xbb4e60e1	-0.003149085
16	0xbbc58a71	-0.0060284664
17	0xbc7f4aca	-0.015581796
18	0x3b4a4163	0.0030861727
19	0x3b09a8f6	0.002100525
20	0x3c554586	0.013017064
21	0x3c82fec0	0.015990615
22	0xbbb33afd	-0.0054696784
23	0x3bc72adf	0.0060781087
24	0xbc18dd97	-0.009330175
25	0x3ad922ea	0.0016566191
26	0xbb8df243	-0.0043318584
27	0xbbceccd4	-0.0063110385
28	0xba367e84	-0.00069616013
29	0xbc527f8e	-0.012847794
30	0xbbce5b48	-0.0062975027
31	0x3c91674a	0.017749447
32	0x37d4f017	2.538417e-05
33	0xba51ed1b	-0.0008008049
34	0xbbe8b705	-0.0071018958
35	0xbbc52d60	-0.006017372
36	0x3c29537d	0.010334847
37	0xbab9b23b	-0.0014167497
38	0xbbbcee49	-0.0057657105
39	0xbae34a64	-0.0017340896
40	0xba8941cf	-0.0010471883
41	0x3b86b11a	0.0041104676
42	0x3c93661d	0.017993027
43	0x3c27afa2	0.010234745
44	0x3bc75e80	0.0060842633
45	0x3c1ceb6b	0.009577612
46	0xbb97929a	-0.0046256306
47	0x3cc6e1df	0.024277626
48	0x3bd13ab5	0.0063851723
49	0x3b54650a	0.0032408857
50	0xbc111290	-0.008854523
51	0x3bee9150	0.007280506
52	0xbc464950	-0.01210244
53	0xbbeef942	-0.0072928974
54	0x3ba31f2a	0.0049780803
55	0xba1ab59f	-0.00059016974
56	0x3ba50992	0.0050365413
57	0xbc6e5dd7	-0.01454874
58	0xbc36e572	-0.011163102
59	0x3b606e72	0.0034245518
60	0xbc843fb5	-0.01614366
61	0x3c05dff5	0.008171071
62	0x3bbde9ab	0.0057956777
63	0x3c3c3e0b	0.011489402
64	0x3c7d7d97	0.0154718375
65	0x3b6074ad	0.0034249232
66	0xbbc97fc0	-0.006149262
67	0xbc80723b	-0.01567947
68	0xba76be9e	-0.00094125594
69	0x3ba849b4	0.005135739
70	0xbc477b4e	-0.012175394
71	0x3ad19f30	0.0015992876
72	0xbcbc025a	-0.02295034
73	0x3c4ca7ef	0.01249121
74	0x3c7704c1	0.015076817
75	0xbc4702cf	-0.012146666
76	0xbbd6cc91	-0.006555148
77	0xba3454f0	-0.0006879112
78	0x3b741979	0.0037246628
79	0x3b7a011c	0.0038147634
80	0xbc1648e6	-0.009172654
81	0xbc19ebef	-0.00939463
82	0xbb326063	-0.0027218095
83	0xbb61a1e2	-0.0034428765
84	0xbc800edd	-0.015632087
85	0xbc74d637	-0.014943651
86	0xbc0af293	-0.008480686
87	0x3b87fd1d	0.0041500465
88	0xbbfc71a0	-0.007703975
89	0x3c247923	0.010038647
90	0x3c5a92e4	0.0133406855
91	0x3a59c10e	0.00083066605
92	0xbc4a3c4d	-0.012343478
93	0xbc86f008	-0.016471878
94	0x3b8188d7	0.00395308
95	0x3c8bf0cb	0.017082592
96	0xbc783e2d	-0.015151543
97	0x3ba5b066	0.0050564287
98	0x3abb80de	0.0014305373
99	0x3ad878be	0.0016515476
100	0x3acdb41a	0.0015693933
101	0x3a9cb4b8	0.0011955714
102	0x3bfd1ad2	0.0077241445
103	0x3b499566	0.0030759214
104	0xbbaba7da	-0.0052385153
105	0xb920be8d	-0.00015329775
106	0x3c82775d	0.015926057
107	0x39ba7ae3	0.00035568242
108	0xbb82218a	-0.0039712833
109	0x3bd08715	0.0063637593
110	0x3cb1e549	0.021715777
111	0xbc0a5838	-0.008443885
112	0x3ba50dd9	0.005037051
113	0x3b9c413b	0.0047685183
114	0xb8e46626	-0.00010890914
115	0xbadfd25f	-0.0017076245
116	0xbaee97df	-0.001820322
117	0x3ae5f6df	0.0017544887
118	0x3c8b2e43	0.016989833
119	0x3c09193a	0.008367831
120	0x3bbf104c	0.0058308
121	0xbc36e333	-0.011162567
122	0xbae43815	-0.0017411733
123	0x3b676206	0.003530623
124	0xbbe87f01	-0.007095218
125	0xbb8bb7be	-0.004263847
126	0xbb7d81d4	-0.003868212
127	0xbc0eeba7	-0.008723176
128	0x3c77bb74	0.015120376
129	0xbb6b50fd	-0.0035906427
130	0xbc38de0e	-0.011283411
131	0xbc61ca19	-0.013781094
132	0x3c2e8a60	0.010653108
133	0x3cff4625	0.031161377
134	0x3b24b129	0.002513001
135	0x3c57b5b3	0.013165879
136	0xbc713644	-0.014722411
137	0x3ccf4ad0	0.025304228
138	0x3c11accc	0.008891296
139	0xbc84fdc0	-0.016234279
140	0xbbbcc11c	-0.005760325
141	0x3ca856ed	0.020549262
142	0x3c6c203d	0.014411983
143	0x3c56839d	0.0130929025
144	0x3caec4b7	0.021334035
145	0xbcbb16b2	-0.02283797
146	0xbcaddb6c	-0.021222793
147	0xbc97a3d8	-0.018510744
148	0x3b7ff469	0.0039055592
149	0xbb122eae	-0.0022305655
150	0xbc3e73e6	-0.011624312
151	0xbc739e33	-0.014869261
152	0x3c544f69	0.012958386
153	0xbc844c8f	-0.016149787
154	0x3d122404	0.03567888
155	0x3ca2fa96	0.01989488
156	0xbb857305	-0.0040725493
157	0xbc857486	-0.016290914
158	0xbc8119e3	-0.015759414
159	0x3c2a36a2	0.010389002
160	0xbc005e71	-0.007835017
161	0xbc8b2db2	-0.016989563
162	0x3cda5a61	0.026654424
163	0x3ca7a747	0.020465506
164	0xbbe0b02b	-0.0068569384
165	0x3d17ea95	0.03708895
166	0x3c34a57d	0.011025784
167	0xbce0c363	-0.027436918
168	0xbc856ad0	-0.016286284
169	0xbba2b9b9	-0.0049659875
170	0x3c10231c	0.008797433
171	0x3cc7deb5	0.024398187
172	0x3bef7924	0.0073081423
173	0xbc9a7502	-0.018854622
174	0x39879a63	0.00025864234
175	0x3d11ba62	0.03557814
176	0x3be2d7a3	0.0069226786
177	0x3bae1049	0.005312
178	0x3cdfb649	0.0273086
179	0xbc4d7d0e	-0.012542022
180	0x3b22c7e7	0.002483839
181	0x3cb77547	0.02239479
182	0x3cd06b33	0.025441742
183	0x3b431c06	0.0029771342
184	0x3c763c02	0.015028955
185	0xbcdcad0f	-0.02693799
186	0x3c9cc41c	0.019136481
187	0x3ce28345	0.027650485
188	0x3b9e7817	0.004836093
189	0xbd197991	-0.03746945
190	0x3ca72056	0.020401161
191	0xbc388fbc	-0.011264738
192	0xbc6eb395	-0.014569183
193	0xbc96ae88	-0.01839377
194	0xbbe0e3c0	-0.0068630874
195	0x3cba6edd	0.022757942
196	0xbc8af7ee	-0.016963925
197	0xbc144d1b	-0.0090515865
198	0x3c50ba14	0.012739677
199	0xbc5e32af	-0.013561889
200	0xbc223cb9	-0.009902173
201	0x3ae84465	0.0017720578
202	0x3d146b08	0.036234885
203	0x3d115fda	0.0354918
204	0xbc81e985	-0.015858421
205	0x3c39fe4d	0.011352134
206	0xbc88ae9a	-0.016684819
207	0x3c176a2d	0.009241623
208	0x3beac13e	0.0071641495
209	0x3c3d33ef	0.011548026
210	0x3b15b531	0.0022843594
211	0xbce312f8	-0.027719006
212	0x3ca1b732	0.019740675
213	0x3d16b9e9	0.03679839
214	0xbcb3fa02	-0.021969799
215	0x3bf4d655	0.0074718394
216	0x3c5a5a55	0.013327201
217	0xbc359943	-0.011083904
218	0x3c02613e	0.007957755
219	0x3bdb95aa	0.006701191
220	0xba7bf592	-0.0009611483
221	0x3ccd209c	0.025039963
222	0xbb3f57b7	-0.002919657
223	0xbc8b1b6d	-0.016980851
224	0x3d0cca50	0.034372628
225	0x3c97d826	0.018535685
226	0x3c3dc009	0.011581429
227	0x3d0b3c16	0.03399285
228	0xbc3ef6d3	-0.011655527
229	0x3d322841	0.04349542
230	0xbbd9f20c	-0.0066511687
231	0x3d145e90	0.036222994
232	0x3c81f327	0.015863014
233	0xbc04f82e	-0.008115811
234	0x3ad62553	0.0016338028
235	0xbc6f5707	-0.014608151
236	0xbce24d80	-0.027624846
237	0xbc2dd558	-0.010609947
238	0x3c4aeb54	0.012385208
239	0x3c81c942	0.015843038
240	0x3c14a60f	0.009072795
241	0xbbe64079	-0.0070267287
242	0x3c599356	0.0132797565
243	0x3c57c120	0.013168603
244	0xbc68c81d	-0.014207867
245	0x3c841648	0.016123906
246	0xbbf1c4b1	-0.007378184
247	0xbc53507d	-0.012897608
248	0x3cf4d239	0.029885398
249	0x3c029800	0.00797081
250	0x3d189eac	0.037260696
251	0x3c65f2f4	0.014034975
252	0xbc8cf800	-0.0172081
253	0xbcd61f9d	-0.026138121
254	0x3b1f0e3b	0.0024269957
255	0x3bb445f3	0.0055015027

action_model._discrete_distribution.branches.1.bias f4 [3]
0	0x3b8541c7	0.004066679
1	0xbc1137a1	-0.008863361
2	0x3bd310ad	0.006441197

action_model._discrete_distribution.branches.2.weight f4 [2, 128]
0	0xbc10b453	-0.008832055
1	0xbb4f17a9	-0.0031599796
2	0x3c8f5d49	0.017500537
3	0xbc3efb49	-0.011656591
4	0xb8979deb	-7.2296556e-05
5	0xbb3b1727	-0.0028547735
6	0xbb7bcd79	-0.0038422032
7	0xba47299a	-0.00075974467
8	0xbb184d6d	-0.0023239509
9	0xbc54bc6a	-0.012984375
10	0x3c928994	0.017887868
11	0xbc5ddf0d	-0.013541949
12	0x3c397935	0.011320402
13	0xbacb3c66	-0.0015505671
14	0x3ca018b5	0.019543031
15	0xbc61acbe	-0.013774095
16	0x3bed0b93	0.007234046
17	0xbbd639b4	-0.0065376405
18	0xbb8af377	-0.004240449
19	0xbc384815	-0.011247654
20	0xbbaf4182	-0.0053483853
21	0x3b2eb055	0.0026655395
22	0x3bf02e37	0.007329728
23	0x3a3efb2b	0.0007285352
24	0x3c111a2e	0.008856339
25	0xbbf228f6	-0.007390137
26	0x3c25043c	0.01007181
27	0x3bf612f1	0.007509582
28	0x3c0a825e	0.0084539335
29	0x3ac2e2fd	0.0014868673
30	0xbb2e002a	-0.002655039
31	0xbc1e3585	-0.009656315
32	0xbbc0bd08	-0.0058819093
33	0xbc034d87	-0.008014089
34	0x3baee91a	0.0053378465
35	0xbc366f8c	-0.011134993
36	0x3c5d6987	0.013513929
37	0x3c64a099	0.013954305
38	0xbc62bdee	-0.013839228
39	0xbb83d643	-0.0040233447
40	0xbb3596f1	-0.0027708376
41	0xbc09fa61	-0.008421511
42	0x3c2ccc2c	0.010546725
43	0xb954bdb3	-0.00020288564
44	0x3ba23fc3	0.0049514486
45	0x3c0872c6	0.008328145
46	0xbb531260	-0.0032206997
47	0x3c43fed3	0.01196261
48	0x3c67ab8d	0.014140022
49	0xbc71057d	-0.014710781
50	0xbc491945	-0.012274091
51	0xbc70a331	-0.014687345
52	0x3a45ccd8	0.0007545478
53	0xbc2d9129	-0.010593691
54	0xbb935c56	-0.0044970913
55	0xbb7c4fa9	-0.003849963
56	0xbc91538c	-0.017740034
57	0x3ba26e94	0.0049570296
58	0x3b01bb5f	0.001979552
59	0xbb8ada82	-0.004237474
60	0x3c3efe88	0.011657365
61	0xba2c53a7	-0.00065737445
62	0xbba72dd4	-0.0051018987
63	0xbc08bf51	-0.008346395
64	0xbc1dcc1c	-0.009631183
65	0x3b348c75	0.002754954
66	0xbbc26ea6	-0.0059336005
67	0xbb0b7943	-0.0021281994
68	0xbc41c295	-0.011826177
69	0x3bdf74bc	0.0068193357
70	0xbbb740d4	-0.005592445
71	0xbbb7570e	-0.0055950945
72	0xbbc26a2e	-0.0059330678
73	0x3c8ef5d5	0.017451206
74	0x3b7370c6	0.0037146076
75	0x3cb1ee62	0.021720115
76	0xbc147f5f	-0.009063571
77	0x3b609786	0.0034270003
78	0xbaad2fba	-0.0013213076
79	0xbc62f8a5	-0.013853227
80	0xbbe29d5a	-0.0069157304
81	0x3b27a6bf	0.0025581566
82	0xbc993bdb	-0.0187053
83	0x3ae3d35b	0.0017381714
84	0xbbbeb62b	-0.005820056
85	0x3c35ba42	0.011091771
86	0x3afccde7	0.0019287438
87	0x3b83fede	0.0040281853
88	0x3aa5f5f3	0.00126618
89	0xbc3797f0	-0.011205658
90	0xbbfd5577	-0.0077311355
91	0xbbfc54b6	-0.007700528
92	0xbac67842	-0.0015142041
93	0x3abe2a25	0.001450841
94	0xbb57f353	-0.003295143
95	0xbcc9b96a	-0.024624545
96	0x3bd2da38	0.006434705
97	0xba89a286	-0.0010500706
98	0xbc49e717	-0.0123231625
99	0x3bed6dec	0.0072457697
100	0x3c723f0f	0.014785542
101	0xbc597464	-0.013272379
102	0x3b0eeb38	0.0021807682
103	0xbb74c0e0	-0.0037346408
104	0xbaf9cfcf	-0.0019059124
105	0x3b8cc71d	0.004296197
106	0x3bf36af1	0.00742852
107	0x3c8b00c1	0.016968133
108	0xbbf490d6	-0.007463555
109	0xba62adf2	-0.00086471357
110	0xbc6c6922	-0.0144293625
111	0xb9ab5fc5	-0.00032687015
112	0x3cb45ca6	0.022016834
113	0xbbb0a677	-0.005390938
114	0xbc175f18	-0.009238981
115	0xbc887ba6	-0.016660523
116	0x3c0d7eb5	0.008636166
117	0xbc27700e	-0.010219587
118	0x3bbacee8	0.0057009347
119	0x3bc0fadc	0.00588928
120	0x3b8eba90	0.004355736
121	0x3b8dd34a	0.004328166
122	0x3c4c1467	0.012456036
123	0xbc3c3c9f	-0.011489063
124	0xbc157752	-0.009122686
125	0x3af761fd	0.0018873807
126	0xbb04fd08	-0.002029242
127	0x3c6f725e	0.01461467
128	0x3b7c2712	0.0038475436
129	0xbc6c1da5	-0.014411365
130	0x3c0f993b	0.00876456
131	0xbbcdc35f	-0.0062793936
132	0x3c42a45a	0.011880005
133	0xbc01f402	-0.007931711
134	0x3b35fcb8	0.002776904
135	0xb9f6b78b	-0.00047057527
136	0xbb96ee47	-0.0046060416
137	0x3c29b9d6	0.010359248
138	0xbbdb6229	-0.006695051
139	0x3c3a293f	0.011362373
140	0xbc95ebd6	-0.018300932
141	0xbb6c434e	-0.003605086
142	0x3c87ac1e	0.016561564
143	0xbc70ce40	-0.014697611
144	0xba479ba6	-0.0007614441
145	0x3b84570e	0.004038698
146	0x3c36f9ab	0.011167924
147	0x3c25562d	0.010091347
148	0xb901e486	-0.0001238753
149	0xbc08ddbe	-0.008353649
150	0x3b9e1a79	0.004824933
151	0x3caf84cd	0.021425629
152	0x3a99402e	0.0011692101
153	0xbc2ba2d6	-0.010475835
154	0xbc325429	-0.010884323
155	0xbcc00b43	-0.02344287
156	0x3bc50480	0.0060124993
157	0x3c408ad3	0.011751848
158	0xbab76d18	-0.0013994304
159	0xbc6f782c	-0.014616054
160	0x3c0e3e61	0.0086818645
161	0xba71ceac	-0.0009224217
162	0x3bbcde3f	0.0057637985
163	0x3c0a7a84	0.008452062
164	0x3c2d0a1b	0.010561491
165	0xbca4df06	-0.020125877
166	0x3b075b9c	0.0020653969
167	0x3c80c93b	0.015720954
168	0xbb48e931	-0.003065657
169	0xba978f5f	-0.0011563114
170	0xbca05704	-0.019572742
171	0xbab0c67b	-0.0013486886
172	0xbc028e33	-0.007968473
173	0x3c23147f	0.009953617
174	0x3b87fa21	0.0041496907
175	0xbc48318a	-0.012218842
176	0xbc816b2f	-0.01579818
177	0x3c116011	0.008873002
178	0xbb96e9e5	-0.004605519
179	0x3c05502d	0.008136791
180	0xbbc9aad6	-0.0061543984
181	0xbc9dae31	-0.0192481
182	0xb90194fa	-0.00012357897
183	0x3b67ac61	0.0035350549
184	0x3af5e722	0.00187609
185	0xbbd4ac9b	-0.0064903027
186	0xbc329414	-0.010899562
187	0x3c2b22d5	0.010445316
188	0x3c727114	0.014797468
189	0xbb809cfe	-0.003924965
190	0x3bec6733	0.0072144507
191	0x3b00b8fc	0.001964151
192	0xbc588a95	-0.013216634
193	0xbc02d250	-0.007984713
194	0xbaf1005a	-0.0018386946
195	0xbb78eb65	-0.0037982103
196	0xbc394c83	-0.011309746
197	0x3b4307e5	0.0029759344
198	0xbbfdd5c9	-0.0077464324
199	0x3a01f545	0.00049575075
200	0xbb7cda08	-0.0038582105
201	0xbc762502	-0.015023472
202	0xbc0c70e3	-0.008571836
203	0xbba2c03d	-0.0049667642
204	0xbacc4707	-0.0015585133
205	0xbc3e02b1	-0.011597321
206	0x3c3b50c9	0.011432835
207	0xbb47e446	-0.0030501052
208	0x3c10d3b6	0.008839538
209	0x3c92cbf5	0.01791952
210	0x3c1084d5	0.008820732
211	0xbc817081	-0.015800716
212	0x3c40d5c4	0.011769716
213	0xbc6fe3c3	-0.014641705
214	0x3bfd29b6	0.0077259196
215	0xbb08d8cc	-0.0020881174
216	0x3ba002e5	0.0048831576
217	0x3a9d8900	0.0012018979
218	0xb9ccc680	-0.00039057806
219	0xbbfbcf29	-0.0076846075
220	0xbc86b0da	-0.016441751
221	0x39af40e9	0.00033426963
222	0xbc38b453	-0.011273461
223	0xbb4e4f84	-0.00314805
224	0xbb6f838d	-0.0036546916
225	0xbaa2ec1b	-0.0012429984
226	0x3ba89e60	0.005145833
227	0x3c0352de	0.008015363
228	0xbb133036	-0.0022459156
229	0x3c929134	0.017891504
230	0x3bc71ead	0.006076655
231	0x3cb0a9ba	0.021565307
232	0x3ba3d49a	0.0049997093
233	0x3c0fc76a	0.008775571
234	0x3be53b4b	0.0069955937
235	0xbb4dc2c2	-0.0031396602
236	0x3a5799ef	0.0008224537
237	0xbb80b626	-0.003927964
238	0x3c9ca9b0	0.019123882
239	0xbc3e5ab1	-0.011618302
240	0xbc0f3515	-0.008740683
241	0x3bb7ec2a	0.0056128697
242	0x3bec1f82	0.0072059045
243	0x3cabfdf1	0.020995112
244	0x3c3a0dcd	0.011355829
245	0x3c3361ed	0.01094864
246	0xbbe297a5	-0.00691505
247	0x3bed9404	0.007250311
248	0x3c4f0585	0.012635593
249	0xbc2b894d	-0.010469747
250	0xbc51bda6	-0.012801563
251	0xbc418fa9	-0.011814036
252	0xbc805690	-0.015666276
253	0x3bf83a63	0.0075753196
254	0xbbcf35e5	-0.0063235634
255	0xbb730992	-0.0037084562

action_model._discrete_distribution.branches.2.bias f4 [2]
0	0xbadf3dc8	-0.0017031962
1	0x3adf3daf	0.0017031933
