Assets/Brain/4.onnx (onnx, 107096 bytes, 11 tensors)

discrete_action_output_shape f4 [1, 3]
3.0 3.0 2.0
00000000: 0000 4040 0000 4040 0000 0040

network_body._body_endoder.seq_layers.0.weight f4 [128, 64]
-0.06634138 0.23436408 0.20207728 -0.003049608 -0.25279525 0.062283613 0.02398958 0.116423324
-0.11768659 0.010923677 -0.08203363 0.031077906 0.06618859 0.22948843 0.01217437 0.20686492
-0.14700912 0.14595927 -0.18345979 0.01606806 -0.023815941 -0.22728342 -0.028132001 0.04331725
0.0873168 -0.16734606 0.05455555 0.14785837 -0.12548722 -0.07031467 -0.091079295 0.28365263
-0.15226735 -0.044917148 0.13677396 0.18822505 -0.09352443 0.042594615 -0.111858144 -0.099242695
-0.13831103 -0.30105877 0.047015656 -0.11348713 -0.18440744 -0.05838897 0.047543094 -0.07311452
-0.024514029 -0.05875201 0.19790007 0.08890878 -0.0004061703 0.0042246715 0.09388469 -0.06921995
-0.0747694 0.008076547 -0.01402772 0.038623787 0.11802004 -0.34844747 0.10185916 0.052930452
-0.10529016 -0.0786829 -0.11254953 -0.045387287 0.022777904 -0.07668342 0.39349324 0.26046336
-0.112611316 0.063087985 0.072481565 0.006603264 -0.18637791 -0.033004064 0.015350686 -0.1673966
0.072280064 0.1149842 0.017014632 -0.09951572 -0.03225179 0.107210755 -0.025721036 0.13092859
0.053808074 0.13586856 -0.094405 -0.17054923 -0.04724263 0.105610915 -0.10946092 -0.053111427
-0.04741608 0.14754999 -0.16818196 -0.219328 0.10797241 0.12808096 0.083013885 0.09412402
-0.18964824 0.041605197 0.01617666 0.09720564 -0.11835967 0.1478529 -0.081235535 0.104051866
-0.16764857 -0.11570796 0.04404305 0.081608295 -0.07602307 0.13495979 -0.09884032 -0.04189067
0.030462794 -0.05371056 -0.2655614 -0.19208075 0.040988207 0.010491953 -0.08099087 0.30166382
-0.08029588 0.13109493 0.006201376 -0.03652998 -0.21001887 -0.1182055 0.024530422 0.055246986
-0.36714172 0.03799962 0.003070072 0.012536293 -0.19855508 0.015140921 -0.28415963 0.19776349
-0.16009608 -0.06520881 -0.14136836 -0.06002379 -0.25301844 0.008660277 -0.048468776 -0.12171587
-0.072656974 0.08495344 0.05539745 0.08631006 -0.265104 0.045264352 -0.030777156 0.04559681
-0.0028955748 0.070190035 -0.19497965 0.10998858 -0.20256382 0.10505874 -0.28111684 0.027237305
-0.19556826 0.14912134 -0.07837468 0.15425654 -0.1277988 0.24217393 -0.09077184 -0.12553932
0.045627356 0.14264177 -0.041031346 -0.007710182 0.12315272 -0.18559514 -0.0351533 -0.012800522
-0.14170633 0.009990005 0.16043568 0.19957551 0.004320109 0.17491084 0.14018787 -0.19322716
0.08967917 0.07027383 0.020637523 0.023996716 -0.21357253 0.100391775 -0.07161253 0.11738663
-0.07670656 0.0692298 0.06748134 -0.12995505 -0.07343608 0.0037992015 -0.13389952 0.07400471
-0.15278542 0.0866942 0.09898881 -0.11408489 0.12618063 -0.004463852 -0.090266876 -0.023088813
0.11138925 -0.19659023 -0.14694314 -0.0054944553 0.256663 -0.10004065 0.26431808 0.058850132
0.15055363 -0.10901303 0.0006034871 -0.0816599 -0.10392256 -0.041534156 -0.104707085 0.06676967
-0.14933252 -0.017619012 -0.08404266 -0.069610335 -0.20751844 -0.026549587 -0.06590328 0.14460298
-0.23156105 -0.13249968 0.14837226 0.05290187 -0.15951322 0.07713165 0.14946428 -0.043863848
0.16549669 -0.059140626 -0.17141841 0.08399252 -0.2549942 -0.06103976 0.1991918 -0.13602513
00000000: fddd 87bd 23fd 6f3e 59ed 4e3e efdb 47bb
00000010: 616e 81be 1a1d 7f3d cc85 c43c 5a6f ee3d
00000020: ab05 f1bd 39f9 323c 3f01 a8bd 1897 fe3c
00000030: e28d 873d 04ff 6a3e 0277 473c 66d4 533e
00000040: 8f89 16be 5976 153e e2dc 3bbe 2aa1 833c
00000050: a619 c3bc fcbc 68be 1575 e6bc 6e6d 313d
00000060: 27d3 b23d c45c 2bbe a475 5f3d 2f68 173e
00000070: b97f 00be 2301 90bd c887 babd eb3a 913e
00000080: f9eb 1bbe 0bfb 37bd 790e 0c3e 11be 403e
00000090: bd89 bfbd b177 2e3d e215 e5bd c13f cbbd
000000a0: 68a1 0dbe 6024 9abe 7d93 403d f16b e8bd
000000b0: 4ed5 3cbe 4629 6fbd 8cbc 423d 11bd 95bd
000000c0: a5d1 c8bc f3a5 70bd 51a6 4a3e ce15 b63d
000000d0: 41f3 d4b9 1d6f 8a3b 9e46 c03d 30c3 8dbd
000000e0: b320 99bd 7e53 043c 86d4 65bc fa33 1e3d
000000f0: 7eb4 f13d b567 b2be 899b d03d 9acd 583d
00000100: 5ea2 d7bd 8024 a1bd 5e80 e6bd 05e8 39bd
00000110: ba98 ba3c 320c 9dbd f277 c93e 745b 853e
00000120: c3a0 e6bd 4634 813d 3771 943d 3160 d83b
00000130: dad9 3ebe 452f 07bd 7281 7b3c 046a 2bbe
00000140: 9207 943d d67c eb3d 4562 8b3c e6ce cbbd
00000150: 741a 04bd 5091 db3d ecb4 d2bc 2512 063e
00000160: db65 5c3d 2121 0b3e 6957 c1bd 75a4 2ebe
00000170: 7d81 41bd 894a d83d 0c2d e0bd 5e8b 59bd
00000180: 5d37 42bd 5817 173e e437 2cbe 8597 60be
00000190: a420 dd3d a827 033e 2f03 aa3d 18c4 c03d
000001a0: 2633 42be 366a 2a3d ea84 843c c013 c73d
000001b0: 8e66 f2bd c066 173e d15e a6bd 2519 d53d
000001c0: 11ac 2bbe 4cf8 ecbd 7c66 343d 4022 a73d
000001d0: fcb1 9bbd e632 0a3e cb6c cabd 8d95 2bbd
000001e0: 1c8d f93c 9bff 5bbd aaf7 87be d1b0 44be
000001f0: 40e3 273d 71e6 2b3c 8bde a5bd ae73 9a3e
00000200: 2b72 a4bd c03d 063e ea34 cb3b 76a0 15bd
00000210: 300f 57be ba15 f2bd 06f4 c83c aa4a 623d
00000220: 00fa bbbe 7da5 1b3d 4333 493b 0665 4d3c
00000230: 0652 4bbe a011 783c 5f7d 91be 8382 4a3e
00000240: 3af0 23be 328c 85bd dec2 10be 81db 75bd
00000250: a28b 81be d6e3 0d3c 3287 46bd 2c46 f9bd
00000260: 2ecd 94bd 12fc ad3d 70e8 623d 54c3 b03d
00000270: b6bb 87be 1d67 393d 6020 fcbc b8c3 3a3d
00000280: afc3 3dbb cbbf 8f3d bfa8 47be b141 e13d
00000290: e46c 4fbe 0929 d73d 8cee 8fbe c520 df3c
000002a0: 0c43 48be 44b3 183e e782 a0bd 6df5 1d3e
000002b0: b0dd 02be 71fc 773e 96e6 b9bd 618d 00be
000002c0: c0e3 3a3d af10 123e 7c10 28bd b2a5 fcbb
000002d0: 7e37 fc3d a70c 3ebe e8fc 0fbd 48b9 51bc
000002e0: 771b 11be 1ead 233c 4049 243e 865d 4c3e
000002f0: b38f 8d3b d41b 333e 698d 0f3e 57dd 45be
00000300: b6a9 b73d baeb 8f3d 0610 a93c c394 c43c
00000310: c2b2 5abe 349a cd3d 97a9 92bd 6768 f03d
00000320: 5418 9dbd 5ac8 8d3d a833 8a3d f012 05be
00000330: a865 96bd 06fc 783b f51c 09be c88f 973d
00000340: c873 1cbe bb8c b13d a5ba ca3d 57a5 e9bd
00000350: 7f35 013e 8145 92bb d7dd b8bd c024 bdbc
00000360: 0c20 e43d f34e 49be 4378 16be d50a b4bb
00000370: 5569 833e 1de2 ccbd b354 873e d60c 713d
00000380: bb2a 1a3e 3942 dfbd 5533 1e3a 4e3d a7bd
00000390: 5ad5 d4bd b81f 2abd ab70 d6bd 89be 883d
000003a0: a0ea 18be bf55 90bc 8f1e acbd dd8f 8ebd
000003b0: b77f 54be 857e d9bc 4df8 86bd ce12 143e
000003c0: 571e 6dbe ffad 07be e6ee 173e a2af 583d
000003d0: 6f57 23be 33f7 9d3d 2a0d 193e 94aa 33bd
000003e0: f777 293e 713d 72bd 4f88 2fbe 4504 ac3d
000003f0: 9a8e 82be d404 7abd eff8 4b3e 2c4a 0bbe

network_body._body_endoder.seq_layers.0.bias f4 [128]
-0.012332047 0.020334503 -0.012468266 0.016131388 0.00573834 0.03098219 0.03938393 0.052010085
0.0023508996 0.0047586034 0.00046860625 0.0057946662 -0.0058685704 0.0041590845 0.027423982 -0.0016404013
0.06478339 0.03627834 0.005038068 0.09873001 0.0049888296 0.018242279 0.007852174 0.022623777
-0.0041706497 0.01544405 -0.016054353 -0.022382084 0.03516519 -0.015043586 0.028110005 0.026458204
0.03469038 0.038663637 0.023264475 0.0073021594 0.044744186 0.011718425 0.039191287 0.034912482
0.06362305 -0.017908825 0.0024832976 0.016566966 -0.00042592714 0.018021744 0.024902737 0.032375526
0.025511462 -0.018336281 0.009073082 0.0135526145 0.0020860492 -0.013530678 0.033442445 0.031826325
0.045218427 0.0029908293 -0.0048154686 -0.0011418319 -0.003713758 0.030206872 0.0338848 -0.0098319715
0.0034011002 -0.008272988 0.021491518 0.029553164 0.013129873 0.0016996622 -0.0003378575 0.004296393
0.01742242 0.035432793 -0.0053828973 0.04208939 -0.0018159788 -0.008123027 0.0057976423 0.05552925
0.0053729205 0.023860823 0.03005687 0.024274288 0.049811777 0.023916034 0.012673947 0.0137402015
-0.038252752 0.020539703 -0.0054078135 -0.031825196 -0.005565979 0.032478653 0.042139277 -0.031369664
0.0064095 0.051582165 -0.019342085 0.00020876675 -0.0024015496 -0.014438467 0.036277454 0.010141876
0.027964586 -0.010942666 0.010609757 -0.0177675 0.0091537675 0.032017432 0.012811642 0.001283143
0.03305612 0.022502795 -0.044638958 -0.011768059 0.00076157134 0.0595709 -0.0068533844 0.040884096
0.0067898356 0.012161917 0.020754574 -0.00088488625 -0.016198445 0.009817487 0.005189376 0.039424967
00000000: 5b0c 4abc 8b94 a63c b347 4cbc f925 843c
00000010: af08 bc3b 5dce fd3c 0b51 213d 8708 553d
00000020: 8d11 1a3b 0fee 9b3b 44af f539 2fe1 bd3b
00000030: 234d c0bb ee48 883b 42a8 e03c bc02 d7ba
00000040: 27ad 843d 9998 143d 6116 a53b f632 ca3d
00000050: 5679 a33b d570 953c 68a6 003c 8055 b93c
00000060: f2a9 88bb 0a09 7d3c 6b84 83bc a25a b7bc
00000070: 6009 103d 5f79 76bc f446 e63c e0be d83c
00000080: 8017 0e3d c35d 1e3d 2495 be3c f446 ef3b
00000090: ae45 373d a3fe 3f3c 0b87 203d 6400 0f3d
000000a0: cd4c 823d 87b5 92bc d2be 223b 72b7 873c
000000b0: f94e dfb9 56a2 933c d300 cc3c 339c 043d
000000c0: 6afd d03c f835 96bc 44a7 143c c90b 5e3c
000000d0: 19b6 083b c7af 5dbc f2fa 083d 525c 023d
000000e0: f536 393d ca01 443b 14cb 9dbb 85a9 95ba
000000f0: 8562 73bb 6774 f73c caca 0a3d 4716 21bc
00000100: fee4 5e3b 6d8b 07bc fb0e b03c 7a19 f23c
00000110: ae1e 573c 33c7 de3a 7722 b1b9 c2c8 8c3b
00000120: 77b9 8e3c fa21 113d 0463 b0bb ed65 2c3d
00000130: 2306 eeba 7216 05bc 26fa bd3b a472 633d
00000140: 530f b03b c677 c33c d339 f63c dfda c63c
00000150: 6f07 4c3d 8feb c33c 63a6 4f3c 951e 613c
00000160: ebae 1cbd e142 a83c 0734 b1bb 235b 02bd
00000170: d162 b6bb 5608 053d 3c9a 2c3d 7a7d 00bd
00000180: c806 d23b d247 533d 4b73 9ebc 66e8 5a39
00000190: 5163 1dbb 528f 6cbc ab97 143d 1c2a 263c
000001a0: fd15 e53c de48 33bc 8cd4 2d3c 268d 91bc
000001b0: aff9 153c b624 033d ece7 513c 222f a83a
000001c0: db65 073d c857 b83c 57d7 36bd d1ce 40bc
000001d0: 30a4 473a 9e00 743d 5b92 e0bb 1576 273d
000001e0: 457d de3b c742 473c 7f05 aa3c b6f7 67ba
000001f0: 9ab2 84bc 86d9 203c a40b aa3b 137c 213d

network_body._body_endoder.seq_layers.2.weight f4 [128, 128]
0.053237144 -0.14800727 -0.024861451 -0.081195004 -0.012722597 -0.09809802 -0.14655213 -0.024390612
0.041435365 0.008975706 0.030272849 0.0002052519 0.04032473 0.02181357 0.02075363 -0.08720949
-0.07720811 0.1195851 0.0140259685 -0.03796279 -0.040537227 -0.05131742 0.028641384 -0.027968556
0.124386616 -0.1798822 -0.032557093 -0.13409634 -0.15288481 0.04258055 -0.14382257 -0.05999002
0.104487 0.05024472 -0.007419143 -0.01627085 -0.0013711813 0.0071833967 0.012376974 -0.022556454
-0.13528033 -0.0273135 -0.19314767 -0.050885223 -0.052163832 -0.08789608 0.109839685 0.09297482
0.04656574 -0.015159489 0.13360348 0.049938552 -0.16684659 0.13157319 0.041650597 -0.042301234
-0.052643098 -0.12327596 0.023814907 -0.018657032 -0.023484483 -0.058473308 -0.13090399 0.08016664
0.073885694 0.124889456 0.17513302 0.055061936 -0.0046587363 -0.011882068 0.025010904 -0.08395532
0.013270542 -0.033306178 0.113772444 0.18162335 -0.04878593 -0.05990714 0.13672073 -0.1855083
0.118913405 -0.060492765 0.031224208 0.10404058 -0.10669668 -0.1798788 0.00074620196 -0.016492765
-0.036775343 -0.04137455 -0.03428761 0.002277894 0.02858153 -0.004015992 -0.09427604 -0.09832383
0.04718551 -0.0824703 -0.11860558 0.015606341 -0.039161567 0.05212703 0.104362376 0.13008112
0.06322497 0.019384876 0.03198949 -0.07951803 0.025056707 0.057024762 0.028489007 0.057431486
0.059698213 0.07907733 -0.01626293 -0.0005501896 -0.08316959 0.007424244 0.04642988 0.11282145
-0.007234265 0.056421872 -0.084629565 0.053050015 0.03603598 0.07922224 -0.09910583 0.027999187
-0.20729893 0.038275138 0.010552346 -0.055494204 0.051504675 -0.056358404 -0.016075803 0.17881957
-0.08498952 -0.037761945 -0.020320615 -0.08929756 -0.045003228 -0.1261712 -0.037124082 -0.042440873
0.1329232 0.1533884 0.00075315946 -0.014800615 0.17779881 0.05007505 0.018753054 -0.26209015
0.06960192 0.095563315 0.10966203 -0.15305792 0.043516237 -0.016926162 0.021638379 -0.01748221
-0.008232154 0.1242983 -0.016064191 0.051673934 -0.008335661 -0.030596988 -0.03383496 0.0015454654
-0.07707314 -0.14757226 0.056936838 0.11028339 0.095420726 0.07269493 -0.066829406 0.1388622
0.01735563 -0.0009380482 -0.056243375 0.07789524 0.13125886 0.07716601 0.042761274 0.070492305
0.119325675 -0.00027905806 -0.059061512 -0.022037683 -0.06306997 -0.018878758 0.17011873 0.07665268
-0.09130313 -0.056014095 -0.15248182 0.14987424 0.014068258 0.13720956 -0.014056802 -0.05962889
0.04247203 0.043069605 0.24937269 -0.07514436 -0.052043036 0.029263983 -0.06711998 -0.08317795
-0.044508196 0.09813395 0.07183473 -0.11906724 -0.11202636 0.07481365 0.16770355 -0.17555335
-0.02000522 -0.0051404107 0.02863086 -0.13993084 -0.14970624 0.006549601 0.027703542 -0.083585605
0.035116363 0.06218107 -0.037682224 -0.12670517 -0.19227645 -0.010959901 -0.010673242 0.113450274
-0.0041402746 -0.13557006 -0.22794381 0.01962312 -0.07738503 0.1301781 -0.044578403 -0.04918696
0.1302117 -0.16906856 0.054559946 0.15816054 -0.030642038 0.07898705 0.029482197 0.027161412
0.07335479 0.008794116 0.049483474 -0.012294132 -0.122955814 0.014202309 -0.005244125 -0.010873787
00000000: 310f 5a3d 388f 17be 3eaa cbbc 9149 a6bd
00000010: 7172 50bc 9de7 c8bd c311 16be d2ce c7bc
00000020: 21b8 293d d70e 133c c4fe f73c e338 5739
00000030: 8b2b 253d 5fb2 b23c 8403 aa3c e49a b2bd
00000040: 491f 9ebd 08e9 f43d 2dcd 653c df7e 1bbd
00000050: 5d0a 26bd 3732 52bd 56a1 ea3c 501e e5bc
00000060: 69be fe3d 0a33 38be 965a 05bd 8d50 09be
00000070: d68d 1cbe f168 2e3d 3946 13be 18b8 75bd
00000080: 48fd d53d 68cd 4d3d 481c f3bb 724a 85bc
00000090: 36b9 b3ba b362 eb3b cbc8 4a3c 50c8 b8bc
000000a0: ed86 0abe 90c0 dfbc 81c8 45be 066d 50bd
000000b0: bea9 55bd dc02 b4bd a1f3 e03d 9569 be3d
000000c0: b8bb 3e3d 815f 78bc 5acf 083e 5e8c 4c3d
000000d0: d5d9 2abe 1fbb 063e d199 2a3d 0f44 2dbd
000000e0: 4aa0 57bd 1b78 fcbd 7b17 c33c a2d6 98bc
000000f0: 8862 c0bc b581 6fbd b20b 06be 682e a43d
00000100: 6251 973d 0bc6 ff3d 1256 333e a088 613d
00000110: 50a8 98bb 01ad 42bc abe3 cc3c c4f0 abbd
00000120: b06c 593c 0f6c 08bd 8701 e93d 79fb 393e
00000130: c1d3 47bd 3061 75bd 8500 0c3e e3f5 3dbe
00000140: df88 f33d 43c7 77bd e9c9 ff3c 3a13 d53d
00000150: ca83 dabd 2632 38be c49c 433a d61b 87bc
00000160: bea1 16bd 5c78 29bd 2a71 0cbd b848 153b
00000170: d023 ea3c 9598 83bb cc13 c1bd 015e c9bd
00000180: 9845 413d 30e6 a8bd 7be7 f2bd bdb1 7f3c
00000190: e167 20bd 2783 553d f1bb d53d fc33 053e
000001a0: 187c 813d 08cd 9e3c 6907 033d 59da a2bd
000001b0: b943 cd3c cc92 693d c761 e93c 473d 6b3d
000001c0: 1d86 743d 4cf3 a13d d639 85bc 993a 10ba
000001d0: d154 aabd 1347 f33b 422d 3e3d ef0e e73d
000001e0: 6a0d edbb 9f1a 673d 4452 adbd f94a 593d
000001f0: 779a 133d 453f a23d fff7 cabd 8d5e e53c
00000200: 2c46 54be 64c6 1c3d bfe3 2c3c e44d 63bd
00000210: 91f6 523d 12d8 66bd 67b1 83bc 7a1c 373e
00000220: fc0e aebd 45ac 1abd 6b77 a6bc a4e1 b6bd
00000230: 4e55 38bd 0633 01be 6c0f 18bd 7bd6 2dbd
00000240: 051d 083e d911 1d3e ad6f 453a 477e 72bc
00000250: e410 363e 7f1b 4d3d 01a0 993c ae30 86be
00000260: 748b 8e3d b3b6 c33d 7d96 e03d 37bb 1cbe
00000270: 153e 323d bca8 8abc f842 b13c da36 8fbc
00000280: 28e0 06bc 1b90 fe3d 0d99 83bc 0ca8 533d
00000290: 4c92 08bc 89a6 fabc 8796 0abd 3791 ca3a
000002a0: 86d8 9dbd 2f1d 17be 9a36 693d 42dc e13d
000002b0: f16b c33d 14e1 943d dbdd 88bd e431 0e3e
000002c0: 652d 8e3c 59e7 75ba 745f 66bd 8a87 9f3d
000002d0: b968 063e 3709 9e3d 7226 2f3d 455e 903d
000002e0: 0561 f43d 8a4e 92b9 7cea 71bd 5f88 b4bc
000002f0: d42a 81bd a0a7 9abc 9b33 2e3e 15fc 9c3d
00000300: 23fd babd 096f 65bd 3224 1cbe a278 193e
00000310: 8d7e 663c aa80 0c3e 804e 66bc 6c3d 74bd
00000320: 27f7 2d3d c169 303d 8e5b 7f3e 49e5 99bd
00000330: 142b 55bd 05bb ef3c 3376 89bd 3359 aabd
00000340: 3a4e 36bd 74fa c83d 161e 933d 86d9 f3bd
00000350: 146e e5bd e637 993d 7bba 2b3e 42c4 33be
00000360: fde1 a3bc e470 a8bb 448b ea3c 084a 0fbe
00000370: 984c 19be 099e d63b 8af2 e23c ee2e abbd
00000380: 2dd6 0f3d 94b1 7e3d ad58 1abd 00bf 01be
00000390: 1ee4 44be 2891 33bc d2de 2ebc 9e58 e83d
000003a0: 24ab 87bb e1d2 0abe 1a6a 69be aac0 a03c
000003b0: 0b7c 9ebd 684d 053e d897 36bd 4478 49bd
000003c0: 3756 053e 4f20 2dbe 407a 5f3d d6f4 213e
000003d0: 0305 fbbc f6c3 a13d a684 f13c 9c81 de3c
000003e0: 093b 963d 3215 103c 2faf 4a3d 546d 49bc
000003f0: 42d0 fbbd cdb0 683c e9d6 abbb f827 32bc

network_body._body_endoder.seq_layers.2.bias f4 [128]
0.014887957 0.009885999 -0.01022816 0.022073004 0.007838478 0.03137155 0.020754587 0.017306596
0.007411781 -0.0001852449 0.0110275615 0.02334309 0.0032563177 -0.008499443 -0.013405004 0.0152846845
0.00060438213 0.025431285 -0.012288679 0.023620857 0.011024898 -0.015928375 0.010024042 0.019396113
0.029966667 0.013856258 0.027125629 0.026656792 -0.00859928 0.015757423 0.02468849 0.022231804
-0.0044707027 0.03510309 0.016037216 0.027484436 0.016255606 -0.01089081 0.0015284121 0.00093133154
0.0016317808 1.6304792e-05 0.035655346 0.004934628 0.012305422 0.023962498 0.014239266 0.0047506224
0.025712492 -0.0028616847 0.0153496815 0.00048707877 0.0028082193 0.01799778 0.022838606 0.04590886
0.007616637 0.040941447 -0.0008664753 0.01142286 0.004654209 0.029846895 0.010663704 0.029194387
0.023438461 0.0015087976 0.010678079 0.036760595 0.0073441216 0.025331546 0.004945659 -0.0048738
5.735859e-07 0.0023665775 0.0117718205 -0.0005958153 -0.025058549 0.002539876 0.010384737 0.011579774
0.040438514 0.015825337 0.016883817 0.016072977 0.064666994 0.013468524 0.001620624 0.0070467177
0.0154227195 0.02084783 -0.00342785 0.037886985 0.024741543 0.022656033 -0.0071004443 -0.016665282
0.013083173 0.0005526473 -0.004561494 0.016050516 0.003624324 0.0038533441 0.011403692 0.027044047
0.0014345665 0.007901243 0.0067605386 0.0110498695 0.0152358245 -0.003359091 0.013863863 0.01676009
-0.0006080838 -0.00026728914 -0.0074008503 0.025150137 0.02326004 0.021926334 0.02582911 0.031817865
-0.0045017283 0.0114829 0.031676948 -0.010844599 0.0018552878 0.0015194666 0.013711551 0.025066905
00000000: 9eec 733c e3f8 213c 0394 27bc 72d2 b43c
00000010: f66c 003c 747f 003d 8605 aa3c 90c6 8d3c
00000020: 87de f23b 4d3e 42b9 f2ac 343c 023a bf3c
00000030: f267 553b 3f41 0bbc a9a0 5bbc 9d6c 7a3c
00000040: 666f 1e3a 4555 d03c 7556 49bc 8780 c13c
00000050: c6a1 343c 397c 82bc e13b 243c 99e4 9e3c
00000060: a87c f53c 5c05 633c 9136 de3c 585f da3c
00000070: ffe3 0cbc b615 813c 843f ca3c 791f b63c
00000080: f97e 92bb 42c8 0f3d 7b60 833c 0a27 e13c
00000090: 7a2a 853c 5e6f 32bc 0055 c83a 9a24 743a
000000a0: 7ae1 d53a 46c6 8837 570b 123d a9b2 a13b
000000b0: ae9c 493c 004d c43c cf4b 693c 1cab 9b3b
000000c0: 01a3 d23c 1a8b 3bbb 3b7d 7b3c 9b5e ff39
000000d0: 1a0a 383b 1570 933c 0718 bb3c ee0a 3c3d
000000e0: fb94 f93b 38b2 273d 2c24 63ba f326 3b3c
000000f0: 5682 983b 7a81 f43c d1b6 2e3c 1129 ef3c
00000100: 0402 c03c d9c2 c53a 1cf3 2e3c 4792 163d
00000110: f5a6 f03b 1a84 cf3c 320f a23b 66b4 9fbb
00000120: 86f8 1935 9518 1b3b 98de 403c 7d30 1cba
00000130: 9647 cdbc 0c74 263b be24 2a3c 18b9 3d3c
00000140: dba2 253d 23a4 813c ee4f 8a3c 7aab 833c
00000150: 2170 843d 16ab 5c3c 1e6b d43a 27e8 e63b
00000160: 93af 7c3c 12c9 aa3c c8a5 60bb 622f 1b3d
00000170: c7ae ca3c 2599 b93c d8aa e8bb a185 88bc
00000180: ce5a 563c 88df 103a 9678 95bb 5f7c 833c
00000190: 1186 6d3b 6388 7c3b 8dd6 3a3c 7a8b dd3c
000001a0: 1008 bc3a 3774 013c 8287 dd3b 830a 353c
000001b0: ae9f 793c 3224 5cbb 4225 633c 754c 893c
000001c0: d067 1fba f122 8cb9 d582 f2bb a907 ce3c
000001d0: d78b be3c db9e b33c 9297 d33c 7353 023d
000001e0: 3c83 93bb c622 3c3c b0bf 013d 8cad 31bc
000001f0: 212d f33a d728 c73a 6aa6 603c 1c59 cd3c

action_model._discrete_distribution.branches.0.weight f4 [3, 128]
-0.010076958 -0.018897038 0.03822664 -0.07225796 -0.0049212845 -0.022709707 -0.03031233 -0.028954646
-0.03370658 -0.026385423 0.026017137 -0.028254522 0.026083387 0.022317052 0.02561296 -0.028540932
-0.024027767 -0.0455468 0.03498102 -0.029736292 -0.038531777 0.03594892 0.014228748 -0.03696122
-0.03808417 -0.025858697 -0.046259183 -0.0032373 0.03722772 -0.024893338 -0.014966235 -0.023596484
-0.038441945 -0.026978508 -0.050254967 -0.016216023 -0.02954011 0.029784119 0.0142278 -0.008454011
0.019256365 0.0445938 -0.050221547 0.032954317 0.018009728 0.0030119207 0.009595917 0.00075913646
-0.031852283 0.000746379 -0.016910017 -0.023176907 0.0069589345 -0.058013685 -0.042584453 -0.02103904
-0.029867468 0.01322269 0.0209751 0.026408384 -0.028258096 -0.034083784 0.027235217 -0.038579356
-0.057722755 -0.025615724 -0.004649725 -0.04005389 -0.0013001721 -0.044141512 -0.004924011 -0.022555392
0.009830013 0.018547764 -0.027652144 -0.033111185 0.012322303 -0.0025718152 0.0070471745 -0.026187215
-0.051487055 -0.012780342 -0.017344614 0.023022262 -0.03910015 0.01811693 0.00845092 -0.010428228
-0.03780988 -0.019633675 0.0081382105 -0.028446088 -0.045984425 -0.038651574 -0.010043347 0.030219885
0.0060437983 0.01984162 0.03910947 -0.025142731 0.034159306 0.008097151 0.0039501186 -0.041480377
0.020272465 -0.035362076 0.021929283 -0.02035165 0.0066126846 0.002460403 0.001654736 -0.045537967
-0.015499561 0.010832039 -0.002303403 -0.00495157 0.012663262 -0.045823507 -0.035281528 -0.03802307
0.029042583 0.003013428 -0.07311186 0.023190401 -0.016826373 0.008144306 -0.008808668 -0.026052333
-0.003023477 0.01710843 -0.00037172344 0.04129725 -0.027719047 0.012782124 0.01766485 0.0006974146
-0.009206553 0.031507153 0.039435577 0.018334238 0.0042217164 -0.033098675 -0.05152483 0.045158427
0.007049739 0.04306549 -0.023710724 0.02606856 -0.011600274 -0.021797003 -0.01103184 0.0073005315
-0.00089750293 0.02906998 0.021144116 0.025607822 -0.01898069 0.04168051 0.013498316 0.013595244
0.012469676 0.042337857 0.033780184 -0.01363561 0.002233015 -0.038161367 -0.052544616 -0.006559853
0.01397056 0.006416419 0.0024037373 -0.004115429 0.030949049 0.016533704 0.00457416 -0.010688038
0.0033967793 -0.013713447 -0.0063094776 0.016652355 -0.0063302782 0.015273647 -0.0006676835 0.015506717
0.026583454 0.005572349 -0.023324843 0.030234998 -0.01002266 0.02707067 -0.007067955 0.035126112
0.04801559 -0.0040052175 -0.028039204 0.016866367 0.049178105 0.0165752 -0.044890784 0.0031960462
-0.021889908 -0.06692123 -0.0059797685 -0.0070419577 -0.020443197 0.053081017 0.03805627 0.019669676
0.00801185 -0.032477222 -0.053491447 0.009116563 0.0053254985 0.025773663 -0.019751266 0.017257202
0.03700926 0.003164891 0.00051825773 0.002471795 0.04640217 0.016300628 -0.0029115858 -0.042352315
0.016548451 -0.024746781 -0.0068777106 0.022195565 -0.011970848 -0.0069943545 -0.058764834 0.0016596131
0.040801734 -0.00353884 -0.0105223125 -0.019461973 -0.00030292437 -0.02880843 -0.018496774 0.03686835
-0.00020767766 -0.0014384068 -0.01204296 0.008379729 0.052779853 0.043801695 0.03702538 0.054095294
-0.00011558466 0.033974998 0.03112303 -0.033413667 -0.0057889638 0.027665466 0.02490717 -0.017149564
00000000: d319 25bc f6cd 9abc 8a93 1c3d fbfb 93bd
00000010: ba42 a1bb b509 babc 9051 f8bc 4b32 edbc
00000020: e90f 0abd 3e26 d8bc e421 d53c 0776 e7bc
00000030: d4ac d53c 40d2 b63c 45d2 d13c acce e9bc
00000040: e1d5 c4bc 488f 3abd 4248 0f3d 8699 f3bc
00000050: 7fd3 1dbd 2d3f 133d b21f 693c a664 17bd
00000060: 26fe 1bbd 9ed5 d3bc 457a 3dbd e228 54bb
00000070: 187c 183d 1ded cbbc f034 75bc 6a4d c1bc
00000080: 4d75 1dbd 0802 ddbc 27d8 4dbd 77d7 84bc
00000090: 1afe f1bc d3fd f33c b81b 693c b182 0abc
000000a0: 86bf 9d3c fda7 363d 1cb5 4dbd 1bfb 063d
000000b0: 2389 933c a563 453b 3138 1d3c c900 473a
000000c0: 8a77 02bd a6a8 433a e086 8abc 7fdd bdbc
000000d0: c607 e43b c29f 6dbd 096d 2ebd 115a acbc
000000e0: 9fac f4bc fba3 583c f9d3 ab3c 6556 d83c
000000f0: 867d e7bc 709b 0bbd 641c df3c 6305 1ebd
00000100: b26e 6cbd 11d8 d1bc b85c 98bb 8c0f 24bd
00000110: 896a aaba bbcd 34bd 9959 a1bb 16c6 b8bc
00000120: 100e 213c 7bf1 973c c086 e2bc 989f 07bd
00000130: 7ce3 493c e68b 28bb fceb e63b 9286 d6bc
00000140: 17e4 52bd a464 51bc 4b16 8ebc 2f99 bc3c
00000150: 7b27 20bd f569 943c ba75 0a3c 29db 2abc
00000160: 88de 1abd cdd6 a0bc 2156 053c c507 e9bc
00000170: 2a5a 3cbd 1d51 1ebd da8c 24bc b18f f73c
00000180: 0e0b c63b e58a a23c 4031 203d 21f8 cdbc
00000190: a1ea 0b3d eaa9 043c ff6f 813b 54e7 29bd
000001a0: 7112 a63c d3d7 10bd 0aa5 b33c 81b8 a6bc
000001b0: 38af d83b b63e 213b bae3 d83a 0586 3abd
000001c0: dff1 7dbc dd78 313c b1f4 16bb c840 a2bb
000001d0: 9279 4f3c 6eb1 3bbd 5d83 10bd 14be 1bbd
000001e0: b6ea ed3c ef7c 453b acbb 95bd ccf9 bd3c
000001f0: 76d7 89bc b26f 053c 3b52 10bc b46b d5bc
00000200: 8725 46bb fa26 8c3c e0e3 c2b9 4e27 293d
00000210: 0e13 e3bc 1d6c 513c e0b5 903c b4d2 363a
00000220: 15d7 16bc a50d 013d 3387 213d af31 963c
00000230: 5356 8a3b 7a92 07bd b30b 53bd 0bf8 383d
00000240: 7f01 e73b 7065 303d fe3c c2bc bc8d d53c
00000250: 130f 3ebc a18f b2bc e4be 34bc 4c39 ef3b
00000260: 6746 6bba 2b24 ee3c 6d36 ad3c 7fc7 d13c
00000270: 647d 9bbc 2fb9 2a3d 0a28 5d3c 96be 5e3c
00000280: 9d4d 4c3c 766a 2d3d 175d 0a3d e567 5fbc
00000290: c657 123b 184f 1cbd 0639 57bd 09f4 d6bb
000002a0: c7e4 643c d340 d23b 0588 1d3b b8da 86bb
000002b0: dc88 fd3c b171 873c d6e2 953b e11c 2fbc
000002c0: 809c 5e3b 5eae 60bc bcbf cebb 856a 883c
000002d0: 396e cfbb 523e 7a3c 7b07 2fba e30f 7e3c
000002e0: 8bc5 d93c 4098 b63b be13 bfbc 63af f73c
000002f0: 1536 24bc 4fc3 dd3c 4e9a e7bb 66e0 0f3d
00000300: ffab 443d 333e 83bb 79b2 e5bc 562b 8a3c
00000310: fb6e 493d b7c8 873c 66df 37bd c274 513b
00000320: 7752 b3bc ff0d 89bd eff1 c3bb 39c0 e6bb
00000330: 7e78 a7bc 7b6b 593d e4e0 1b3d 4d22 a13c
00000340: 2244 033c d606 05bd d919 5bbd a35d 153c
00000350: 8581 ae3b 4a23 d33c 68cd a1bc fa5e 8d3c
00000360: 0697 173d 0f6a 4f3b b0db 073a d7fd 213b
00000370: 3410 3e3d e588 853c 4ed0 3ebb 9f79 2dbd
00000380: 9e90 873c c3b9 cabc 6b5e e1bb 79d3 b53c
00000390: 6021 44bc e630 e5bb 65b3 70bd 6087 d93a
000003a0: b81f 273d e2eb 67bb c765 2cbc b76e 9fbc
000003b0: d2d1 9eb9 a8ff ebbc 8c86 97bc 4403 173d
000003c0: 0cc4 59b9 ec88 bcba d64f 45bc 224b 093c
000003d0: b02f 583d 6869 333d eda7 173d 0793 5d3d
000003e0: 0b66 f2b8 5e29 0b3d baf5 fe3c c5dc 08bd
000003f0: 59b1 bdbb b0a2 e23c 1f0a cc3c 3e7d 8cbc

action_model._discrete_distribution.branches.0.bias f4 [3]
-0.031820644 0.008733689 0.018366085
00000000: 5d56 02bd bf17 0f3c 7974 963c

action_model._discrete_distribution.branches.1.weight f4 [3, 128]
0.025576882 -0.029383838 -0.0051301126 -0.029913468 -0.008513699 0.013640584 -0.018705167 -0.009848125
-0.0013081804 0.0221598 0.01976392 -0.0007769128 -0.011935986 0.014323182 0.011044042 -0.034656033
0.004571103 0.012552647 0.00096292485 0.030931164 0.0025096808 0.0032231556 -0.005972559 -0.0053581176
-0.022374066 0.023510713 -0.015818667 0.010627318 0.0069720764 -0.010807222 -0.022044972 0.0012572877
-0.011316941 -0.00043414213 -0.012000048 -0.021355605 -0.025383586 0.009603562 -0.02529809 -0.005973169
0.014243961 -0.00035347597 0.008540747 0.014121152 0.0116722835 0.013359649 0.014039469 0.02820111
-0.011298709 -0.028364941 -0.017036097 -0.0032234583 -0.006654957 -0.00055562647 -0.025171699 -0.018310348
0.008554557 0.007233185 0.00955968 0.017789269 0.00939381 -0.014093655 0.010299157 -0.0010058688
-0.05433011 -0.0062404484 0.0177504 -0.0072440547 -0.006519625 -0.010702792 0.021352656 -0.0025364025
-0.008524046 -0.0025175177 0.028020095 -0.000604014 0.01909172 0.01779602 0.032025363 0.007208681
-0.011420728 0.0057482384 -0.021183355 0.0298213 0.013993933 -0.01984421 0.0016511155 0.005509176
-0.02859454 -0.0185801 0.0027891065 -0.012881439 0.002776775 -0.01663461 0.013185716 0.023229426
-0.030275369 0.010647152 0.010668565 -0.03651089 -0.009495819 0.01270681 -0.0042412668 -0.019910159
0.015772186 -0.0024622343 0.015075738 -0.0054594628 -0.02211568 0.017008353 -0.01567115 -0.02490283
0.005453545 0.004635845 0.023182414 0.023795614 0.014770861 -0.018752845 -0.029065425 -0.012672053
0.019305209 -0.020128448 0.010222789 0.0026628831 -0.0048016016 -0.010420327 0.012161335 0.006968363
0.036473297 0.041137908 0.024932433 0.0226259 -0.075437315 0.043826375 0.0276431 0.04304662
-0.045113128 -0.024568915 0.0003686453 0.047680542 -0.008295647 -0.031861424 -0.05391227 0.03427925
-0.036010228 0.06262962 0.015008812 0.008615264 -0.06137955 0.020651659 -0.012397838 0.03794402
0.06969741 0.024039952 0.037143756 0.008240654 -0.069703154 0.066692345 0.09112316 0.050230607
-0.015775062 0.0779138 0.050366055 0.062062096 0.01534028 0.004654515 0.050519004 -0.053764682
0.0022304088 -0.012232889 0.085901804 0.015836487 -0.02564094 0.0052432967 0.028225224 -0.05497649
0.039980307 -0.014037831 0.08293374 -0.0212003 -0.0096686045 0.045851342 0.08225306 0.10271606
-0.025872476 0.04698177 0.006022325 -0.030009834 0.039555132 0.03699451 0.027819214 0.064290114
-0.0012577673 -0.014289843 -0.062369168 0.05684321 -0.032468952 -0.044805434 -0.08604868 -0.007009922
0.056693275 0.045075472 -0.05717219 -0.04028942 0.00073501567 0.009358452 0.0039083883 0.03024245
0.059845444 -0.06326004 -0.05866522 0.026632143 0.057078682 0.0064400937 -0.0476989 0.04727249
0.022471994 0.031196253 -0.0047986847 0.086946666 0.057057817 0.04977153 -0.01662489 -0.020348608
0.04564667 -0.02257023 -0.002700564 0.0066853543 0.011023558 0.031015815 0.061485246 0.054112352
0.003350958 0.05793559 -0.056551658 -0.051258177 0.01580665 -0.03383644 0.029008083 0.020714091
-0.005480879 0.01944574 -0.03403432 0.086771436 0.0010911372 0.07007177 0.041244436 0.048477374
0.025528738 0.048787463 0.06484825 0.0038583213 -0.017751751 0.01538559 0.011820902 -0.09458574
00000000: 9c86 d13c 60b6 f0bc 811a a8bb 170d f5bc
00000010: 0b7d 0bbc c27c 5f3c 943b 99bc 085a 21bc
00000020: 4077 abba 7888 b53c f2e7 a13c bca9 4bba
00000030: 278f 43bc c8ab 6a3c 12f2 343c 7cf3 0dbd
00000040: 31c9 953b 9ea9 4d3c cb6c 7c3a 5a63 fd3c
00000050: 7579 243b 943b 533b 75b5 c3bb 2693 afbb
00000060: d149 b7bc 8a99 c03c 2696 81bc 341e 2e3c
00000070: 0476 e43b c610 31bc a897 b4bc 93cb a43a
00000080: b16a 39bc 929d e3b9 d99b 44bc f3f1 aebc
00000090: 3df1 cfbc 4258 1d3c f13d cfbc 93ba c3bb
000000a0: 815f 693c be52 b9b9 7dee 0b3c 685c 673c
000000b0: 1b3d 3f3c 6ee2 5a3c cd05 663c 0406 e73c
000000c0: 381e 39bc 985d e8bc 498f 8bbc a840 53bb
000000d0: d311 dabb 76a7 11ba e134 cebc 95ff 95bc
000000e0: 6a28 0c3c 5b04 ed3b 34a0 1c3c cdba 913c
000000f0: 7fe8 193c 13e9 66bc ccbd 283c 5bd7 83ba
00000100: 4089 5ebd ad7c ccbb 4969 913c 895f edbb
00000110: 94a2 d5bb c35a 2fbc c4eb ae3c c639 26bb
00000120: 71a8 0bbc f0fc 24bb 668a e53c b256 1eba
00000130: 3d66 9c3c f5c8 913c 072d 033d cd36 ec3b
00000140: 011e 3bbc b85b bc3b b788 adbc cd4b f43c
00000150: cf46 653c 5390 a2bc 3e6a d83a 5186 b43b
00000160: 193f eabc 4b35 98bc 71c9 363b ac0c 53bc
00000170: 8efa 353b 4e45 88bc e708 583c a34b be3c
00000180: 0d04 f8bc 6471 2e3c 34cb 2e3c 718c 15bd
00000190: 5a94 1bbc 3930 503c 53fa 8abb a11a a3bc
000001a0: ac34 813c 705d 21bb 3a00 773c 4be5 b2bb
000001b0: f12b b5bc 1a55 8b3c c960 80bc 0501 ccbc
000001c0: a7b3 b23b 49e8 973b 0ce9 bd3c 05ef c23c
000001d0: 7b01 723c 919f 99bc 9d1a eebc 719e 4fbc
000001e0: f525 9e3c 6ae4 a4bc 7c7d 273c c483 2e3b
000001f0: c156 9dbb 05ba 2abc 5640 473c de56 e43b
00000200: 0665 153d 3980 283d 1a3f cc3c f459 b93c
00000210: e17e 9abd 4983 333d c873 e23c a751 303d
00000220: 8bc8 38bd c044 c9bc bc46 c139 ac4c 433d
00000230: 77ea 07bc 2081 02bd 1dd3 5cbd 6668 0c3d
00000240: 767f 13bd f543 803d 85e7 753c 0927 0d3c
00000250: 1f69 7bbd ab2d a93c 4d20 4bbc 306b 1b3d
00000260: 84bd 8e3d 6fef c43c 0d24 183d cf03 073c
00000270: 87c0 8ebd ff95 883d c89e ba3d 9cbe 4d3d
00000280: b43a 81bc 4591 9f3d a34c 4e3d d334 7e3d
00000290: cc55 7b3c e784 983b 04ed 4e3d 5b38 5cbd
000002a0: 0d2c 123b 756c 48bc 49ed af3d 85bb 813c
000002b0: f30c d2bc f6cf ab3b 9638 e73c 072f 61bd
000002c0: 64c2 233d eefe 65bc 2ad9 a93d 40ac adbc
000002d0: 1169 1ebc 9ece 3b3d 4b74 a83d cc5c d23d
000002e0: 84f2 d3bc f56f 403d ec56 c53b 2fd7 f5bc
000002f0: 9004 223d 8e87 173d 1fe5 e33c 89aa 833d
00000300: abdb a4ba f21f 6abc d076 7fbd 6dd4 683d
00000310: 2afe 04bd e785 37bd 4a3a b0bd 7db3 e5bb
00000320: 3537 683d 0fa1 383d 632d 6abd 8506 25bd
00000330: 11ae 403a 3154 193c f011 803b 04bf f73c
00000340: 7f20 753d 7b8e 81bd f14a 70bd a72b da3c
00000350: 56cb 693d 6c07 d33b ec5f 43bd cca0 413d
00000360: 3017 b83c 498f ff3c 493e 9dbb 1811 b23d
00000370: 75b5 693d 3bdd 4b3d ec30 88bc 20b2 a6bc
00000380: 01f8 3a3d 34e5 b8bc f2fb 30bb d110 db3b
00000390: 279c 343c e114 fe3c f4d7 7b3d eaa4 5d3d
000003a0: bf9b 5b3b df4d 6d3d b6a2 67bd 18f4 51bd
000003b0: f37c 813c 1498 0abd 5ca2 ed3c 99b0 a93c
000003c0: f298 b3bb ac4c 9f3c 9267 0bbd 39b5 b13d
000003d0: 7d04 8f3a ca81 8f3d edef 283d 3690 463d
000003e0: a521 d13c 5dd5 473d 29cf 843d e4db 7c3b
000003f0: 1f6c 91bc d713 7c3c 75ac 413c 2bb6 c1bd

action_model._discrete_distribution.branches.1.bias f4 [3]
-0.005329113 -0.0019545965 0.009665622
00000000: d79f aebb b018 00bb 8f5c 1e3c

action_model._discrete_distribution.branches.2.weight f4 [2, 128]
0.017617404 -0.0061311373 -0.0015917383 0.0024049345 -0.010826542 0.017678652 0.024094904 0.029184222
0.0065486827 -0.009127846 0.003701556 0.01772205 0.009485788 -0.0052128797 0.003925849 -0.026676156
0.0001397433 0.008867254 0.008561859 0.0023452064 -0.0018836977 -0.015467904 0.01407598 0.0039225784
0.013771595 0.010813235 -0.026740488 0.015387182 -0.005397873 0.0017456682 0.016219847 0.007594121
0.0038305128 0.0019214951 0.0062709562 0.014963653 -0.014362108 0.012636036 -0.003654633 0.0019125373
0.019484177 0.017969768 -0.011361653 0.020047287 0.01245823 0.01124194 0.01933798 -0.00967472
0.009666306 -0.011846271 -0.00016931922 0.0010812544 0.003997415 0.012877287 0.008685766 0.0035525872
0.012880629 0.014809124 -0.0070393533 -0.0041509476 0.04008238 -0.013945883 0.0053823823 0.043462824
0.0005964248 0.00319813 -0.003247286 -0.0010107225 0.0048131044 -0.0028638174 -0.030232375 0.006128961
0.027945401 0.0030805387 -0.0032417933 0.00022388718 -0.0067810584 0.014545763 0.00697817 0.00917229
0.009424052 0.009956396 -0.00655462 0.00638134 0.012957025 0.018142523 -0.013330257 0.027432902
-0.0008489996 -0.002355508 -0.00965558 0.023410628 0.028086536 -0.014126762 -0.00671849 0.0027838196
-0.020393863 -0.0063667814 0.0029404664 -0.0056970404 0.015945086 0.020781992 0.016960824 0.0007761657
0.030871924 0.008198986 -0.002841054 -0.00013812493 0.00092823786 0.0014357683 -0.0010776522 0.010134947
0.012987281 0.017217632 -0.01907543 0.016715324 0.02242673 0.017476415 -0.011918068 0.0076024514
-0.032189876 -0.0031273335 0.004724417 0.0083123315 -0.004038926 0.011916586 0.017800525 -0.019927036
-0.013553056 -0.008823279 0.001241303 -0.012927636 0.007899599 -0.02931418 -0.015740126 -0.0030552607
-0.0059536034 0.016936803 -0.0017245918 -0.024117066 -0.013980127 -0.012538102 0.0045327796 0.017767645
0.006306849 -0.015620205 0.003458489 -0.02022431 0.0037468683 -0.0050273756 -0.010432371 0.010504686
0.0017237946 -0.009479914 -0.002647469 -0.010481988 0.009570817 -0.0030853665 -0.013449611 -0.012045305
-0.0066799745 -0.0096670855 -0.014392459 -0.018723154 0.02077761 0.017711926 -0.0016290353 0.011705521
-0.012483326 -0.020448687 -0.008097264 0.011244542 -0.0088582495 -0.011089099 -0.01883564 -0.012652393
-0.0156798 0.012854861 -0.0142482575 0.008674927 -0.009942634 -0.0005827638 -0.001068139 -0.010123769
-0.00021084935 -0.02544093 0.014209096 -0.0052931197 -0.012813494 0.02367847 0.0067978892 -0.0043824525
-0.0007148469 0.0034127175 0.015763117 -0.015982421 0.004676154 0.0082893185 0.018650832 0.0009327672
-0.0265086 -0.0132327 0.013289454 -0.0017738942 0.008527221 -0.0073334747 -0.016121892 -0.01016396
-0.022469612 -0.0064998223 0.0029578602 -0.013010883 -0.008338215 -0.018091802 -0.014334466 -0.008814604
0.0023984395 0.028924763 0.0099755265 -0.0100575425 0.0007491358 0.010193569 -0.012579904 -0.015446302
0.013439465 0.004536238 -0.0026349493 0.011348124 -0.0087629035 -0.001502323 -0.008083842 0.0009280101
-0.013387446 0.00097564154 0.021876855 -0.0069500124 -0.003585486 -0.005674946 -0.013404107 -0.008932179
-0.010847225 0.0010109042 -0.0036789142 -0.0072497674 -0.0086002825 -0.009640722 -0.014807808 -0.017771484
-0.0029510527 -0.01375882 -0.023879027 0.014229147 -0.005890652 -0.018905723 -0.029493013 0.008192318
00000000: 6052 903c b5e7 c8bb e0a1 d0ba 1b9c 1d3b
00000010: cf61 31bc d2d2 903c ad62 c53c c013 ef3c
00000020: 5596 d63b f68c 15bc ce95 723b d52d 913c
00000030: 476a 1b3c ced0 aabb 69a4 803b f487 dabc
00000040: 0e88 1239 f547 113c 0a47 0c3c 09b2 193b
00000050: 68e6 f6ba 176d 7dbc f09e 663c f988 803b
00000060: 42a2 613c ff29 313c de0e dbbc 851a 7c3c
00000070: a4e0 b0bb e8ce e43a 7cdf 843c 1bd8 f83b
00000080: 5709 7b3b adda fb3a 987c cd3b 1c2a 753c
00000090: 0c4f 6bbc 6007 4f3c 9182 6fbb 1aae fa3a
000000a0: 489d 9f3c 5635 933c 3a26 3abc 353a a43c
000000b0: 9b1d 4c3c 1d30 383c af6a 9e3c b782 1ebc
000000c0: 6d5f 1e3c dd16 42bc 488b 31b9 e1b8 8d3a
000000d0: bffc 823b 42fb 523c be4e 0e3c 86d2 683b
000000e0: 4609 533c f8a1 723c 60aa e6bb ac04 88bb
000000f0: 6c2d 243d 467d 64bc b25e b03b 1306 323d
00000100: 6459 1c3a b897 513b 6bd0 54bb 387a 84ba
00000110: 3fb7 9d3b e2ae 3bbb e3a9 f7bc 74d5 c83b
00000120: c1ed e43c dde2 493b 4474 54bb 42c3 6a39
00000130: a433 debb 5a51 6e3c 22a9 e43b 5f47 163c
00000140: 5767 1a3c 2720 233c 23c8 d6bb 8f1a d13b
00000150: b449 543c a19f 943c 2667 5abc f7ba e03c
00000160: 668f 5eba de5e 1abb 7032 1ebc a5c7 bf3c
00000170: bc15 e63c ef73 67bc c726 dcbb be70 363b
00000180: 0811 a7bc 6fa0 d0bb d7b4 403b 3dae babb
00000190: 459f 823c ff3e aa3c 6df1 8a3c 9977 4b3a
000001a0: 1ee7 fc3c 0a55 063c fa30 3abb a1d5 10b9
000001b0: fd54 733a 6430 bc3a 0240 8dba 0c0d 263c
000001c0: 9bc8 543c fe0b 8d3c 1444 9cbc 93ee 883c
000001d0: 43b8 b73c b32a 8f3c 0044 43bc fc1d f93b
000001e0: 88d9 03bd f3f3 4cbb 48cf 9a3b 7230 083c
000001f0: f858 84bb c93d 433c 68d2 913c 063e a3bc
00000200: a30d 5ebc 848f 10bc 38b3 a23a 6fce 53bc
00000210: 526d 013c 4b24 f0bc 70f1 80bc c53a 48bb
00000220: 7216 c3bb 0dbf 8a3c b30b e2ba 2791 c5bc
00000230: e70c 65bc 9d6c 4dbc b687 943b 748d 913c
00000240: afa9 ce3b e3eb 7fbc d1a7 623b 74ad a5bc
00000250: 058e 753b afbc a4bb 89ec 2abc d91b 2c3c
00000260: f3f0 e13a a451 1bbc 2981 2dbb a5bc 2bbc
00000270: ebce 1c3c dc33 4abb c25b 5cbc ac59 45bc
00000280: b0e3 dabb b262 1ebc 59ce 6bbc 4d61 99bc
00000290: ce35 aa3c 9a18 913c 5b85 d5ba 83c8 3f3c
000002a0: dd86 4cbc 0184 a7bc 63aa 04bc 073b 383c
000002b0: 3122 11bc 0daf 35bc 334d 9abc fc4b 4fbc
000002c0: ed72 80bc 329d 523c 8671 69bc 4821 0e3c
000002d0: 6ee6 22bc 9ec4 18ba cc00 8cba 2ade 25bc
000002e0: 7117 5db9 7f69 d0bc 45cd 683c e871 adbb
000002f0: b0ef 51bc 5af9 c13c d4c0 de3b ad9a 8fbb
00000300: 9064 3bba e6a7 5f3b a721 813c 91ed 82bc
00000310: 6c3a 993b eccf 073c a1c9 983c f284 743a
00000320: 9028 d9bc f7cd 58bc 03bc 593c 0382 e8ba
00000330: c2b5 0b3c a54d f0bb 0f12 84bc bd86 26bc
00000340: 3112 b8bc 76fc d4bb a9d8 413b 992b 55bc
00000350: 029d 08bc 4235 94bc 1cdb 6abc 216b 10bc
00000360: 232f 1d3b a0f3 ec3c 6470 233c 64c8 24bc
00000370: a761 443a ed02 273c f11b 4ebc 7c12 7dbc
00000380: 3431 5c3c b9a4 943b 1daf 2cbb 7bed 393c
00000390: 4892 0fbc 98e9 c4ba 1772 04bc b445 733a
000003a0: 0557 5bbc 32c2 7f3a 1737 b33c eebc e3bb
000003b0: 79fa 6abb e6f4 b9bb e69c 5bbc 4658 12bc
000003c0: 8fb8 31bc 5180 843a f019 71bb 758f edbb
000003d0: 33e8 0cbc 1ef4 1dbc 739c 72bc 8195 91bc
000003e0: 7366 41bb ac6c 61bc f39d c3bc 5e21 693c
000003f0: 5f06 c1bb 2de0 9abc 559b f1bc 1239 063c

action_model._discrete_distribution.branches.2.bias f4 [2]
0.0064178105 -0.0064178105
00000000: 7f4c d23b 7f4c d2bb
