Assets/Brain/5(50%).onnx (onnx, 120445 bytes, 11 tensors)

discrete_action_output_shape f4 [1, 3]
00000000: 0000 4040 0000 4040 0000 0040
3.0 3.0 2.0

network_body._body_endoder.seq_layers.0.weight f4 [128, 90]
00000000: 1c79 0d3d 4188 a3bd c67c e0bb df8e 52bd
00000010: 337e a03d 737c d43d 92e3 ab3d 065d fabd
00000020: 3025 813d 80db 573e 1315 6c3d f5a2 1f3d
00000030: fa97 d2bd 0f71 bbba 9492 15bd 60dc 4b3e
00000040: 2e7f 0b3c 6be7 47bd 0cd4 22bd 7ab8 8f3d
00000050: 0e90 913d f950 debd 77cf c9bc da68 62bd
00000060: 3024 dfbd 2f9d 43be bfbb 333e 5b26 a43d
00000070: b95a 56bd 17f4 a6bc 6214 d2bd b4fa 233e
00000080: 243e 2d3e bdaf e93d 3c94 15bd 8307 3c3e
00000090: 5748 703c 9bab 1abd ca48 a83d 4c15 b4bd
000000a0: 55bd 043d a110 ff3c fe2b 67bc 0b2a 1dbe
000000b0: ee0d 783d 2743 f73c f76d 383e 57c7 893d
000000c0: 4356 063e b7ab 9ebc 0703 adbc 3ee5 343c
000000d0: 36a0 1fbd 80e7 88be 4d47 5d3d e917 243d
000000e0: 7137 6b3e 49ae 013d 0956 773d ede3 3a3d
000000f0: ac34 cdbd 9aea f13d eef4 7f3d 75b4 e23d
00000100: 2e1a bf3d 40c1 793c 3a06 66be ee54 a53d
00000110: d61d 253d b44d 1e3e 14cd 303d b5c3 333e
00000120: 6e30 66bd db5c a7bd 974d f3bb 0b20 4d3c
00000130: f095 483d b792 ea3d ea54 003d 5684 68bd
00000140: 4d0b 85bd 0fe1 593d c06c c5bd 5be1 cfbd
00000150: 1704 2d3d d521 6c3d 23a0 81bd 2594 bb3d
00000160: c393 b23c 7ce9 bbbd 06e2 fd3c f2c9 1fbe
00000170: 9e65 16be de18 7b3d e746 38bd 6249 903d
00000180: c10a 85bd 8f59 313d 13a4 853d b9ac 90bd
00000190: 443e 603e 5dce a73d a6b6 2f3e 9418 253e
000001a0: 5e28 3d3d 5172 803d 7aa4 1ebe daa4 3cbd
000001b0: a2d3 abba de5a e03d 2904 bebd 106e cabd
000001c0: a891 df3d 0285 cebd 3756 6ebd baac cabd
000001d0: c5ac 6a3d abf3 073e 2b4e 8e3d 680c cbbc
000001e0: c9cd a3bd 794a d2bd ccae 263d 1445 ca3d
000001f0: aee8 f93d c2db 88bd 4246 dfbc e294 43bc
00000200: 62d0 a73e b7c4 043e 3924 963c e888 b53c
00000210: effa 0cbd 12a3 cc3b ec61 42bd 0ec1 02be
00000220: 27fd 86be 073f fd3d cfe4 613e e75c 26be
00000230: e065 e6bc 7842 373e 9646 2bbe 47d7 23bc
00000240: e8db 483c 25be 003d 9325 073e a849 71be
00000250: 8a20 80bd aa45 463d 0ac7 0f3d 8e9b 4bbd
00000260: e5d1 c1bd 5ed4 08bd 2911 333e 6931 86bd
00000270: 145e 113e 05d7 893d 5dca 1bbc c70d f1bd
00000280: bf73 15bd bd84 fe3d 3fc1 4abd 0fb1 58be
00000290: cdab 0ebe 92db babd 4509 033d 6218 713e
000002a0: 2d16 11be 9fb9 17bd 0828 2c3e e8ce d1bd
000002b0: 067b d8bb 3d89 cabc 4f7b ecbd b743 eb3d
000002c0: c898 0a3e 874e 903d 3a84 babd 68b5 f73c
000002d0: f56d 73be dd57 303d 6204 09be 7da9 12be
000002e0: 47e1 b13c c232 dd3b 5e8e 51bd 3a60 103d
000002f0: c3e7 aebd 1e0d 39be 8069 8a3d 3ffd c83d
00000300: 8e4a 013e be28 203d 5aa9 9b3d 2146 d9bc
00000310: c3c4 49bd dc76 da3d ee4f 3dbe 00ba a13c
00000320: 12ab 9e3d e0c5 0d3c 29a2 d1bc 70fd b8bd
00000330: 7aa7 53be fe48 b13d e3fb 0c3d a38f 1e3e
00000340: c5da 0ebe a562 7b3d 82a1 88bd 403e 373e
00000350: 43b9 773e 7423 f5bb 4ed1 da3c b0cd 62bc
00000360: 3a29 d5bd 719e ed3d c3f2 55bc 16a1 86bd
00000370: a6e7 0b3e 2024 44bd acab 1d3d cad7 753c
00000380: 7969 033e 0640 47bd d366 19bd 5ab7 173d
00000390: 2a81 46bd d31b afbd 3f06 653c dad5 cebd
000003a0: a646 9ebc 9f0c 36be 8a99 ee3d f5a6 52bd
000003b0: 0733 e03d 233f 50be 3d11 5abd b0e6 0dbe
000003c0: f7e7 54bd 5dfe 9e3d 33f5 383c cc60 f8bd
000003d0: aceb 803c cbce a73d d943 613b 1a16 933d
000003e0: ca8e ecbd ca09 74bd b74a 003c 1e21 0cbd
000003f0: 5411 be3d 0e73 11bd f47f 29b9 6f51 12bd
0.034539327 -0.07984973 -0.0068508117 -0.051405784 0.078365706 0.10375299 0.08393015 -0.12224774
0.06305921 0.21079826 0.057637285 0.038973767 -0.102828935 -0.0014300662 -0.03651674 0.19908285
0.008514209 -0.04880468 -0.039753005 0.07017608 0.071075544 -0.10855288 -0.02463506 -0.055275775
-0.10895574 -0.1910293 0.17552088 0.08015128 -0.052332614 -0.020380063 -0.10257794 0.16013604
0.16918236 0.114104725 -0.03651832 0.1836224 0.014665685 -0.037761312 0.082170084 -0.087931246
0.032407124 0.031135859 -0.01410961 -0.1534807 0.06056016 0.030183388 0.18010698 0.06727474
0.13118844 -0.01936899 -0.021119608 0.011040984 -0.03897115 -0.2673912 0.054023076 0.040061865
0.22970368 0.031660352 0.060384784 0.045627523 -0.10019812 0.11812325 0.062489443 0.11069576
0.09331165 0.015243828 -0.22463313 0.0807284 0.040311657 0.15459329 0.043164328 0.17555125
-0.05619853 -0.08172008 -0.007425021 0.012519847 0.048971117 0.11453765 0.03133098 -0.05676683
-0.06496296 0.05319315 -0.09639883 -0.10150405 0.04224023 0.057649452 -0.06329372 0.09159116
0.021798974 -0.09175393 0.030991565 -0.1560438 -0.14687201 0.061303012 -0.044989493 0.07045247
-0.06496192 0.0432983 0.06525435 -0.07064194 0.21898752 0.081936575 0.17159519 0.16122657
0.046181075 0.06271804 -0.1549243 -0.046055652 -0.0013109336 0.109548315 -0.09278137 -0.09884274
0.109164536 -0.10083963 -0.05818769 -0.09896226 0.057293672 0.13276546 0.06948503 -0.02478619
-0.07998235 -0.10268111 0.040694043 0.09876457 0.12202583 -0.066825405 -0.027255181 -0.011937352
0.3277617 0.12965666 0.01832782 0.022160009 -0.034418996 0.0062450254 -0.047456667 -0.12768957
-0.26365015 0.12365537 0.2205994 -0.16246377 -0.02812475 0.1789645 -0.16726145 -0.010000057
0.012259461 0.031431336 0.13197927 -0.23563254 -0.06256206 0.04840628 0.035101928 -0.049708895
-0.09463862 -0.033405654 0.17487015 -0.06552393 0.14196044 0.06730465 -0.009508696 -0.11770206
-0.036487337 0.124276616 -0.0495007 -0.21161292 -0.13932724 -0.09123911 0.031991262 0.23544458
-0.14168616 -0.037042256 0.16812146 -0.10244542 -0.0066064624 -0.024723643 -0.11546957 0.11487525
0.13534844 0.07046228 -0.091072515 0.030237868 -0.23772414 0.043052543 -0.13380578 -0.14322467
0.021713866 0.0067504356 -0.051161163 0.03524802 -0.08540299 -0.1807141 0.06758404 0.09813928
0.12626097 0.039101355 0.076006606 -0.026522698 -0.049259912 0.10667202 -0.18487522 0.019742012
0.07747473 0.008653134 -0.02559002 -0.09032714 -0.20669356 0.086565 0.034419905 0.1548448
-0.13950641 0.06137337 -0.0667143 0.1789484 0.24191765 -0.007481033 0.026711132 -0.013842985
-0.10408254 0.11602486 -0.013058367 -0.065736935 0.13662586 -0.047886014 0.038493797 0.015005061
0.12833203 -0.048645042 -0.037451576 0.037040092 -0.048463024 -0.08550229 0.01397854 -0.10099383
-0.019320797 -0.17778252 0.11650379 -0.051428754 0.10947233 -0.20336585 -0.053239096 -0.13857532
-0.05197903 0.0776336 0.011288929 -0.121278375 0.015737377 0.081937395 0.0034372716 0.0718195
-0.11550672 -0.059579648 0.007830313 -0.03421127 0.09280649 -0.035510115 -0.00016164762 -0.035722192

network_body._body_endoder.seq_layers.0.bias f4 [128]
00000000: 256d a03c 5cdc e33b 93f6 54bc 78b1 4a3c
00000010: 4356 0a3b 40b1 fa3b 3987 bd3c e3e1 14bc
00000020: db95 483c 9273 593c 79a4 babb c760 493b
00000030: b794 633c e995 7ebb 1e5d 90bb ce28 8abb
00000040: 886b 6cbc d5f2 c4bc e9d0 aa3c bbab 703b
00000050: 46ee e43b e16c c13b dae9 d53b 824a 2abc
00000060: 4e79 bbbb e123 ab3b 3b7e 0fbd 1832 48bb
00000070: e0d8 be3c 7abb febc c4db d13b 804d 283c
00000080: b92a ee3c bdee 1d3d 9919 883b 027f a73b
00000090: efd6 a13c 644a 8cbb 2904 8bbc c92d ba3c
000000a0: 5fd8 3e3c 3e9d c43b 8a21 813c e483 c53b
000000b0: 7f58 96bb e2ef 2a3c 6bfc 7cbc 7b4a 0f3c
000000c0: 0ba6 c2bb 06d3 223a 63a4 0e3d 039c b13c
000000d0: 240e 9e3c bef2 aa3b 866e 81bc a199 3d3c
000000e0: 9481 59bb fb78 aebc fbeb 7cbb 536f 4c3c
000000f0: bd05 4dbb f16e 703c 0428 dfbb 686b 123d
00000100: 358c 92bc 591c f9bb 5a91 11bc 83ad 84bc
00000110: 181c 37bc caeb 84bc 110c ae3b e9d3 1fbd
00000120: 2c0a e13c 079e 1f3b 89cf 17bc fc63 11bc
00000130: e42b 763b 9e5f 003c cca0 85bb 281a 97bc
00000140: 1cb0 163d 92aa 0a3c 5e11 5abc b44d 593c
00000150: e8f3 e23c fc31 bf3c df91 013c b6b9 6b3d
00000160: f1c9 d2bc 0e6e f33c 6101 9cba 13e5 d43c
00000170: 8d3a f43c a1fb cc3c 83b5 833c 7f99 e3ba
00000180: b1bf d2bb 44cf d13b 44c1 0bbd d85e 9dbb
00000190: c1a5 7fbb a98c d33b 6b24 ab3c 50ef fc3c
000001a0: 8e64 373c 11c8 ac3c ef1d 363d 1686 d7bb
000001b0: a211 2e3c 178f 843c 40ae fe3b 8021 8dbc
000001c0: d376 9e3c 29f2 243c f380 c83c cb37 523c
000001d0: e2a3 8cbb c65a 8b3b e43d 833d b0f3 163c
000001e0: bca3 b93c 3771 403c 2865 653c 03cb 993b
000001f0: b768 89ba 7661 aabb 246e 2f3c 9d95 bf3c
0.019583294 0.006953759 -0.012998241 0.012371413 0.0021108545 0.0076505244 0.023135768 -0.009087059
0.01224276 0.013272183 -0.005695876 0.003072785 0.013890437 -0.0038846678 -0.0044056317 -0.00421629
-0.014429934 -0.024041573 0.02085157 0.0036723453 0.006986412 0.005902872 0.0065281214 -0.010393741
-0.0057212478 0.005222783 -0.035032492 -0.0030547436 0.023296773 -0.031095255 0.006404372 0.010272384
0.029073106 0.038557757 0.004153442 0.005111576 0.019755809 -0.004281329 -0.016969757 0.02272691
0.011648267 0.00600019 0.015763063 0.0060276855 -0.0045881863 0.010433169 -0.0154410405 0.008745785
-0.005940204 0.00062112545 0.03482474 0.021680837 0.019293852 0.0052169254 -0.015799772 0.0115722725
-0.0033188807 -0.021297922 -0.0038592804 0.012477714 -0.0031283938 0.014674888 -0.00681019 0.03574696
-0.017889122 -0.0076022563 -0.008884752 -0.016196018 -0.011176132 -0.016225714 0.005311497 -0.039020453
0.02747067 0.0024355666 -0.009265789 -0.008873936 0.0037562782 0.007835297 -0.0040780064 -0.01844509
0.036789045 0.008463519 -0.013309805 0.013263155 0.027704194 0.023339264 0.007908314 0.057550155
-0.025731059 0.029715564 -0.0011902266 0.025988137 0.029813075 0.02502233 0.016077762 -0.0017364471
-0.006431543 0.006402882 -0.03411986 -0.004802566 -0.003900871 0.006455977 0.020891389 0.030875832
0.011193408 0.021091493 0.04446214 -0.0065772636 0.010624321 0.016181512 0.007772237 -0.017227888
0.01934377 0.010067501 0.02447555 0.012830685 -0.0042919973 0.0042527644 0.06408289 0.009213373
0.022661082 0.0117457425 0.014001168 0.0046933903 -0.0010483478 -0.0051996065 0.010707412 0.02338677

network_body._body_endoder.seq_layers.2.weight f4 [128, 128]
00000000: e5a3 fb3d bad3 c13d 9839 e23c 151e fe3d
00000010: 7b3d 1fbd 1f4e a63d 2763 dc3d df20 debd
00000020: a4ad 25be 3b72 133e bfae 433d e623 8c3d
00000030: 4b80 9dbd 2919 b3bc 6c19 1b3e 6f53 213e
00000040: a019 dcbd 2f7e 543e 3a03 aa3d 164a 1bbd
00000050: aa89 90bd 9c29 15bd ff92 7fbd 3de4 cebd
00000060: 4932 1c3e fbd0 863c c231 92bd 5c06 64bd
00000070: b579 0fbe 747c e6bd 5913 b03d 54f1 87bd
00000080: 8f16 b93c fbe3 29be b2cc 5dbd 946d 193e
00000090: 3cf1 23bd 5af9 05bd cdc0 a13d bec1 fdbd
000000a0: 2b23 9ebd e47c 393e 38a1 94bd 421b d93d
000000b0: a5ab f73d 91b9 113e 5c10 0a3d 6af8 c33d
000000c0: 6c76 51bd fca9 a83d c44c 81bd ed93 243d
000000d0: bfee e1bd 4658 c3bc fd9d 2f3b 0a25 7abd
000000e0: f6a3 83bd e26a 983d 2b07 83bd 5170 7bbd
000000f0: e469 9cb8 de4e 8fbd a937 dbbd 28a8 b6bc
00000100: b738 9ebd eb9d 263c 5acb 61bd 8456 313e
00000110: 7ad3 7ebd 9058 2fbe 69c1 d8bd 7e8c abbd
00000120: aff9 fb3d 1d06 bd3c 153b 8b3d d7c0 553d
00000130: 0425 14be 2351 033e 1780 98bd 7cb4 353e
00000140: 594b c53c 4958 13bb c544 12bd c05c babd
00000150: e9ff 2b3e 8352 543d d9ca 05be 8e15 2a3e
00000160: 5899 11be 6b90 10be b74e 41bd 97da 733c
00000170: af5f 973d f106 f43d 8036 2fbd ef11 313c
00000180: 74ca 0bbd cfcf 04bc 0d71 90bd 14c9 d73b
00000190: f03f aa3c 69d2 a43d f28a 963d 70a2 2cbe
000001a0: 7d76 44bd 3af6 cc3d 3818 6ebd f554 873e
000001b0: 8970 3d3d 2f6d ed3d 2eb5 1bbe 3553 ca3c
000001c0: d718 713d ffcb 9b3d 94db a9bc fa32 263c
000001d0: 4232 cbbc 2150 0e3c ef8f 08bd e5f0 613d
000001e0: b7a4 e7bc d561 bdbb 0b17 b43d 2240 c0bd
000001f0: f0fb acbb cd1f d4bd a5f1 42bc 1edf c43d
00000200: 9bdf 473e 743f f3bd 1f25 bf3d 5450 f9bd
00000210: 103c 9f3d 7567 b9bc 688b 60be 2497 d4bc
00000220: 934e 8b3c 9639 ae3d 7c9d 0e3d 4c48 b63d
00000230: d850 88bc a39e 0f3d 4910 49bc 47ef 4cbe
00000240: fec5 a13c 3027 aabc 73da 57be c468 8cbd
00000250: 02cb 653d 543c 05be fe3e c2bd a63a 25be
00000260: a5a4 1f3c c729 34be 727c 7ebb d890 883d
00000270: 0056 62bd b407 203d a326 433d 01da e0bd
00000280: eade 3ebe dd1e 73be 4070 d9ba 896b 21bc
00000290: 986a c0bd f98f d73d 36fc 06bd 4c80 5bbe
000002a0: bb5b 06be 3f8d e93d 5bb5 cb3c 3d32 8c3d
000002b0: 8dc5 e33d 927e 2d3e 8139 03bc 5e05 a1bd
000002c0: 5134 dfbb 07e6 8fbc dba1 123e 1014 0cbe
000002d0: 0b29 27bd f3b8 62bd 7cce a8bc b2ae 913d
000002e0: 41e9 4dbd d4fd d1bd 5e85 173d 10bf 11be
000002f0: b1fe 0bbc 093d a4bd ee98 ddbc 1a9a 953d
00000300: 54ef 1bbd 304c e93d db44 9fbd 89bc a13d
00000310: debc aabc 2350 8d3c d196 20be 889a 0c3c
00000320: 8683 c53c 20d9 05be cace 11bc 39cc 78bd
00000330: 8256 31be 0a57 033e 28aa 033e 1080 95bd
00000340: 669f 833b f6cd d2bd f283 f4bd af44 63bd
00000350: cb21 d8bd 7fce cb3b 1c11 203d 9c5f 2cbe
00000360: 02b3 f33d dee5 283d 35d3 b73d d063 cdbc
00000370: 247f c13c b62a 0d3e abbf f9bd eece 76bc
00000380: 7dba 213d de2a 543e 4dd4 5fbd 162c 51bd
00000390: 0cac c13d ba27 94bb 050b 40be 905c eebc
000003a0: 4595 be3d 3b9a 18bd 36fe a6bd 71b3 5b3d
000003b0: 76c2 3e3e 7c2c d6bd 4755 113e 1452 b2bd
000003c0: e117 8e3d 14b0 123e c302 17bd aacf 8bbd
000003d0: 3ab9 133d f3bb 34bd ab97 2abe 4887 3e3e
000003e0: 01ba 49bd f9c7 16bb b1c2 98bd 0074 c6bc
000003f0: 6608 aabc ba00 83bb c588 063e c84d 313c
0.1228712 0.09464212 0.027615353 0.124080814 -0.03887699 0.08120369 0.10761099 -0.108461134
-0.1617952 0.14399044 0.047774073 0.068427846 -0.076904856 -0.021862583 0.15146416 0.15754484
-0.10747075 0.2075126 0.08301397 -0.03791245 -0.07057507 -0.036416635 -0.062396046 -0.10102127
0.15253557 0.016457072 -0.07138397 -0.055670127 -0.14011271 -0.11254206 0.0859744 -0.066378266
0.022593765 -0.16590874 -0.05415029 0.14983207 -0.04002498 -0.032708503 0.07898102 -0.12390469
-0.077215515 0.18114048 -0.072573125 0.10600902 0.120932855 0.14230944 0.033707008 0.095688656
-0.051138327 0.08235547 -0.0631347 0.040180136 -0.11031865 -0.023845803 0.002679705 -0.06107048
-0.064277574 0.07442261 -0.063978516 -0.06138641 -7.458383e-05 -0.069974646 -0.10703976 -0.02229698
-0.07725661 0.0101694865 -0.05512557 0.1731816 -0.0622134 -0.17123628 -0.10583765 -0.08376406
0.12303483 0.023074204 0.067983784 0.05218586 -0.14467245 0.1282392 -0.07446306 0.1774463
0.02408378 -0.0022483042 -0.035710115 -0.09099722 0.1679684 0.0518365 -0.13065661 0.16609785
-0.14218652 -0.14117591 -0.04719421 0.014883659 0.07391297 0.119153865 -0.042776585 0.010807498
-0.03412862 -0.008106186 -0.07052813 0.0065852497 0.02078244 0.08047945 0.073507205 -0.1685884
-0.04796456 0.100079015 -0.058128566 0.26432005 0.0462499 0.11593091 -0.15205833 0.02469788
0.05886158 0.076072685 -0.020734586 0.01014399 -0.024804238 0.008686096 -0.03334039 0.055161376
-0.028276784 -0.0057794848 0.087934576 -0.09387232 -0.0052790567 -0.10357628 -0.011898433 0.09612869
0.19518892 -0.11877337 0.09333252 -0.121735245 0.07775128 -0.02263234 -0.2192818 -0.025950976
0.01700524 0.085070774 0.034818158 0.08900508 -0.016640112 0.035063397 -0.012271949 -0.20013152
0.01974773 -0.02077064 -0.21079426 -0.0685592 0.056101806 -0.13011295 -0.09484671 -0.16135654
0.009743844 -0.17594062 -0.00388315 0.06668252 -0.055257797 0.039069846 0.04764427 -0.10979081
-0.18639722 -0.23742242 -0.0016589239 -0.009852299 -0.09395331 0.105255075 -0.03295537 -0.2143566
-0.1312093 0.11403894 0.02486675 0.0684552 0.11121664 0.16942814 -0.0080093155 -0.07862352
-0.0068116565 -0.01756574 0.14319555 -0.13679528 -0.040810626 -0.055352163 -0.020606272 0.071133986
-0.050271276 -0.10253492 0.036992423 -0.14233041 -0.00854461 -0.08019454 -0.027050462 0.07304783
-0.038070038 0.11391485 -0.07776805 0.07897288 -0.020842012 0.017250126 -0.15682532 0.008581765
0.024110567 -0.13071108 -0.0088994 -0.060741637 -0.17318156 0.12826172 0.12857878 -0.072998166
0.0040168045 -0.1029319 -0.11939229 -0.055485424 -0.105533205 0.0062196846 0.039078817 -0.16833347
0.118993774 0.041234843 0.089758314 -0.025072008 0.023620196 0.13785824 -0.12194761 -0.015063984
0.03948449 0.20719478 -0.054645825 -0.051067434 0.094566435 -0.0045213373 -0.18754204 -0.029096872
0.09305815 -0.03725646 -0.08153956 0.053637926 0.18628868 -0.104577035 0.14192687 -0.087070614
0.06938148 0.14324981 -0.03686787 -0.06826718 0.036065318 -0.044124555 -0.16659419 0.18606293
-0.049249653 -0.0023007377 -0.074590094 -0.024225235 -0.020755958 -0.0039978893 0.13138111 0.010821767

network_body._body_endoder.seq_layers.2.bias f4 [128]
00000000: 7a61 cf3c 9cb6 103c ba15 1d3c 5b80 263c
00000010: 314e ff3a b306 35ba 06cb 573b 100b 47b9
00000020: d028 cfba f9fd 1f3b f603 c63b c7be bc3b
00000030: 714e 383c 9512 2e3c e0c9 68bb fce7 3e3c
00000040: 22ea 5fbc 9e74 623c 8f3b 543c 85f7 833c
00000050: 0439 d43c a090 9f3b 79c9 363c d3a4 8a3c
00000060: 4ff6 623c 156c fe3b 00eb dc3b 6fa8 b93c
00000070: 6176 f33b e65f 013c b6ad 9e3b 48b8 323c
00000080: ca27 563c 4e71 6c3c eb3d 163c 6431 dc3b
00000090: d7da 09bb 798a 55b9 ef23 953c 6eb5 31bc
000000a0: a76b 4b3a 031e 1c3c 124a d23b 6a36 b2bb
000000b0: 1521 79bc 26dc 903b 656d a93c 67fa c33b
000000c0: b25a 6b3c eafb 5bbc 113a e53c 9aca 8dbb
000000d0: 3422 b23a 5a6b a03c 037b 363d d446 5a3c
000000e0: 6337 b03c 23ee 963b 5742 14bc 2921 ee3c
000000f0: 6edb d03a 9e5a 1b3c aa5f 08bc 3c36 d8bb
00000100: 2047 083c 0f48 3e3b f7ad 623c aab2 c53c
00000110: 202d 5bbb eca9 003c 5e52 43bb 2abf 663c
00000120: 156f 2f39 89f8 0dbb dca1 813c 3f8d 9c3b
00000130: cd9b 85bb 0d3c 593c aad7 5ebc 6deb 03bc
00000140: e26b 7e3b daa6 c43c a2fe 7ebc bbc2 343b
00000150: af85 debb 891b 27bc b966 c2b9 097f b93b
00000160: befc d03a b904 7c3c 16cc 7d39 b94d ddbb
00000170: 8e3a 753b 367e 54bb a13c 8a3c 3810 b8ba
00000180: cf02 eb3c a4f3 e73c 3286 953a 3f10 303c
00000190: 9bae 0abc 775a 993b effe 1a3c 03e6 1d3d
000001a0: b6a8 103b b38f aa3a a4fb 943a 0b9e 493b
000001b0: e742 b2bb 23e9 d1ba 545b 963c 4908 963c
000001c0: e224 9d3c 368c 28bc 4762 483c 185a 133c
000001d0: edc4 c7ba cb50 94b8 175a 793c a05c 4e3c
000001e0: 5582 3c3d b127 f53b 806b 08bc da49 f23a
000001f0: 516c 7bbb 4a3d 453c bedf e13c 5d4b 1ebb
0.025315035 0.0088326 0.0095877 0.010162438 0.0019478259 -0.00069056003 0.0032927408 -0.0001898224
-0.001580501 0.0024412854 0.0060429526 0.005760047 0.011249171 0.0106245475 -0.0035520718 0.011651989
-0.013666661 0.013821749 0.012953653 0.016109237 0.025906093 0.0048695356 0.011156433 0.016924297
0.01385267 0.007764349 0.0067418814 0.022663323 0.0074298833 0.007896399 0.0048424853 0.010908194
0.01307101 0.014431311 0.009170036 0.006719755 -0.002103498 -0.00020364848 0.018205611 -0.010846479
0.0007759877 0.00952864 0.0064175213 -0.0054386156 -0.015205641 0.004420775 0.020682046 0.005980778
0.014364885 -0.01342676 0.02798179 -0.0043271305 0.0013590516 0.01958244 0.044550907 0.013322551
0.021510785 0.004606025 -0.00904902 0.029068546 0.0015934536 0.009482054 -0.008323589 -0.006598262
0.008317739 0.002903465 0.013835422 0.024133045 -0.0033443645 0.0078530125 -0.0029803733 0.014083663
0.00016730682 -0.002166303 0.01582425 0.00477758 -0.004077411 0.013258946 -0.013601223 -0.008051735
0.0038821627 0.024005342 -0.015563639 0.0027581889 -0.0067908387 -0.010199436 -0.00037079098 0.0056608957
0.0015944464 0.015381985 0.00024203988 -0.00675365 0.0037418935 -0.003242386 0.016874613 -0.001404292
0.028687863 0.02831442 0.0011407791 0.010746061 -0.008464481 0.0046799737 0.009460195 0.038549434
0.0022073216 0.0013012796 0.0011366499 0.0030764367 -0.0054401043 -0.0016014915 0.018354096 0.018314498
0.019182626 -0.010287335 0.012230462 0.008993648 -0.0015241184 -7.072239e-05 0.015219233 0.012595326
0.04602273 0.007481538 -0.008326411 0.0018485144 -0.0038364122 0.012038538 0.027572509 -0.0024153807

action_model._discrete_distribution.branches.0.weight f4 [3, 128]
00000000: 1cc7 27bd ab18 393c cc2b 073d f76f 1a3d
00000010: 1628 613c 78b9 a2ba 5053 e33c 04eb 4abb
00000020: f00a b33c 420d bebc 7b55 c4bc 04fd 3fbc
00000030: dcb5 cabc 244d 6cbb 8c01 7cba c77c 89bb
00000040: 10ba 123d f4ef 93bc 71d6 babc 4c16 64bc
00000050: 0cf0 a7bb fb5b a73c 9a96 6c39 5929 67bc
00000060: fe36 0b3d d091 b3bc 167f c5bc 31d2 1f3c
00000070: c7e8 fa3c 22b2 383a 8fc1 d0bc 1be5 0dbc
00000080: 8585 a53c 3d1e 14bc 974d c23c bc77 b63c
00000090: 1ec7 8abc 916f 833a 5b62 acbc 416b 0e3d
000000a0: 77d2 e9bc cee5 46bd 6b08 55bb ecc2 333a
000000b0: 126f 43bc a48d 8dbc 9a30 523c 207b f3bc
000000c0: 2ac6 8d3b 2273 b03c 63dc a4bc 7315 d63c
000000d0: 44a2 c3bb c8da a93c d97d a1bc d737 d13b
000000e0: 3320 8f3b 1300 01bd 9a17 9abc b33a 643c
000000f0: 3ca9 873c 9bb7 f1bc 4c13 9f3b 7eed d3bb
00000100: f5a5 713c 3f4e 73bc b00c e03b 805d 64bd
00000110: e675 a3bb b3d3 ed3b 2b39 e2bb 0348 e3bc
00000120: 3841 d03a e9ea d2bc 7e77 f9bc 05b7 8ebb
00000130: 9fe0 d33c 26c5 49bc 6e4b b9bb dea1 03bc
00000140: f9eb ffbc 3b67 883c 0497 3ebb 4d9e babb
00000150: 9482 e83b 5695 24bc 8895 9ab9 0936 863c
00000160: 59db dc3c 09df 8bbc c99e a63c 202c 553c
00000170: 14c2 2f3c ab8e 73ba 45f0 57bd 34c0 023d
00000180: 34da dcbb 97f4 d73b 15e5 83bc c058 a7b7
00000190: bdfc ed3c 82c8 ddbc 1f85 34bd 2253 2539
000001a0: 3a45 82bb 3e12 1abc fab5 423b a85b 0cbd
000001b0: 4dd8 093d 40f7 393b 4489 f33b 7315 ffbb
000001c0: df9d 9abb e32e c5ba 19f0 b1ba fc9c 32bb
000001d0: f655 2b3d 066c 8f3c 49d9 5a3c 48e9 1d3c
000001e0: 9031 f3bc 8dc7 a23c 860f 1abc cf0f 95bc
000001f0: b397 d7bb fa46 89bc a506 413c 6107 0a3c
00000200: 5346 d63c e031 56bb f224 9bbc 5b1a c3bc
00000210: f927 233b e3be fcbc 7aeb 7bbb 1938 0bbd
00000220: 546b 5cbb fbdc 963d 7958 4cba 8b08 5cbb
00000230: 2ee2 fbbb eced 4b3c 0a2c afbb b8f2 683c
00000240: 6531 86ba e325 6a3d 1d70 ffbc 8161 b5bc
00000250: cfd4 dabc b95f b6bc bdb6 dcbc 6b62 19bd
00000260: 96ad 26bc 5e78 82bb 57b7 49ba 1048 2abd
00000270: 075b f3bc 7400 15bc 3610 ee3b c156 96bc
00000280: 7656 10bc 199f 0bbd a768 fbbc abb9 c9bc
00000290: 9b12 9dbb 702d 073d d52c 47bc ac8f f7bb
000002a0: bad1 443d 1d8c 993d 7298 69bc e0be 9e3a
000002b0: d9c7 f9ba b2fc b7bb 4d2b c4bc f2b7 663d
000002c0: e02f 9cbb 81c9 65bc a414 863d 2d5f 273c
000002d0: 855c 073d e553 8bbb 7b9c fc3c a826 9a3c
000002e0: 0105 c03c 263a a33c 84a6 92bb e331 2abc
000002f0: 72f2 0b3d 54c1 083d 80dc a3bb 2053 5a3c
00000300: 36bf 9dbc f8a8 60bc 8ad3 f33b 29c4 5c3d
00000310: b741 a83c 2ced 3d3a 0d79 ae3b 5e2e 503c
00000320: a8c8 7539 c44d b93c bd96 733d 377b 2f3d
00000330: 5798 f5ba cd3f 703d df7d b7bb 33e9 4bbb
00000340: 3bf7 0a3d 72eb 3ebc af37 80bc 8e9a e83b
00000350: 398d a0bb 6044 7dbc 9672 9d3c 7521 fbbc
00000360: 0ae4 abbc cc73 4c3d 372e 79bc c3d3 4e3c
00000370: 0e93 653c b239 37bb b86a 6a3d 4b98 bfbc
00000380: 759b 483d 12d5 0a3d da10 213b 160d 53bc
00000390: 8a15 20bd 0f70 553b 3a14 dc3c 2ccc 5d3c
000003a0: fd83 86bc ed5c a8bb 26ed 073c 833a 0f3d
000003b0: d5c4 a6bb 543f 2abc d205 7f3b 0201 5fbc
000003c0: 0cf7 3e3d 3984 97bc d6c8 45bd 9f67 863c
000003d0: 4bed 91bb 0b96 82bc 1a5f f5bc 3fc6 f8bc
000003e0: 41d0 a03d d3ce 1dbc 06de 44bb 88b4 4ebc
000003f0: df92 b7ba 9d45 e33c 4ed2 1e3c 66db a0bb
-0.04096137 0.011297385 0.033000752 0.037704434 0.013742467 -0.0012414893 0.027749687 -0.0030962834
0.021855801 -0.023199681 -0.023966542 -0.0117180385 -0.02474492 -0.0036056722 -0.00096132676 -0.004195783
0.035821974 -0.018058755 -0.022807332 -0.013921332 -0.0051250514 0.020429602 0.00022562817 -0.014108979
0.03398799 -0.021920115 -0.02410845 0.009754703 0.030628575 0.0007045587 -0.02548292 -0.00866058
0.020205269 -0.0090404125 0.023718638 0.02227389 -0.01694065 0.0010027756 -0.021042993 0.034770254
-0.02854274 -0.048559003 -0.0032506238 0.0006857354 -0.011928337 -0.017279454 0.01282897 -0.029721797
0.0043266015 0.021539275 -0.02012462 0.026133275 -0.0059702713 0.020734206 -0.01971333 0.0063848305
0.004367852 -0.03149421 -0.018810082 0.013930011 0.01656019 -0.029506495 0.0048545953 -0.0064675203
0.01474904 -0.014850198 0.00683745 -0.05575323 -0.00498842 0.0072579025 -0.0069037876 -0.027744299
0.0015888577 -0.02574678 -0.030452486 -0.0043553137 0.025863944 -0.01231507 -0.005654744 -0.008034198
-0.03124045 0.016650787 -0.0029081712 -0.0056951405 0.0070956443 -0.01004537 -0.00029484578 0.016383188
0.026960062 -0.017074125 0.020339387 0.0130110085 0.010727424 -0.00092909735 -0.052719373 0.03192158
-0.006739879 0.0065904367 -0.016100446 -1.9949279e-05 0.029051179 -0.027073149 -0.044072267 0.00015766596
-0.0039755376 -0.009403763 0.0029710517 -0.034267098 0.033653546 0.0028376132 0.007432135 -0.0077845394
-0.0047185267 -0.001504388 -0.0013575583 -0.0027254215 0.041830026 0.017507564 0.013357469 0.009638138
-0.02968672 0.019870544 -0.009403115 -0.018196015 -0.0065793633 -0.016757477 0.011781369 0.008424611
0.02615658 -0.0032683536 -0.018938515 -0.023816278 0.0024895652 -0.03085274 -0.0038439916 -0.033989046
-0.0033633308 0.073663674 -0.0007795166 -0.0033574428 -0.007686875 0.012446862 -0.005345826 0.014218025
-0.0010238109 0.057165038 -0.03118139 -0.02214122 -0.026712803 -0.022262441 -0.026942605 -0.037447374
-0.010173222 -0.003981634 -0.0007694861 -0.04157263 -0.029706491 -0.009094346 0.007265116 -0.018351914
-0.008809676 -0.034087274 -0.03068955 -0.024624666 -0.0047934777 0.033002317 -0.012156685 -0.007554969
0.048051573 0.074974276 -0.014257537 0.0012111329 -0.0019056752 -0.0056148404 -0.023946429 0.056327768
-0.0047664493 -0.014025093 0.06546906 0.010215563 0.033047218 -0.0042519444 0.030836334 0.01881726
0.023439886 0.019925188 -0.0044754166 -0.0103878705 0.03416676 0.033387497 -0.005000651 0.013325483
-0.019256216 -0.01371216 0.007440989 0.05389801 0.020539148 0.0007245119 0.005324489 0.012706367
0.00023439771 0.02262009 0.059469927 0.042842116 -0.0018737417 0.058654595 -0.005599722 -0.003111434
0.033927184 -0.011652814 -0.015651552 0.0070985025 -0.0048996476 -0.015458196 0.019219678 -0.030655602
-0.020982761 0.04991512 -0.015208772 0.01262373 0.014012111 -0.0027957973 0.05723068 -0.023388049
0.04897638 0.033894606 0.0024576695 -0.012881538 -0.03908304 0.0032568013 0.026865114 0.013537448
-0.016420359 -0.0051380307 0.008296287 0.03496791 -0.005089382 -0.010391075 0.0038913381 -0.01361108
0.04662232 -0.018495666 -0.048287235 0.016406832 -0.0044533364 -0.015940687 -0.029952575 -0.030367969
0.07852221 -0.00963183 -0.0030039563 -0.012616284 -0.0014005563 0.027743155 0.009693695 -0.004908967

action_model._discrete_distribution.branches.0.bias f4 [3]
00000000: c6b0 acbc d3e8 863b dd86 2f3c
-0.021080386 0.0041171103 0.010713306

action_model._discrete_distribution.branches.1.weight f4 [3, 128]
00000000: 67bd a5bc 5282 cb3c ec1d b5bb b290 343c
00000010: 36f4 a03c 78b9 08bc 3fbe 79ba 3a52 1bbc
00000020: ad4f 99bc ff9b 0a3c 4237 9fbc 9f7a b5bb
00000030: 6e92 dfbc 80f0 febb cd5b 113d b6b9 9e3b
00000040: 0d17 283c b2e4 9e3b 2baf adbc e189 38bc
00000050: 69dc 73bc 1b90 923c c751 9439 e7cd 49bc
00000060: 6415 a63b edd3 e1bb a289 80bc f00b c03b
00000070: 0562 3d3c 08b6 e7ba 9132 2cbc 7132 40bb
00000080: 0d33 a3bb cd40 5bbc bde8 b4bc 7f30 9cbc
00000090: c912 00bc faf0 333c a634 0ebc 7433 9c3c
000000a0: 304b 313b 0470 69bc 9318 c1bb 45e9 703c
000000b0: 3db5 473c a6ca f3bc bebe d0bc a470 78bc
000000c0: eefd 8c3b 8a65 983c 31f0 9c3c 36c2 ee38
000000d0: 2851 173c 3bdb b2bc 0110 2639 3605 1b3b
000000e0: 973d 4c3c be2c 65bc 380e 203b 3944 57bc
000000f0: 5bed 463c 7d5b 27bc 4992 9fbb 5399 cd3b
00000100: aa1c 11bc 86e0 bcbc bd7f 483b ba4c d0bc
00000110: e6ed 253c b5ca 45bb f0bf a5ba 433f d9bc
00000120: b531 1f3b 334a 61bc 9683 743c 8fb8 beba
00000130: 1c97 6e3c 79f2 40bc 9b1f 11bb e17f 4bbb
00000140: 0539 8abc e0ed 1ebd 9308 633c d70f 30bc
00000150: 7583 fa3b d461 153b 2348 32bc 357d adbb
00000160: f872 373a 8fd2 18bc c0a2 8b3c 0f26 49bc
00000170: 37c7 7e3c 7615 8abb ee31 703c f10f d2bc
00000180: bdce 58bb e74c 4abd 94d6 5b3b 610c a7bc
00000190: 5fec 09bc 15aa a73b ad85 a0bc 3502 8439
000001a0: 2273 64bc 04f4 6bbc d225 9f3b 43a2 2ebc
000001b0: 864b 2f3c e2a7 ce3c deee aabc b2f6 183c
000001c0: 8966 08bc feda c339 ee84 39ba 96cb 353c
000001d0: 86df 18bb 3276 99ba 8fb7 c8bc 1c8f d5bc
000001e0: c59f 44bb 0fae 5b3c e44d 71ba 898e b4ba
000001f0: dd69 aabc 3f48 543c d6b4 11bd 85ce f83c
00000200: 7bd1 773c 0a8c 66bc f748 e73b 4fed f43c
00000210: 9475 38bb e6e5 d0bc d458 583d 8703 2ebc
00000220: f60f 8b3d 7102 0a3d 394f a7bc a514 07bd
00000230: 9ccc 643c 3921 353d 5477 0dbc 8d17 ed3b
00000240: 606b 3cbb 2539 133d e3cf 1fbd 4689 0bbc
00000250: 5fd6 3abd 05d7 503d 8558 54bc 4be2 a1bc
00000260: ace1 1d3d 26a7 3dbc b2e1 d0bc 04a3 023d
00000270: f861 393d cd5a a6bc 9070 85bc 5281 f3bb
00000280: adb4 663d 1d7e fabc 325d 163d c002 733d
00000290: 687d 023d 2805 553c be43 bdbc 9b87 d3bc
000002a0: 8baa 1e3d 3b57 5a3d 545b 5cbd b8ec 2fbd
000002b0: 52f4 72bc 6f55 f73c 69bb 493d e4f9 3a3d
000002c0: 5029 873c aca1 423b 9705 083d 3701 af3c
000002d0: b5d0 3c3d 4cde 023d d281 373d 265b 403d
000002e0: 4299 3d3d 8a83 383c 5019 09bd a3b6 863d
000002f0: 94df 373c 54cc 423d c1e0 e0bc ea43 1abc
00000300: 5e20 0c3d b155 dabc 4495 303d 3a1a 38bb
00000310: 1662 b9ba d9ce de3c 6a45 a3bb 3f53 9f3c
00000320: 5401 a9bc 2f87 e83c c816 f23c 948e 4dba
00000330: 299c b53a c835 143c ed1d 9dbc d868 fb3b
00000340: ea53 db3c 0a9d a83d fe00 9ebc 2e9e cdbc
00000350: a8cb ffbc ade6 103c b0a2 3c3b 73da c03c
00000360: d727 523d e1c6 b53d 4fb2 003d 68d0 75bb
00000370: bd82 ebbc e1f2 1c3d 202a 403d 2240 c03c
00000380: 7a45 943d 329b bf3d 27b6 03bd 031d f2bc
00000390: 258a 1a3d 13bd c7bc a0dd 123d 2fd2 7a3d
000003a0: 8dfc aeba 9060 453c 556e e5bc 5c3a fa3c
000003b0: a08b c43c b207 903c 31d9 933d d8da 233d
000003c0: 4206 c73d 7fa7 95bc a5d8 4abd 3fb7 f13c
000003d0: a533 033c 0e90 dcbc 2946 893d a761 dd3c
000003e0: 8ae3 723d e66e 143d 3e51 0ebd 899b f9bc
000003f0: 3c92 273d 36bb 623d 9847 763d 5e02 16bd
-0.020231916 0.024842415 -0.0055272486 0.011020826 0.019647699 -0.008345 -0.0009526945 -0.009480054
-0.01871475 0.008460044 -0.019435529 -0.005538299 -0.027291503 -0.0077801347 0.03548794 0.004843916
0.010259402 0.00484904 -0.02120169 -0.011263342 -0.014884093 0.01789098 0.0002828969 -0.012317157
0.005068468 -0.0068917186 -0.015690628 0.005860798 0.011559014 -0.0017678151 -0.010510103 -0.002932694
-0.004980451 -0.013382149 -0.022083635 -0.019066093 -0.007816979 0.010982746 -0.008679545 0.019067504
0.0027052872 -0.014247898 -0.005892822 0.014704053 0.012189207 -0.029759716 -0.025481578 -0.015163574
0.0043027317 0.018603105 0.019157501 0.00011384899 0.009235658 -0.021833053 0.00015836956 0.002365423
0.012465856 -0.013987718 0.0024422538 -0.013138824 0.012141551 -0.010214684 -0.0048697335 0.006274381
-0.008856932 -0.02305628 0.0030593716 -0.025427211 0.01012752 -0.0030180637 -0.0012645703 -0.026519423
0.0024291102 -0.013750601 0.014923951 -0.0014550852 0.0145623945 -0.01177656 -0.0022144082 -0.0031051564
-0.016872892 -0.038801074 0.013857025 -0.010745964 0.0076450654 0.0022793906 -0.010881457 -0.005294467
0.00069980277 -0.009327545 0.017045379 -0.01227714 0.015550426 -0.004213984 0.014660342 -0.025642367
-0.003308221 -0.049389746 0.0033544647 -0.020391645 -0.008418172 0.005116711 -0.019594992 0.00025178646
-0.013943465 -0.01440144 0.0048568035 -0.010658803 0.010699159 0.025226537 -0.020865854 0.0093361605
-0.008325228 0.0003735646 -0.0007076998 0.011095902 -0.002332659 -0.0011708199 -0.02450159 -0.026069216
-0.0030002457 0.013408198 -0.0009205027 -0.0013775389 -0.020802433 0.012956678 -0.03557285 0.030371914
0.015125628 -0.014071474 0.0070582586 0.029898314 -0.0028146254 -0.02550025 0.052819088 -0.010620958
0.06790154 0.033693735 -0.020423518 -0.032978673 0.013964798 0.044221137 -0.008634407 0.0072354735
-0.0028750524 0.03594317 -0.039016616 -0.008516615 -0.045614596 0.05098631 -0.012960558 -0.019761225
0.038545296 -0.011575496 -0.025498245 0.031893745 0.045259446 -0.020306969 -0.016289026 -0.0074311877
0.05632465 -0.030577714 0.03670997 0.059328794 0.031857878 0.013001718 -0.023103591 -0.025821498
0.03873686 0.053305846 -0.053798035 -0.042950362 -0.014828758 0.030192105 0.049250994 0.04564847
0.016499192 0.0029698415 0.033208456 0.021362884 0.046097476 0.03195028 0.04480154 0.046961926
0.046288736 0.01126183 -0.033471406 0.06577804 0.011222739 0.047558144 -0.027450921 -0.009415606
0.034210555 -0.026652189 0.0431111 -0.0028091804 -0.0014143612 0.027198242 -0.00498264 0.019448875
-0.020630516 0.028384773 0.029551879 -0.0007841375 0.0013855743 0.009046026 -0.019179309 0.0076724105
0.026773412 0.08233078 -0.019287582 -0.02509984 -0.03122504 0.00884406 0.0028783493 0.023541665
0.051307525 0.08875824 0.03142005 -0.0037508253 -0.028748864 0.038317565 0.046915174 0.02346808
0.07239814 0.09355773 -0.032156136 -0.02955485 0.0377294 -0.02438215 0.03585589 0.061235603
-0.0013350412 0.012046948 -0.028006712 0.030545406 0.02399236 0.017581794 0.0721916 0.040003628
0.097179905 -0.018268345 -0.049523015 0.029506324 0.0080079185 -0.02692416 0.06702835 0.027024103
0.05929903 0.036238573 -0.034745447 -0.030469673 0.040910944 0.05535432 0.06012687 -0.03662335

action_model._discrete_distribution.branches.1.bias f4 [3]
00000000: cea5 1dbc 71a9 6ebb 5290 553c
-0.00962205 -0.0036416913 0.013034897

action_model._discrete_distribution.branches.2.weight f4 [2, 128]
00000000: 2a83 113c 3d0c ebbb 63bd b63c 8157 aa3a
00000010: 4599 83bc c1f5 19bd 0ef6 f23a f6d7 873c
00000020: 43b1 85ba 327b b7bc b821 043b 14b6 8abc
00000030: 05dd c23c e9b0 913c ea1c 11bc 9255 1bbc
00000040: 3460 423b 5a86 68bc e309 4e3c f345 203c
00000050: 610c da38 2555 843c 2104 0cbc db74 543c
00000060: 1135 ba3a 9064 95bc 03d1 90bc da41 f63c
00000070: 017e 8b3c ce18 fa3b d3c3 f2ba 1e3d e33b
00000080: 16bb f2bb 3d7d 81bb 793a f83c 0ff8 c03c
00000090: df2b 523c 948f e33b e503 303d 0882 4bbc
000000a0: d350 85bc 2346 95bc a040 3bbc 01e9 413b
000000b0: 46b9 95bc f786 963c 86bc e63c 9f95 9abc
000000c0: 595d 6e3c 2172 8abc b4c1 1e3b 7db6 b3b9
000000d0: 26c7 083c 8517 b43c 12dd 5cbc fe10 80bc
000000e0: 9499 6f3c 835e 363b 1342 883c 780f 4c3c
000000f0: 082f c5bb 3c90 6e3c aed0 113c 2a90 fabc
00000100: 4cb0 023d 1578 823c 0c51 723c 94fd cf3b
00000110: 13ab ed3c 11e9 0aba 2d43 adbc 27d4 3e3b
00000120: 719c c7bb 70a5 e1ba 20b0 babc 8092 10bb
00000130: 6b05 85bc 84d0 0a3c d244 4fbc a6e2 c1bb
00000140: 184e 74bb 62c9 9a3c 94da 3a3c 3196 42bc
00000150: 8cc8 893b e910 e7bb 49ec 543c f943 0d3d
00000160: 43fc e43b 36fc a83b 58f3 d63c 0ae9 953c
00000170: f356 62bc 3f33 153d 05ef bd3b 1b30 2b3d
00000180: f19b 893b 3351 783c fa1d f2bb 055b e63c
00000190: eebd 0b3d ee73 1f3c 5329 fb3a 3604 c53c
000001a0: c862 9b3c 00a7 ce3c cd05 c53b 0abf 3dbc
000001b0: d7d8 b73c 85f6 153d 59b7 e4bc 6c37 943c
000001c0: 9896 a6bb dd31 42bc 6da5 3cbc 2ca5 493c
000001d0: d7e4 203c 30eb 143c f7f3 55bb e3d7 433d
000001e0: 9a64 87bc 62c2 0bba dcf2 cc3b d922 b7bc
000001f0: 546f f83c 039e bb3c f8c6 ce3c 1b5e e33b
00000200: 482b 0bbc 4cd7 1fbb d74a d9bc c607 823c
00000210: 37d5 59bc eda6 e03c a935 c1b9 95bf e1bc
00000220: 1096 c1bb 9db3 ce3c ed1b e23b b718 a23c
00000230: 2e13 5bbc 1bd7 f3bc ced7 5b3c 4533 113c
00000240: 2fb4 ae3a 7fe9 143b 2a81 f43a 86ed 2fbd
00000250: 3da4 563b a3b6 e6bc 3cb7 5dbb d3f0 d9bc
00000260: 8525 943b ed7a 3b3c ae19 5c3b 7e05 21bd
00000270: 9b9f dbbc aecd f0bc 92dc c9bb 3040 0d3b
00000280: 98ac 8e3a 5f2e 83bb ca3f e4bb a319 8ebc
00000290: d9e2 9fbb 2d8f 9a3b 8f3a 55bd bfa1 643b
000002a0: 8291 87bb fede 833c d2fa 6d3c bdfe 253c
000002b0: d9f9 ec3a b8f5 8ebc 9fe5 03bd 6aed 19bb
000002c0: 7924 11bd f2c7 aabc 6fe1 6c3b 90f1 933b
000002d0: 099d 04bc 2266 d3bb c3fc c13c 7a49 cb3c
000002e0: 0b12 95bc fdbe 8a3b 497a 4fbc 8672 0fbd
000002f0: 1bd8 353c 66d8 353c 77c7 8eba 79d1 b73c
00000300: 6b89 02bd bfaf 76bc 7b1f bebc ce77 2d3c
00000310: 66a0 babc 4947 d53c a5ba 503c b243 61bc
00000320: 0a65 623c 29da f5bc f41b ef3c af72 533c
00000330: d7ba b83c c720 53bb 7979 d43c 1925 153c
00000340: e170 c73b ef86 20bc 3ace 143c d3bf 623b
00000350: 75dc df3b 568c 07bb 3cb8 58bc b2ff 82bc
00000360: 3e3b 973b 5265 813b 3920 d6bc 7dd8 8bbb
00000370: c1b3 dd3b d65d 03bd 7c2d 923b 65cd 08bd
00000380: 75df 28bc ecf1 edbc 6d6d 85bc 49ea 13bd
00000390: 7093 eebc a8de fdbb 9af9 743b ddeb bbbc
000003a0: 9b10 aebc 3522 65bc 9975 043c 442d 0e3d
000003b0: 7616 a1bb 107f 51bc 32d8 1f3c 9cae ecbc
000003c0: 86bf 313c c35a 953c 432f ba3c ed5e 76bb
000003d0: 833a 723b cb13 a9bc 2739 85bc 8c0b 37bd
000003e0: 3751 ae3c ef8f bc3b 6017 fb37 d5ea 683c
000003f0: a7aa b3bc 4e23 87bc 75c8 a3bc 48b1 fa3c
0.00888137 -0.00717309 0.022307103 0.0012996049 -0.016064296 -0.037587885 0.0018536465 0.01658247
-0.0010199923 -0.022397611 0.00201617 -0.016932525 0.023787031 0.017784553 -0.008856991 -0.009480851
0.0029659392 -0.014192188 0.012575599 0.009782302 0.00010397356 0.016153881 -0.008545906 0.012967314
0.0014206489 -0.018236428 -0.01767779 0.030060697 0.017027857 0.0076323515 -0.0018521495 0.006934776
-0.0074075563 -0.003951697 0.03030132 0.023555784 0.0128278425 0.006944606 0.042972464 -0.012421139
-0.016273892 -0.01822192 -0.011428982 0.0029588344 -0.018276822 0.018374903 0.028166067 -0.018870173
0.014548623 -0.016900124 0.0024224343 -0.00034277505 0.008348262 0.021983871 -0.013480442 -0.015633103
0.014624018 0.002782733 0.01663307 0.01245486 -0.0060175695 0.014560755 0.008899851 -0.03058632
0.03190641 0.0159264 0.014789831 0.0063473675 0.029012239 -0.0005299012 -0.021150196 0.0029118152
-0.0060916473 -0.0017215442 -0.022789061 -0.0022059977 -0.016237935 0.008472566 -0.012650685 -0.005916911
-0.0037277993 0.018894855 0.011404652 -0.011876629 0.0042048153 -0.0070515764 0.012995788 0.034488652
0.0069880798 0.005157019 0.026239082 0.018299598 -0.013814676 0.036425825 0.0057963156 0.041793924
0.004199498 0.015156078 -0.0073888274 0.028119573 0.034116678 0.00973223 0.0019162096 0.02404986
0.018968001 0.025226116 0.0060126544 -0.011581192 0.022442264 0.036612052 -0.027919458 0.018092833
-0.00508387 -0.011852709 -0.01151405 0.012307446 0.009820185 0.009089276 -0.0032646635 0.047813307
-0.016527463 -0.00053313945 0.006254537 -0.022355484 0.030326523 0.022902494 0.02524136 0.0069387085
-0.008494206 -0.0024389802 -0.026524944 0.015872847 -0.013295463 0.027423346 -0.0003685181 -0.027557174
-0.0059077814 0.02523213 0.0069003017 0.019787176 -0.013371272 -0.029765656 0.013418151 0.008862321
0.0013328845 0.0022722182 0.0018654217 -0.04295113 0.0032751702 -0.02816326 -0.003383114 -0.026604092
0.0045210742 0.011442882 0.0033584642 -0.03931188 -0.026809504 -0.02939495 -0.0061603272 0.0021553151
0.0010885177 -0.0040033306 -0.006965612 -0.017346209 -0.0048793373 0.004716775 -0.0520578 0.0034886447
-0.004137219 0.016097542 0.014525132 0.010131535 0.0018079831 -0.017451152 -0.032201406 -0.0023487457
-0.035435174 -0.020847294 0.003614511 0.0045148805 -0.008094081 -0.006451384 0.023680096 0.02481531
-0.01819708 0.0042341934 -0.012663432 -0.035021327 0.011098887 0.011098957 -0.0010893185 0.022438752
-0.031869333 -0.01505655 -0.02320837 0.010587646 -0.022781562 0.026034968 0.012739812 -0.01374905
0.013818035 -0.030011253 0.029188134 0.012905761 0.02255003 -0.0032215582 0.025936829 0.009103083
0.0060864543 -0.009797796 0.009082371 0.00345992 0.0068317004 -0.0020683012 -0.013227519 -0.015991066
0.0046152165 0.003948846 -0.026138412 -0.004267751 0.006765813 -0.03207191 0.0044609886 -0.033399004
-0.010307183 -0.029046021 -0.01628753 -0.036112104 -0.029123038 -0.00774749 0.003738022 -0.022939617
-0.021248152 -0.013985206 0.008084678 0.034711137 -0.0049160076 -0.012786642 0.009756135 -0.028891854
0.010848885 0.018231755 0.022727614 -0.0037593201 0.0036961145 -0.02063932 -0.016262604 -0.044688746
0.02127896 0.005754463 2.9932417e-05 0.014216145 -0.02193196 -0.016496327 -0.019993046 0.030602112

action_model._discrete_distribution.branches.2.bias f4 [2]
00000000: d605 2b3c d905 2bbc
0.010438403 -0.010438406
