Assets/Brain/6.onnx (onnx, 120445 bytes, 11 tensors)

discrete_action_output_shape f4 [1, 3]
3.0 3.0 2.0
00000000: 0000 4040 0000 4040 0000 0040

network_body._body_endoder.seq_layers.0.weight f4 [128, 90]
-0.043991756 0.024054695 -0.062617205 -0.018495288 -0.07460001 -0.2615246 0.002513848 0.032513645
0.03337492 0.004883201 -0.043044843 -0.12172077 -0.18899131 0.046550952 -0.09958659 0.009642089
-0.037803695 0.02767515 0.21628036 0.27050108 0.03332927 0.06338783 -0.09409427 -0.012810821
-0.006421418 0.14967518 0.07631835 0.066240795 -0.03960155 -0.13668275 0.016206605 0.02085388
-0.016848586 -0.0308101 0.04773308 -0.17882761 -0.01353811 -0.32012087 0.13498157 0.0026218886
0.13776135 0.018547494 -0.21647073 0.04185502 0.07334691 -0.15420951 -0.02248834 -0.078498006
-0.10201806 0.08174985 0.0064844983 0.17267591 0.05563914 0.10416427 -0.11513603 0.1314637
0.003106883 0.014198867 -0.016656555 -0.13021888 -0.14154704 0.06286237 0.13624987 0.08793062
0.07821022 0.053546853 -0.17957847 -0.017169712 0.050321348 -0.040600143 0.13721134 0.0036360617
0.0064267004 0.17883141 0.086340286 0.024756517 0.050415095 0.078449585 -0.16378073 -0.010432983
-0.013799859 0.027658079 -0.08659405 0.058172796 0.10076976 0.12938455 0.030337207 -0.2051509
-0.047349695 0.14142303 -0.1315804 0.13173716 0.0017151976 0.07773617 0.054455698 0.11886975
-0.27943787 0.04591611 -0.22280154 -0.032067057 0.12668508 -0.013359085 -0.13197967 0.015541491
0.051138755 -0.28060502 0.036563337 0.037214715 -0.14257842 0.13963719 0.10211829 0.020948628
-0.044790424 0.06827712 0.0340493 0.19215211 0.27394304 -0.19241105 0.065481804 -0.084169194
-0.056189794 -0.018043248 -0.0005918785 -0.060381915 0.065836936 0.008831223 0.00230764 -0.0018640725
-0.14372864 0.13329364 -0.14360091 -0.100449756 0.110733084 -0.07359119 0.040276412 0.06219555
-0.19658443 -0.12410206 -0.06807512 -0.2771414 -0.05221413 0.09008047 -0.008980169 -0.039248668
0.05444969 -0.22495778 -0.18740827 -0.09045061 -0.35454047 0.0011649907 0.14938302 0.052690167
0.016826756 0.027445314 -0.14263408 -0.12308296 0.10392615 -0.019329095 0.060381416 0.23078744
-0.16514729 0.05237715 -0.08540027 -0.06922991 -0.067538604 0.11393691 -0.21455942 -0.23296781
-0.26248452 0.0875484 0.019788334 0.0583452 -0.14314508 0.088993795 0.007199247 -0.20954798
-0.074042946 -0.11599008 0.08093221 0.15175746 0.017645141 -0.03817358 0.21349533 0.05546601
0.013981212 0.04368775 -0.017542584 -0.085830785 0.14877084 0.07301691 0.016125169 0.12604849
0.12898277 -0.13263498 -0.01504117 -0.05387369 -0.03133737 -0.19838421 -0.1641486 0.18069698
0.03983107 0.09468294 -0.048583943 0.020921322 -0.008508583 0.16799624 0.021155631 -0.15066709
-0.01949966 0.10208178 0.098594904 0.032843787 -0.087948926 -0.050039694 -0.11501583 -0.15335843
0.026776114 0.061453257 0.1716758 0.21365353 0.08320699 -0.042370163 -0.008080841 0.113999315
-0.021822803 0.072451755 -0.0053514764 -0.152108 0.07806101 0.04007178 0.089875616 -0.017297346
-0.052367717 -0.1012313 -0.04291284 0.20303762 -0.028218158 0.18364528 0.24554701 0.19498886
-0.121450715 0.01693706 -0.08274898 0.06641851 -0.068876036 -0.14321229 0.1590055 -0.07965678
0.07850685 0.08421067 -0.30197936 -0.15238702 0.12546043 0.07244925 0.1700874 0.026341563
00000000: b330 34bd 5a0e c53c 733d 80bd 6e83 97bc
00000010: e4c7 98bd 8de6 85be 5fbf 243b 072d 053d
00000020: 24b4 083d 4203 a03b ca4f 30bd bd48 f9bd
00000030: f086 41be 36ac 3e3d 0ef4 cbbd daf9 1d3c
00000040: 0cd8 1abd ffb6 e23c 9978 5d3e 1e7f 8a3e
00000050: 4684 083d 7bd1 813d 7fb4 c0bd 7ae4 51bc
00000060: c26a d2bb 7344 193e cc4c 9c3d 41a9 873d
00000070: 3c35 22bd 90f6 0bbe b7c3 843c c2d5 aa3c
00000080: 0c06 8abc 7665 fcbc c383 433d 961e 37be
00000090: f3ce 5dbc e2e6 a3be 9c38 0a3e fed3 2b3b
000000a0: 5011 0d3e eaf0 973c 81aa 5dbe 2b70 2b3d
000000b0: e836 963d 19e9 1dbe 7839 b8bc 90c3 a0bd
000000c0: d8ee d0bd 776c a73d ea7b d43b f4d1 303e
000000d0: dee5 633d 1454 d53d 70cc ebbd 6c9e 063e
000000e0: d99c 4b3b 5da2 683c 5473 88bc 1958 05be
000000f0: b5f1 10be fcbd 803d 1685 0b3e f814 b43d
00000100: ae2c a03d f253 5b3d 6be3 37be 7fa7 8cbc
00000110: c21d 4e3d 564c 26bd 2181 0c3e fe4a 6e3b
00000120: 1297 d23b 951f 373e 2dd3 b03d 2ece ca3c
00000130: 0f80 4e3d 2daa a03d 23b6 27be 1aef 2abc
00000140: ce18 62bc 3293 e23c 3958 b1bd 9946 6e3d
00000150: 6060 ce3d 627d 043e bc85 f83c 1413 52be
00000160: c1f1 41bd 33d1 103e 03bd 06be 1be6 063e
00000170: 7bd0 e03a 2434 9f3d f00c 5f3d fc71 f33d
00000180: 7b12 8fbe 8812 3c3d 1626 64be bf58 03bd
00000190: bcb9 013e 10e0 5abc ae25 07be bda1 7e3c
000001a0: df76 513d 76ab 8fbe 70c3 153d 756e 183d
000001b0: 1400 12be 0dfd 0e3e 6523 d13d 759c ab3c
000001c0: 2a76 37bd e0d4 8b3d 4777 0b3d 86c3 443e
000001d0: 4342 8c3e 6707 45be 531b 863d e660 acbd
000001e0: 4527 66bd 6fcf 93bc 4b28 1bba 0753 77bd
000001f0: 84d5 863d d5b0 103c c63b 173b e553 f4ba
00000200: 9a2d 13be 217e 083e 1e0c 13be 9ab8 cdbd
00000210: 07c8 e23d fab6 96bd e1f8 243d c3c0 7e3d
00000220: 6e4d 49be 3929 febd f86a 8bbd 7ae5 8dbe
00000230: 7cde 55bd 1c7c b83d 8f21 13bc 36c3 20bd
00000240: a306 5f3d 555b 66be f4e7 3fbe 2b3e b9bd
00000250: 5486 b5be 9ab2 983a ddf7 183e a5d1 573d
00000260: 44d8 893c ffd4 e03c ab0e 12be eb12 fcbd
00000270: 3cd7 d43d 0d58 9ebc 8152 773d 8b53 6c3e
00000280: 5f1c 29be 6c89 563d 56e6 aebd 69c8 8dbd
00000290: ae51 8abd c157 e93d 77b5 5bbe 1d8f 6ebe
000002a0: 5f64 86be 934c b33d 251b a23c 60fb 6e3d
000002b0: a094 12be 6142 b63d a9e7 eb3b bf93 56be
000002c0: d4a3 97bd 358c edbd c9bf a53d 4f66 1b3e
000002d0: 8b8c 903c e65b 1cbd 859e 5a3e 5430 633d
000002e0: 7411 653c edf1 323d 77b5 8fbc 0dc8 afbd
000002f0: 6257 183e e489 953d ee18 843c db12 013e
00000300: 0f14 043e 77d1 07be 3d6f 76bc a9aa 5cbd
00000310: 9d5b 00bd 3b25 4bbe 9216 28be a108 393e
00000320: e725 233d 21e9 c13d f5ff 46bd 3163 ab3c
00000330: 9567 0bbc 3507 2c3e 934e ad3c 7948 1abe
00000340: c0bd 9fbc 4110 d13d 20ec c93d 3587 063d
00000350: 911e b4bd 6cf6 4cbd 6b8d ebbd fe09 1dbe
00000360: 9559 db3c 69b6 7b3d c8cb 2f3e fec7 5a3e
00000370: 6d68 aa3d 568c 2dbd 8165 04bc 7978 e93d
00000380: bcc5 b2bc 9661 943d 705b afbb 33c2 1bbe
00000390: 73de 9f3d 4f22 243d b510 b83d 2ab3 8dbc
000003a0: 887f 56bd 5b52 cfbd 60c5 2fbd 18e9 4f3e
000003b0: c429 e7bc 820d 3c3e ad70 7b3e 29ab 473e
000003c0: 27bb f8bd 97bf 8a3c 4c78 a9bd 6e06 883d
000003d0: e10e 8dbd 3ea6 12be 56d2 223e 1823 a3bd
000003e0: 33c8 a03d a576 ac3d 0a9d 9abe 580b 1cbe
000003f0: b378 003e 4660 943d 642b 2e3e 43ca d73c

network_body._body_endoder.seq_layers.0.bias f4 [128]
0.0007152247 0.029572496 0.024171455 -0.017744264 -0.0034588608 0.04948507 -0.021168618 0.011166688
0.01580464 0.036691096 -0.0067857006 0.0089222025 0.013058183 0.0046706344 0.02216536 -0.0021476715
0.011457585 -0.00011067652 0.0011898566 0.034842055 0.004412373 0.010292451 0.02442762 0.027768811
-0.00814428 0.022975378 0.025925795 0.0118498495 0.01459564 -0.012631763 0.017677888 0.03579944
0.030917834 -0.0120715555 -0.034538113 -0.0075225607 -0.0039774403 0.016708339 -0.057626344 0.018700438
0.028320935 0.020923315 0.014063909 0.008049604 -0.012521555 0.010930461 0.03249932 0.020635296
0.0204165 -0.0013304129 0.010291589 0.024392944 0.0029947194 0.024668269 0.0004094926 0.006866012
0.014646394 0.010339767 0.025389243 -0.026334766 0.01158657 0.00770818 0.023063442 -0.006058314
0.000979904 0.008296142 0.009103771 0.0054984363 -0.016308665 -0.01728091 0.008780932 0.0024090637
0.00035974782 -0.027197966 0.0038763862 0.01859617 -0.0063190395 0.012967609 -0.010882562 -0.022422493
0.032866254 -0.012299482 0.018097881 0.012806756 0.021481741 0.0046731764 0.031099722 -0.010371042
0.01861557 0.0037133442 -0.001891699 -0.01052248 0.0055764457 0.013140899 0.009801202 0.023750933
0.018104967 -0.0027157695 -0.0083585875 -0.0054411995 0.004070857 0.0045042373 0.028262403 0.014873591
-0.007623881 -6.0561324e-05 -0.019322444 0.0033611087 -0.018091552 0.008341362 0.00081959594 0.022627877
-0.01156689 -0.018515421 0.002642369 -0.022119373 0.0034343677 -0.0101270415 0.029381882 -0.017208926
-0.0007563994 0.038516257 -0.008223078 0.006412707 0.027479922 0.0066066342 0.001912128 0.01560561
00000000: eb7d 3b3a 0542 f23c 3703 c63c 6b5c 91bc
00000010: 0eae 62bb dbb0 4a3d cf69 adbc 7cf4 363c
00000020: bb78 813c 6749 163d 955a debb 6e2e 123c
00000030: fdf1 553c 1f0c 993b 2194 b53c f3bf 0cbb
00000040: 98b8 3b3c 011b e8b8 f6f4 9b3a 8bb6 0e3d
00000050: ab95 903b aba1 283c 6f1c c83c 6b7b e33c
00000060: 966f 05bc dc36 bc3c 5562 d43c df25 423c
00000070: 8d22 6f3c 74f5 4ebc 38d1 903c 6fa2 123d
00000080: 6647 fd3c c6c7 45bc d677 0dbd d07f f6bb
00000090: 3055 82bb eddf 883c 9a09 6cbd a931 993c
000000a0: 4e01 e83c 5f67 ab3c 4f6c 663c 7ce2 033c
000000b0: 3527 4dbc ad15 333c 021e 053d 5a0b a93c
000000c0: 8140 a73c 4061 aeba 0e9e 283c b6d3 c73c
000000d0: 0e43 443b 1c15 ca3c 2bb1 d639 48fc e03b
000000e0: 6ef7 6f3c 2068 293c 1afd cf3c 02bc d7bc
000000f0: 99d5 3d3c e794 fc3b 8bef bc3c d284 c6bb
00000100: 1f70 803a 8bec 073c fc27 153c 3a2c b43b
00000110: c099 85bc b290 8dbc e6dd 0f3c 62e1 1d3b
00000120: 899c bc39 45ce debc f80a 7e3b ff56 983c
00000130: f20f cfbb 1876 543c c64c 32bc 60af b7bc
00000140: c49e 063d c483 49bc 0242 943c 6ed3 513c
00000150: 7afa af3c 7221 993b d8c4 fe3c 4eeb 29bc
00000160: ae7f 983c 945b 733b e3f2 f7ba 7b66 2cbc
00000170: 9eba b63b ed4c 573c 3995 203c 5191 c23c
00000180: de50 943c 0dfb 31bb 75f2 08bc 174c b2bb
00000190: d364 853b 4898 933b 8e86 e73c 5db0 733c
000001a0: c0d1 f9bb 3a03 7eb8 1a4a 9ebc 0c46 5c3b
000001b0: bc34 94bc 35aa 083c 27da 563a 195e b93c
000001c0: 0e83 3dbc a7ad 97bc 982b 2d3b b033 b5bc
000001d0: 2113 613b e4eb 25bc 46b2 f03c bcf9 8cbc
000001e0: 1b49 46ba 39c3 1d3d 17ba 06bc af21 d23b
000001f0: 931d e13c 777c d83b 5ea0 fa3a acae 7f3c

network_body._body_endoder.seq_layers.2.weight f4 [128, 128]
-0.076122135 0.10104039 -0.12546259 0.06568865 0.15496118 -0.034202613 0.095296 -0.09446251
0.020725474 0.20743732 -0.044008277 -0.18253933 0.15836619 -0.12573357 -0.029066306 -0.005929583
0.18031594 -0.039155647 0.003185346 -0.1157418 0.07067171 -0.13648503 -0.14340582 -0.12058515
-0.08438908 -0.0974315 -0.04247512 -0.08018099 0.05993106 -0.10890863 -0.050029688 0.08061002
0.13670297 -0.07876296 0.115784556 0.18674473 0.106405236 0.14240468 0.0900348 -0.10494941
-0.054933276 -0.13036554 0.049202494 0.11492332 -0.09198983 -0.06783725 -0.006155982 -0.10714067
0.117483534 -0.021725858 -0.023159591 0.011706346 -0.012970028 0.08651488 0.10130214 0.1600336
0.007701926 0.19485217 -0.16521323 0.010873041 -0.012804819 -0.06441411 0.009874016 -0.007958379
-0.11102657 0.036979876 0.033566102 0.07264977 -0.03112017 -0.06735555 0.087505676 0.13535725
0.02632779 -0.101581454 0.009751339 -0.029236639 0.008974797 -0.15505105 -0.086226165 0.0020784517
-0.18103635 -0.16287757 -0.013707805 0.029439393 0.08070052 0.055666793 -0.1437976 0.09649565
-0.052767716 0.073197894 -0.030769464 0.18537506 -0.1819712 -0.08890111 0.03460563 0.11021082
0.04894839 -0.11866228 -0.043914504 0.096127234 -0.008407606 -0.015724687 0.10851965 0.010006251
-0.058882356 -0.027294014 -0.12650311 -0.02335516 -0.04319115 -0.24330172 -0.028330674 -0.0136055695
-0.1568896 -0.0320359 0.07110609 -0.17378081 -0.048738167 -0.08934691 0.06536539 -0.1372902
0.038682282 0.022160042 -0.014537561 -0.07919631 0.06647991 0.0450098 0.06843014 -0.0024123632
-0.027990934 -0.07483583 0.06486413 -0.023707863 -0.06867124 -0.05207362 -0.056839358 -0.13297744
-0.06570091 -0.14011134 -0.072700486 0.07218482 0.01733647 -0.031085875 0.0770224 0.08688662
0.045194935 0.1214358 -0.008083859 -0.07591548 0.047575157 0.06357614 0.017342843 0.021195084
0.09131431 0.21783532 0.093041345 0.05729713 -0.076676406 0.12798637 0.23265228 0.074685276
-0.21304788 0.0653555 -0.05105957 0.0017585639 0.03626211 9.408637e-05 -0.06226557 0.03211429
0.19398926 0.11263509 -0.021477476 0.02857298 -0.100753136 -0.11610275 0.31545752 -0.13310945
0.03447535 -0.10564468 0.09982461 -0.13481835 0.09582913 0.013272591 -0.017936105 -0.23022382
-0.017109895 -0.013509236 0.1399589 0.057693537 -0.1230124 -0.07682841 -0.016477862 -0.048933465
0.20641871 0.09450263 -0.0781943 0.08679382 -0.065876506 0.06102984 -0.0129586505 -0.17612799
0.03293513 0.022420509 0.13048433 0.20816298 -0.034018237 -0.00923694 -0.010709852 0.04095169
0.015914472 0.013904141 0.12626308 0.014417185 -0.19786067 -0.0049036816 0.14182064 -0.096432745
0.0871905 -0.1318504 0.04891341 -0.06551932 0.059884418 -0.042074427 0.002001428 -0.00047642933
0.019988233 -0.07561105 -0.1280349 -0.04677131 0.03243952 -0.11818539 -0.2563036 -0.030087937
-0.006677823 -0.022980187 0.004005479 -0.09431297 -0.08290821 0.097606264 0.25781238 0.20594083
-0.041906282 -0.082770236 0.012040825 -0.13829584 -0.05015868 -0.16250543 0.09415478 0.15125564
0.00377178 0.13613042 0.115550846 0.11357118 -0.016334794 0.056587987 -0.14871417 -0.01705465
00000000: ece5 9bbd 44ee ce3d 4479 00be c587 863d
00000010: 25ae 1e3e 0a18 0cbd 8d2a c33d 8f75 c1bd
00000020: 78c8 a93c 736a 543e 0642 34bd 97eb 3abe
00000030: bf2a 223e 4dc0 00be 761c eebc f34c c2bb
00000040: bea4 383e ac61 20bd 3dc1 503b 090a edbd
00000050: 54bc 903d bbc2 0bbe fad8 12be 59f5 f6bd
00000060: 2fd4 acbd 2b8a c7bd 64fa 2dbd ee35 a4bd
00000070: 457a 753d 7d0b dfbd eeeb 4cbd de16 a53d
00000080: ddfb 0b3e 7a4e a1bd 7420 ed3d 033a 3f3e
00000090: fdea d93d 88d2 113e 2a64 b83d b7ef d6bd
000000a0: b701 61bd 8b7e 05be 8e88 493d eb5c eb3d
000000b0: 2a65 bcbd 42ee 8abd 1fb8 c9bb 916c dbbd
000000c0: 359b f03d 6dfa b1bc 2fb9 bdbc f9cb 3f3c
000000d0: 3e80 54bc b72e b13d 7f77 cf3d d9df 233e
000000e0: 7060 fc3b 5487 473e a82d 29be d724 323c
000000f0: 4ecb 51bc 8beb 83bd a0c6 213c dc63 02bc
00000100: e661 e3bd 3678 173d 9c7c 093d 67c9 943d
00000110: baef febc b5f1 89bd 2d36 b33d 179b 0a3e
00000120: 61ad d73c f009 d0bd 15c4 1f3c ad81 efbc
00000130: 070b 133c b4c5 1ebe 5897 b0bd a236 083b
00000140: 9861 39be 61c9 26be b496 60bc e22a f13c
00000150: 5046 a53d dd02 643d ae3f 13be 839f c53d
00000160: f622 58bd c7e8 953d 3e10 fcbc f6d2 3d3e
00000170: a956 3abe c911 b6bd a2be 0d3d 36b6 e13d
00000180: 1b7e 483d 3605 f3bd b2df 33bd 5bde c43d
00000190: 0ec0 09bc 0fd1 80bc 8d3f de3d 42f1 233c
000001a0: a02e 71bd b297 dfbc 088a 01be 5253 bfbc
000001b0: 34e9 30bd 1624 79be bb15 e8bc e5e9 5ebc
000001c0: aba7 20be 1338 03bd 12a0 913d 99f3 31be
000001d0: aca1 47bd 83fb b6bd 4ade 853d cd95 0cbe
000001e0: 5071 1e3d fa88 b53c f32e 6ebc ad31 a2bd
000001f0: 9e26 883d 325c 383d 1a25 8c3d bd18 1ebb
00000200: 3e4d e5bc 8743 99bd 7cd7 843d fe36 c2bc
00000210: 82a3 8cbd 264b 55bd 63d0 68bd 3d2b 08be
00000220: 338e 86bd 5979 0fbe fee3 94bd a3d5 933d
00000230: 3605 8e3c cea7 febc ecbd 9d3d 9df1 b13d
00000240: 531e 393d 55b3 f83d 2a72 04bc 9379 9bbd
00000250: 2bde 423d 3534 823d 9412 8e3c 50a1 ad3c
00000260: ff02 bb3d 3910 5f3e 768c be3d 65b0 6a3d
00000270: 8508 9dbd dc0e 033e 663c 6e3e 98f4 983d
00000280: 3929 5abe 1bd9 853d d723 51bd 9d7f e63a
00000290: 9487 143d 3c50 c538 2f0a 7fbd 468a 033d
000002a0: 1fa5 463e 3aad e63d 88f1 afbc e211 ea3c
000002b0: a957 cebd 47c7 edbd a683 a13e d84d 08be
000002c0: 0636 0d3d 3d5c d8bd d870 cc3d d20d 0abe
000002d0: 1042 c43d 4875 593c bdee 92bc cbbf 6bbe
000002e0: 0d2a 8cbc d855 5dbc 6351 0f3e 0f50 6c3d
000002f0: eded fbbd 3758 9dbd 95fc 86bc 756e 48bd
00000300: 6d5f 533e 988a c13d 5524 a0bd f5c0 b13d
00000310: 43ea 86bd 6dfa 793d 8550 54bc e55a 34be
00000320: fde6 063d 37ab b73c af9d 053e ad28 553e
00000330: b556 0bbd 8956 17bc 6078 2fbc f6bc 273d
00000340: 115f 823c 32ce 633c 1c4b 013e 0f36 6c3c
00000350: fd9b 4abe 10af a0bb 6e39 113e 887e c5bd
00000360: ef90 b23d cb03 07be 6e59 483d fe2e 86bd
00000370: 5d49 753d 3c56 2cbd 642a 033b 43c9 f9b9
00000380: 5dbe a33c f7d9 9abd 951b 03be 4693 3fbd
00000390: 4ddf 043d 2f0b f2bd 3a3a 83be fa7a f6bc
000003a0: a4d1 dabb f240 bcbc 6540 833b 2927 c1bd
000003b0: c8cb a9bd cbe5 c73d fcff 833e 27e2 523e
000003c0: eca5 2bbd 7183 a9bd e146 453c 6d9d 0dbe
000003d0: 3073 4dbd d367 26be 39d4 c03d c2e2 1a3e
000003e0: f82f 773b c665 0b3e eca5 ec3d 0298 e83d
000003f0: 8cd0 85bc cec8 673d 8748 18be 31b6 8bbc

network_body._body_endoder.seq_layers.2.bias f4 [128]
-0.01872316 0.0019028353 -0.018069962 -0.0134261325 0.031501606 0.016159354 0.012895547 0.02476266
0.01956947 -0.022521595 -0.004268225 -0.0016574227 0.0077031045 -0.0011471832 0.031617876 0.019750502
0.019064402 0.015354726 -0.0021030768 0.019383581 0.011567018 -0.014564752 0.0019584044 -0.010189266
0.017992795 0.023009518 0.0013530981 0.012660522 0.015847893 0.026872428 -0.010914581 -0.0064835744
0.002869762 0.037362035 0.026771901 0.0056845453 0.021944428 0.034935527 -0.01627933 -0.01423086
-0.006943406 0.02805526 -0.0065797097 -0.0057208305 0.02491204 0.002135266 -0.006873106 0.03235255
0.014281869 -0.011257288 0.020252982 0.024435384 0.040369652 0.029893346 0.013007206 0.014479313
-0.022754805 0.020687506 -0.004326862 0.028642401 0.020423818 0.013482544 0.025767466 0.014013904
0.012447842 0.018142339 0.02716554 0.0343672 0.02609276 0.0119688045 -0.0033036547 0.0082741445
0.0035915223 0.004265253 0.028314674 0.024127027 0.021359745 0.011489444 0.005516568 0.0069242776
-0.016363008 0.016812125 0.0049326583 0.00693978 0.034041356 0.006400341 -0.0015682258 -0.006871071
0.017469002 0.0027762274 0.05255593 -0.014598835 -0.006969137 0.0017447514 0.027188098 0.021212589
0.032481994 0.016246216 -0.009580051 0.019181788 -0.024207354 0.025370786 0.011041882 -0.00305542
-0.0019502116 0.004654922 -0.003992255 -0.016353268 -0.0068025277 0.017062483 0.019510314 0.0026388222
-0.0047174464 0.0012712756 0.009926091 0.0022272104 -0.002938302 0.011198225 0.0049923384 -0.0063450895
0.0024060935 -0.0068127974 -0.008861461 0.010314274 -0.018125955 0.015333204 -0.003348662 0.03161672
00000000: 5061 99bc 8f68 f93a 7507 94bc 48f9 5bbc
00000010: d407 013d 9f60 843c d847 533c 10db ca3c
00000020: 2750 a03c 357f b8bc 77dc 8bbb e13d d9ba
00000030: 536a fc3b 155d 96ba bf81 013d cecb a13c
00000040: f32c 9c3c 6492 7b3c c6d3 09bb 51ca 9e3c
00000050: 9783 3d3c ffa0 6ebc 9358 003b e1f0 26bc
00000060: a065 933c 757e bc3c 705a b13a 146e 4f3c
00000070: 71d3 813c 9123 dc3c 12d3 32bc 2a74 d4bb
00000080: 9e12 3c3b ef08 193d bf50 db3c 6c45 ba3b
00000090: cdc4 b33c 8e18 0f3d 3b5c 85bc 8e28 69bc
000000a0: 8385 e3bb 25d4 e53c 9b9a d7bb ce75 bbbb
000000b0: 5614 cc3c d2ef 0b3b cb37 e1bb 1c84 043d
000000c0: 80fe 693c 7d70 38bc 95e9 a53c b72c c83c
000000d0: a65a 253d e4e2 f43c 2d1c 553c a43a 6d3c
000000e0: 4968 babc d878 a93c 59c8 8dbb 78a3 ea3c
000000f0: da4f a73c e3e5 5c3c 4b16 d33c 939a 653c
00000100: 09f2 4b3c 3e9f 943c 448a de3c 9fc4 0c3d
00000110: 7cc0 d53c ce18 443c 2182 58bb 4790 073c
00000120: bf5f 6b3b 89c3 8b3b 2df4 e73c 0ba6 c53c
00000130: a2fa ae3c 393e 3c3c 54c4 b43b 0de5 e23b
00000140: b70b 86bc 95b9 893c 23a2 a13b 1867 e33b
00000150: f36e 0b3d f4b9 d13b ed8c cdba b926 e1bb
00000160: 271b 8f3c 5ef1 353b e344 573d f42f 6fbc
00000170: 5c5d e4bb 24b0 e43a 93b9 de3c 06c6 ad3c
00000180: d70b 053d c916 853c a5f5 1cbc 2023 9d3c
00000190: 804e c6bc 65d6 cf3c 03e9 343c 713d 48bb
000001a0: 3e9e ffba 5188 983b 76d1 82bb 4af7 85bc
000001b0: bde7 debb 9fc6 8b3c 18d4 9f3c 17f0 2c3b
000001c0: cf94 9abb eea0 a63a 0ba1 223c 64f6 113b
000001d0: 8790 40bb c378 373c c596 a33b 78ea cfbb
000001e0: 8daf 1d3b e33d dfbb a92f 11bc 33fd 283c
000001f0: e27c 94bc 1e38 7b3c 3a75 5bbb 8980 013d

action_model._discrete_distribution.branches.0.weight f4 [3, 128]
0.019445516 -0.00441729 0.0138211325 -0.02120119 0.009909314 -0.092398725 0.016954647 -0.044220246
0.017958721 0.030280724 0.051394142 0.039649636 -0.023054264 0.009999689 0.00842575 -0.008379036
-0.015671486 -0.021832699 -0.02145615 -0.04591551 0.03883243 0.014658385 -0.04113903 0.0026858721
-0.01559304 0.014554671 -0.007958932 0.02059155 0.006324845 -0.013736504 0.026705274 0.010976018
0.008037666 -0.032771807 -0.023912797 -0.05514602 -0.061107557 -0.03833091 0.029689897 0.031034824
0.046094656 -0.059514992 -0.005155314 0.017875962 0.0075919013 -0.030339165 -0.038585335 -0.00095390267
0.020773519 0.00019104527 -0.011283775 0.03634364 -0.07541468 -0.022428622 -0.024327273 0.0056111575
0.039061088 -0.052384984 0.021253347 -0.05567079 -0.032451905 0.0013559925 -0.0024972814 -0.018798614
0.00289067 -0.025322411 -0.026172819 -0.021769898 -0.018458212 -0.019771457 0.04376034 0.020769032
0.027093519 -0.0149682015 -0.07139612 -0.018097956 0.028298717 0.0066367295 0.042617045 -0.0065604174
0.021034073 -0.032382566 0.002262554 0.023830201 -0.03129184 -0.0017539951 -0.013683513 0.0440357
0.012840906 0.035397843 -0.05691449 0.012425802 0.03153322 -0.013079351 0.02899915 0.0586105
-0.03996258 -0.032386914 0.021248925 0.021687366 -0.016375715 -0.028657109 -0.020793347 0.0235592
-0.0010886708 0.0050942698 0.019293364 -0.0051408135 0.034902982 0.036497187 0.013727687 -0.030870298
0.014797511 0.038448263 -0.03497034 0.041497078 -0.0010834152 -0.05216185 -0.0039155753 0.030514468
-0.01906246 0.027641663 0.031596363 0.014329489 0.021223465 0.044673108 0.028220704 -0.038091283
-0.08106056 0.003266766 -0.02709236 0.00046438182 -0.08072882 0.047149286 -0.048602395 0.031939067
0.022634536 -0.008049716 -0.038385034 -0.049634106 0.0631112 0.0035041426 0.027016178 0.037727844
-0.05126808 -0.017035738 0.026025355 0.023519881 -0.037503622 -0.06648338 0.0053623305 -0.025750654
0.057282947 0.038950354 0.026220363 0.042067904 0.047035772 0.0024534562 -0.055128697 -0.046769533
-0.07910445 0.051764034 0.02433786 0.016524773 0.011085492 0.0474248 -0.034217708 -0.0022516754
-0.036814515 0.07904038 0.0023997126 0.021961646 0.04081436 -0.014047074 0.023000438 0.009867874
-0.041247338 0.0027075934 0.009343164 -0.059120443 0.0703923 0.07975552 0.042969722 0.052523594
-0.0035075268 0.04185537 -0.06463405 0.070411235 -0.04476524 -0.045506757 0.016289152 -0.031628344
-0.06106537 -0.0018471469 0.016715897 0.024165945 0.014748032 -0.018743832 -0.061625846 -0.08381577
-0.030115927 0.03164703 0.07647759 -0.014092114 -0.08476798 -0.042248666 -0.054763343 -0.011183469
-0.039152928 0.028418684 -0.07049648 -0.052941423 0.04077203 -0.06446367 -0.023767773 -0.018155634
-0.002963924 0.027313301 0.057615474 0.0042302897 -0.03758815 -0.00070805656 -0.07901442 -0.067478634
0.015015518 0.06527691 -0.041826803 -0.06697628 0.009651183 0.0032098996 0.07566402 -0.0130622685
-0.05679829 -0.06871295 -0.011860577 -0.03319771 -0.011481928 -0.05688568 -0.040451597 -0.010853197
-0.049485542 -0.043469526 0.059885103 -0.04367076 -0.00964424 0.057575587 0.02650267 -0.015801894
0.0075331703 -0.0050682286 -0.045032054 -0.008035323 -0.017231962 -0.08405723 -0.028692799 0.029446905
00000000: 344c 9f3c eabe 90bb 0872 623c 1eae adbc
00000010: ad5a 223c 8b3b bdbd 79e4 8a3c 4a20 35bd
00000020: 2b1e 933c 480f f83c aa82 523d a867 223d
00000030: 4cdc bcbc bcd5 233c 280c 0a3c 3948 09bc
00000040: 7d61 80bc 7dda b2bc cfc4 afbc e711 3cbd
00000050: c10e 1f3d b929 703c 6681 28bd 7505 303b
00000060: f379 7fbc b776 6e3c 2e66 02bc 9caf a83c
00000070: a540 cf3b 130f 61bc 05c5 da3c c2d4 333c
00000080: 6ab0 033c bb3b 06bd c5e4 c3bc cbe0 61bd
00000090: eb4b 7abd df00 1dbd 3a38 f33c be3c fe3c
000000a0: c0cd 3c3d fec5 73bd e9ed a8bb 9c70 923c
000000b0: 7cc5 f83b d789 f8bc a80b 1ebd 530f 7aba
000000c0: 3a2d aa3c 5353 4839 95df 38bc 12dd 143d
000000d0: 0373 9abd 3bbc b7bc fd49 c7bc cddd b73b
000000e0: 85fe 1f3d a391 56bd 801b ae3c 0e07 64bd
000000f0: 4aec 04bd 8fbb b13a 6ea9 23bb 8dff 99bc
00000100: 6571 3d3b f270 cfbc 6168 d6bc c956 b2bc
00000110: ad35 97bc c0f7 a1bc 0b3e 333d d123 aa3c
00000120: 3af3 dd3c 303d 75bc 2138 92bd 2a42 94bc
00000130: b6d2 e73c ec78 d93b 368f 2e3d c5f8 d6bb
00000140: a64f ac3c 95a3 04bd 5b47 143b 8e37 c33c
00000150: df2b 00bd 4fe6 e5ba d030 60bc c75e 343d
00000160: aa62 523c 54fd 103d 2b1f 69bd 9795 4b3c
00000170: fa28 013d c64a 56bc a08f ed3c 9011 703d
00000180: cdaf 23bd 24a8 04bd 3a12 ae3c b4a9 b13c
00000190: 5d26 86bc 50c2 eabc cf56 aabc 39ff c03c
000001a0: bbb1 8eba d5ed a63b 1e0d 9e3c 4574 a8bb
000001b0: 6ef6 0e3d 137e 153d 18ea 603c b5e3 fcbc
000001c0: 4271 723c ed7b 1d3d 0f3d 0fbd d7f8 293d
000001d0: 6201 8eba aaa7 55bd 3a4e 80bb 7af9 f93c
000001e0: e028 9cbc c570 e23c 306b 013d 3cc6 6a3c
000001f0: d5dc ad3c 26fb 363d 1b2f e73c 9b05 1cbd
00000200: 1403 a6bd 3d17 563b ccf0 ddbc 4678 f339
00000210: 2755 a5bd 9c1f 413d 4e13 47bd 8ad2 023d
00000220: 106c b93c f5e2 03bc a039 1dbd 224d 4bbd
00000230: 7240 813d c2a5 653b 0851 dd3c 8388 1a3d
00000240: 7afe 51bd 888e 8bbc 2033 d53c c4ac c03c
00000250: 669d 19bd 7028 88bd 7db6 af3b 09f3 d2bc
00000260: 86a1 6a3d 688a 1f3d 16cc d63c 654f 2c3d
00000270: 95a8 403d 2aca 203b a1ce 61bd 6991 3fbd
00000280: 8401 a2bd 8606 543d 3160 c73c f65e 873c
00000290: ec9f 353c 8240 423d de27 0cbd d890 13bb
000002a0: d1ca 16bd ecdf a13d 7f44 1d3b e9e8 b33c
000002b0: f52c 273d b325 66bc 6a6b bc3c ddac 213c
000002c0: f8f2 28bd e171 313b 1214 193c 4728 72bd
000002d0: d729 903d dd56 a33d 0501 303d fb22 573d
000002e0: 89de 65bb 8970 2b3d db5e 84bd c433 903d
000002f0: c25b 37bd 4b65 3abd d470 853c b98c 01bd
00000300: ae1f 7abd f71b f2ba c7ef 883c a9f7 c53c
00000310: bba1 713c aa8c 99bc 626b 7cbd 9aa7 abbd
00000320: adb5 f6bc 51a0 013d 48a0 9c3d 9ce2 66bc
00000330: d69a adbd f00c 2dbd 874f 60bd de3a 37bc
00000340: d25e 20bd 4dce e83c 7560 90bd 1bd9 58bd
00000350: 9200 273d 8705 84bd a2b4 c2bc 20bb 94bc
00000360: 653e 42bb 25c0 df3c 34fe 6b3d 3e9e 8a3b
00000370: 08f6 19bd df9c 39ba 50d2 a1bd 3d32 8abd
00000380: a603 763c e7af 853d 9552 2bbd dc2a 89bd
00000390: ff1f 1e3c 2e5d 523b bdf5 9a3d 2003 56bc
000003a0: 53a5 68bd 60b9 8cbd de52 42bc 52fa 07bd
000003b0: b21e 3cbc f500 69bd 93b0 25bd 9cd1 31bc
000003c0: 5ab1 4abd 1a0d 32bd 154a 753d 1ce0 32bd
000003d0: e002 1ebc 61d4 6b3d 211c d93c f972 81bc
000003e0: d0d8 f63b 6213 a6bb 8873 38bd 96a6 03bc
000003f0: 0b2a 8dbc 3226 acbd 290d ebbc a33a f13c

action_model._discrete_distribution.branches.0.bias f4 [3]
-0.0057846163 0.006047199 0.0036975287
00000000: e18c bdbb 9527 c63b 3d52 723b

action_model._discrete_distribution.branches.1.weight f4 [3, 128]
0.00023650187 -0.013453497 -0.014172606 0.013408844 0.0012522789 0.0036401886 -0.00026124425 0.013087623
0.04483907 0.0582715 0.008032297 0.038126048 0.0012476655 -0.015782746 -0.06152372 0.0055406904
-0.014739899 -0.00080109196 -0.0080711255 -0.023187622 -0.013925507 -0.0030862128 -0.050306745 0.025642205
-0.03302489 -0.030106682 -0.02150177 0.040583696 -0.017298322 0.021313848 -0.017934365 0.012062095
-0.024607895 0.015505514 -0.040956907 0.0011560743 -0.014132639 -0.052842658 0.02888105 0.05155
0.045269236 0.00911352 -0.04335047 0.025820691 0.014693135 -0.008651207 -0.041718464 -0.026569482
0.025033817 -0.023410648 0.04823034 0.0040221205 -0.010464837 0.0060959123 -0.0013006992 -0.0019552032
0.009534371 0.007650532 0.029707648 0.03292176 0.025098933 -0.016410794 -0.054781962 0.012986695
-0.04280509 -0.054257825 -0.051983126 0.0053340737 -0.020896489 -0.04924138 0.026809065 0.01745524
-0.0044582887 0.02835549 0.006901663 0.048082545 0.039876256 -0.061216567 0.02144046 0.02454193
0.035557512 -0.00011690957 0.025686953 0.039482094 -0.012038965 0.024362905 -0.029667819 -0.013478069
-0.053253926 0.0019855713 -0.020317553 -0.00618736 0.032228414 0.02229579 -0.0017339994 0.05229441
-0.066364445 0.051081896 0.025986256 0.01080987 0.0021242192 0.0029018202 0.032675277 -0.07105908
0.016755192 0.007978965 0.030496394 0.003143453 0.03828404 -0.00767256 0.016286695 0.025618276
3.1840176e-05 0.013891922 -0.010556429 0.0066746287 0.036189295 -0.002883279 0.0015273808 0.043622166
-0.007054506 0.019570015 0.028761826 0.03241293 0.031149436 0.026812743 0.016274676 -0.03251974
-0.042791612 0.07419349 -0.005216385 -0.010279435 -0.08088777 0.012403545 0.0764441 0.018648757
-0.04369299 -0.03417022 -0.045352314 -0.04745101 -0.010228018 -0.022507288 0.072974734 0.04895322
-0.054252572 0.052058548 0.017699769 0.004492203 -0.045355435 -0.028696453 -0.0042164484 0.0062679546
0.04946351 0.057270844 0.03605927 -0.05738945 0.027121404 0.037908785 0.046392847 0.014741647
0.03177123 0.053204663 0.08162114 -0.008865957 -0.02526746 0.041083705 -0.017631898 -0.031087149
-0.035128176 0.018871648 0.017419493 -0.019612193 0.059431978 -0.03974335 0.0021935147 0.08551634
-0.04492369 0.032500498 0.021715047 -0.072595276 0.025512327 0.017489022 0.04658608 -0.04522282
-0.03302854 0.028511452 -0.005608174 0.034450088 0.019248389 -0.031205354 0.10648383 0.0027274045
0.03246387 -0.000149098 0.042212702 0.052485198 0.079144016 0.06322168 -0.022582049 -0.034912985
0.035692006 -0.012660357 0.04342159 0.01736833 -0.06305279 0.09084823 -0.047390357 0.011568598
0.0013105269 -0.0046863756 -0.007221258 -0.06494642 0.060065467 0.016771495 0.039933227 -0.028327344
0.07568956 0.032277163 0.033512905 -0.008493997 -0.023415426 0.014496395 -0.05271379 -0.057699833
0.02207144 -0.012376588 -0.012764328 -0.08212874 -0.01552823 0.039034687 -0.048423216 0.04641095
-0.036957476 -0.03108115 0.001905397 0.04609768 -0.02496051 -0.08528501 -0.031341527 0.012143562
-0.004147255 -0.039411645 0.040462594 -0.04958221 -0.0183356 0.009856776 0.046061162 -0.021554466
-0.024728991 -0.04683722 -0.0018915399 -0.025868615 -0.02361334 -0.072493136 0.008500537 0.02040879
00000000: 7dfd 7739 0e6c 5cbc 3834 68bc c5b0 5b3c
00000010: 8223 a43a 3b90 6e3b 9cf7 88b9 786d 563c
00000020: 2ca9 373d 19ae 6e3d e599 033c 0f2a 1c3d
00000030: b588 a33a d14a 81bc 4c00 7cbd ae8e b53b
00000040: 9e7f 71bc 5f00 52ba c13c 04bc f8f3 bdbc
00000050: cf27 64bc 0f42 4abb 720e 4ebd 9a0f d23c
00000060: 1b45 07bd 4aa2 f6bc 7b24 b0bc 173b 263d
00000070: 36b5 8dbc 619a ae3c 17eb 92bc 18a0 453c
00000080: 7f96 c9bc d70a 7e3c 6ec2 27bd 6b87 973a
00000090: 968c 67bc 8b71 58bd f497 ec3c 1826 533d
000000a0: 3c6c 393d e050 153c 4390 31bd ea85 d33c
000000b0: 7abb 703c cbbd 0dbc fbe0 2abd 3ea8 d9bc
000000c0: b813 cd3c b0c7 bfbc 2d8d 453d fecb 833b
000000d0: b574 2bbc 38c0 c73b 397c aaba de22 00bb
000000e0: 0d36 1c3c 50b1 fa3b 745d f33c f8d8 063d
000000f0: 479c cd3c ee6f 86bc 0d63 60bd 26c6 543c
00000100: 6454 2fbd 743d 5ebd 42ec 54bd 74c9 ae3b
00000110: 1d2f abbc 54b1 49bd af9e db3c 4bfe 8e3c
00000120: d616 92bb c649 e83c 5827 e23b 34f2 443d
00000130: 4955 233d 39be 7abd e7a3 af3c 280c c93c
00000140: c1a4 113d 592d f5b8 726d d23c fab7 213d
00000150: 143f 45bc b794 c73c ed09 f3bc 1ed3 5cbc
00000160: ca20 5abd 5c20 023b ff70 a6bc 56bf cabb
00000170: f101 043d a9a5 b63c 5d47 e3ba aa32 563d
00000180: 15ea 87bd 403b 513d 21e1 d43c e21b 313c
00000190: 7c36 0b3b 772c 3e3b 83d6 053d 6c87 91bd
000001a0: 2f42 893c 34ba 023c 93d3 f93c 6402 4e3b
000001b0: bacf 1c3d 196a fbbb ad6b 853c 6bdd d13c
000001c0: 218c 0538 f29a 633c dff4 2cbc d8b6 da3b
000001d0: 3a3b 143d 65f5 3cbb 6532 c83a 28ad 323d
000001e0: 7c29 e7bb 4c51 a03c ec9d eb3c 6cc3 043d
000001f0: 1a2d ff3c 66a6 db3c 7852 853c 6b33 05bd
00000200: 4246 2fbd c2f2 973d 35ee aabb 136b 28bc
00000210: 7da8 a5bd 3d38 4b3c b98e 9c3d 47c5 983c
00000220: 6cf7 32bd 13f6 0bbd 59c3 39bd fe5b 42bd
00000230: 6b93 27bc 3461 b8bc c773 953d 2c83 483d
00000240: f237 5ebd 583b 553d 1bff 903c 5433 933b
00000250: 9fc6 39bd d314 ebbc 222a 8abb 6a63 cd3b
00000260: 409a 4a3d d594 6a3d e3b2 133d 3311 6bbd
00000270: b52d de3c 3e46 1b3d 6d06 3e3d f386 713c
00000280: 8d22 023d 22ed 593d fc28 a73d 8542 11bc
00000290: b4fd cebc 6347 283d c570 90bc 7aaa febc
000002a0: 90e2 0fbd b798 9a3c 53b3 8e3c c0a9 a0bc
000002b0: f26e 733d ecc9 22bd 12c1 0f3b 3123 af3d
000002c0: e701 38bd 3e1f 053d c1e3 b13c d5ac 94bd
000002d0: 3aff d03c 2345 8f3c 0cd1 3e3d 903b 39bd
000002e0: ef48 07bd d990 e93c c6c4 b7bb 891b 0d3d
000002f0: ccae 9d3c 5fa2 ffbc 3214 da3d 41be 323b
00000300: d6f8 043d 3157 1cb9 3ae7 2c3d b8fa 563d
00000310: 4216 a23d 5e7a 813d fdfd b8bc eb00 0fbd
00000320: c831 123d 636d 4fbc d6da 313d 0748 8e3c
00000330: d221 81bd a30e ba3d 641c 42bd 388a 3d3c
00000340: fcc5 ab3a 2b90 99bb 4da0 ecbb a102 85bd
00000350: 3507 763d 6064 893c 0691 233d bf0e e8bc
00000360: 2103 9b3d 0f35 043d d444 093d 682a 0bbc
00000370: b5d1 bfbc 4a82 6d3c 6aea 57bd a956 6cbd
00000380: 2acf b43c 2cc7 4abc 7921 51bc 1d33 a8bd
00000390: 1e6a 7ebc d6e2 1f3d 6c57 46bd 6919 3e3d
000003a0: b960 17bd e59d febc 84be f93a ecd0 3c3d
000003b0: fc79 ccbc e8a9 aebd f95f 00bd caf5 463c
000003c0: b2e5 87bb 1b6e 21bd 1bbc 253d b716 4bbd
000003d0: 8a34 96bc 517e 213c a1aa 3c3d fe92 b0bc
000003e0: 7494 cabc 63d8 3fbd 8ced f7ba 6bea d3bc
000003f0: c370 c1bc 4877 94bd d645 0b3c 5630 a73c

action_model._discrete_distribution.branches.1.bias f4 [3]
-0.032241814 0.029068863 -0.0028142638
00000000: fe0f 04bd d321 ee3c 836f 38bb

action_model._discrete_distribution.branches.2.weight f4 [2, 128]
-0.011573362 -0.005411923 0.008500425 -0.007328576 -0.024317494 -0.009356425 0.011124586 -0.00992633
-0.0039547393 -0.008963157 -0.0136959795 -0.028208174 -0.007457679 -0.00023549977 0.060386945 -0.00022268575
-0.003395037 0.016693356 -0.009414781 -0.032064226 -0.015483271 -0.015964711 0.008580277 0.007664145
0.005304394 0.024435902 0.05007891 -0.0059719854 0.01883089 -0.0135307275 -0.004919179 0.001076347
0.01380313 0.012929121 -0.00086275575 0.0012204469 0.0021031797 0.024091138 0.0038824019 0.019211806
0.0012431166 0.0037286233 2.7562668e-05 0.0060442667 0.02136729 0.010909765 -0.012522778 0.021246092
-0.0035022518 0.004007519 -0.014280929 -0.005695018 0.0017322258 0.005367845 -0.00094738376 -0.016916733
0.012564273 -0.014142499 0.010117027 0.024384335 -0.019248135 -0.018386183 0.015065812 -0.009845114
0.031993255 -0.00425499 0.005351002 -0.0014000759 0.0026241227 0.03530005 -0.009178258 0.0004165883
4.095008e-05 -0.029050877 0.005835053 -0.016768051 -0.040729318 0.02125183 -0.014183865 -0.0046005873
-0.0034702013 0.010833148 -0.017194457 -0.016482182 -0.012314718 -0.012907865 -0.01445764 -0.014552651
0.019111102 -0.004671979 -0.020063113 0.009829412 0.01119973 0.00953262 -0.011955406 -0.0011819894
-0.0011346617 0.0099499 -0.025236154 -0.004071682 0.022181984 0.0069812867 0.0007701131 0.016553586
-0.0075992336 -0.017388398 0.014278474 0.0073341476 0.001976644 -0.0006681518 0.0035882795 -0.015249507
0.008865639 -0.00027778358 0.026358178 -0.020471593 -0.018622546 0.0009960628 -0.012155911 -0.00766556
0.007998193 0.010506833 0.004608539 -0.013131207 -0.0033772574 -0.0030246947 0.00648961 0.0006054002
0.009883729 -0.0063581476 -0.0010407722 -0.0071896175 0.024440316 0.0045981547 0.0063729477 -0.0025361595
0.016116364 0.004928525 0.019939471 0.026848266 0.0017705326 -0.017189564 -0.041097604 -0.017837496
0.02086662 -0.009244283 -0.008473365 0.023534317 0.022586765 0.020776201 0.0047485484 0.005048209
-0.00094556366 -0.014035896 -0.025131417 0.039491165 -0.0040510693 0.0029086438 0.02128759 -0.0010890708
-0.012700291 0.00048722766 0.004440261 0.011156787 0.013175001 -0.01597636 -0.017158227 -0.011062375
0.0046739387 -0.004019006 0.00486444 -0.010671085 0.001817081 -0.013438363 -0.014265432 -0.020302221
0.011828548 -0.012611752 0.014095238 0.022498973 -0.0050211945 -0.011649378 -0.008620744 0.010814247
-0.031210769 0.015465363 -0.0052956385 -0.01307031 0.009269508 0.023876159 -0.015259406 0.013345635
-0.03830223 0.00241685 -0.022413194 -0.0074752625 0.0010262028 -0.032388598 0.031238716 0.016730418
0.003150737 0.028380709 -0.0029626274 0.012366622 0.025209712 -0.004823552 0.010367284 0.010264758
-0.017160285 0.0116550615 0.035964552 0.015332544 0.0065371706 0.02173001 -0.0013852672 -0.010077191
-0.026922312 -0.007889088 -0.00452408 0.0010742232 -0.008189284 0.0029339488 0.024816804 0.0016209976
0.010351662 0.001422668 0.018391151 0.010441786 -0.014675531 -0.006348399 -0.011808566 -0.033681415
0.026973795 0.023597773 0.003898221 -0.012732492 0.0006869725 0.0104732495 0.003958316 0.011507467
0.009601095 -0.012530302 -0.0386438 0.02270396 0.010226317 -0.017323606 -0.0107053025 0.017251903
-0.017479505 0.010991645 -0.0074029476 0.022907242 0.00048479077 -0.0009168534 0.00046527808 -0.014232393
00000000: 339e 3dbc 8056 b1bb 5e45 0b3c 8d24 f0bb
00000010: 7b35 c7bc b14b 19bc e543 363c 0ca2 22bc
00000020: c296 81bb 35da 12bc 1a65 60bc d414 e7bc
00000030: 8c5f f4bb 7df0 76b9 4d58 773d c080 69b9
00000040: 457f 5ebb 81c0 883c 7440 1abc c755 03bd
00000050: 8cad 7dbc 6dc8 82bc 4a94 0c3c 8223 fb3b
00000060: 7bd0 ad3b cd2d c83c 8b1f 4d3d a5b0 c3bb
00000070: 3d43 9a3c fcaf 5dbc 1031 a1bb 3614 8d3a
00000080: 8626 623c aad4 533c 8f2a 62ba 67f7 9f3a
00000090: 80d5 093b c75a c53c e56f 7e3b 1462 9d3c
000000a0: 12f0 a23a eb5b 743b 6136 e737 fc0e c63b
000000b0: 740a af3c dfbe 323c 562c 4dbc 490c ae3c
000000c0: 0986 65bb 8251 833b 8ffa 69bc 469d babb
000000d0: da0b e33a bfe4 af3b d959 78ba f694 8abc
000000e0: 61da 4d3c f1b5 67bc e3c1 253c a8c1 c73c
000000f0: 44ae 9dbc 9f9e 96bc 98d6 763c 674d 21bc
00000100: 5c0b 033d 716d 8bbb 7557 af3b c082 b7ba
00000110: 79f9 2b3b c996 103d 6760 16bc 8969 da39
00000120: d0c1 2b38 1bfc edbc f933 bf3b 275d 89bc
00000130: c9d3 26bd 5118 ae3c 7163 68bc 86c0 96bb
00000140: 516c 63bb 847d 313c 64db 8cbc a405 87bc
00000150: acc3 49bc 837b 53bc bddf 6cbc 3e6e 6ebc
00000160: e38e 9c3c 6717 99bb 665b a4bc 8b0b 213c
00000170: 137f 373c b52e 1c3c 9be0 43bc fcec 9aba
00000180: eeb8 94ba e804 233c 0dbc cebc bf6b 85bb
00000190: feb6 b53c 47c3 e43b 6ae1 493a 639b 873c
000001a0: fe02 f9bb 1d72 8ebc 43f0 693c 4a53 f03b
000001b0: 958a 013b e926 2fba 5729 6b3b 11d9 79bc
000001c0: 2f41 113c 7ba3 91b9 1bed d73c 0bb4 a7bc
000001d0: 4f8e 98bc 528e 823a 9629 47bc 612f fbbb
000001e0: da0a 033c da24 2c3c 3a03 973b 4624 57bc
000001f0: fa54 5dbb f539 46bb cba6 d43b b8b3 1e3a
00000200: 5def 213c 0258 d0bb 856a 88ba e296 ebbb
00000210: 0f37 c83c 1eac 963b 29d4 d03b b235 26bb
00000220: 7706 843c 777f a13b 1a58 a33c e5f0 db3c
00000230: 3711 e83a 21d1 8cbc f655 28bd f11f 92bc
00000240: 79f0 aa3c 5575 17bc ded3 0abc 0acb c03c
00000250: e107 b93c da32 aa3c b699 9b3b 726b a53b
00000260: b4df 77ba d1f6 65bc 67e0 cdbc 7dc1 213d
00000270: d5be 84bb f29e 3e3b 5063 ae3c 27bf 8eba
00000280: e214 50bc 9772 ff39 9c7f 913b f5ca 363c
00000290: f6db 573c dbe0 82bc 698f 8cbc f73e 35bc
000002a0: d727 993b deb1 83bb e165 9f3b c6d5 2ebc
000002b0: 1f2b ee3a 942c 5cbc 8fb9 69bc d850 a6bc
000002c0: 87cc 413c 86a1 4ebc b7ef 663c c44f b83c
000002d0: d588 a4bb 08dd 3ebc 053e 0dbc 3d2e 313c
000002e0: baad ffbc 6f62 7d3c 0987 adbb da24 56bc
000002f0: 22df 173c ef97 c33c 9602 7abc a6a7 5a3c
00000300: cde2 1cbd 0464 1e3b e09b b7bc 0cf3 f4bb
00000310: a781 863a e8a9 04bd 56e8 ff3c 3b0e 893c
00000320: 987c 4e3b a97e e83c a428 42bb 5f9d 4a3c
00000330: 9984 ce3c e30e 9ebb 8adb 293c 842d 283c
00000340: ba93 8cbc dff4 3e3c 914f 133d 5a35 7b3c
00000350: c335 d63b 2203 b23c db91 b5ba cd1a 25bc
00000360: 2e8c dcbc 3c41 01bc bc3e 94bb f3cc 8c3a
00000370: 592c 06bc 7e47 403b 9c4c cb3c a777 d43a
00000380: 049a 293c d178 ba3a 0aa9 963c 0614 2b3c
00000390: a371 70bc 3b06 d0bb b778 41bc 86f5 09bd
000003a0: 26f8 dc3c 1e50 c13c 4c79 7f3b f19b 50bc
000003b0: f215 343a fe97 2b3c c3b4 813b d189 3c3c
000003c0: e94d 1d3c e54b 4dbc f648 1ebd a8fd b93c
000003d0: 488c 273c 3cea 8dbc 4b65 2fbc dd53 8d3c
000003e0: 2e31 8fbc 4d16 343c 6d94 f2bb f8a7 bb3c
000003f0: 842b fe39 fd58 70ba 91f0 f339 fc2e 69bc

action_model._discrete_distribution.branches.2.bias f4 [2]
-0.016316287 0.016316297
00000000: bca9 85bc c1a9 853c
