Assets/Brain/7.onnx (onnx, 106329 bytes, 7 tensors)

network_body._body_endoder.seq_layers.0.weight f4 [128, 72]
-0.20006536 -0.04933432 -0.22126995 0.22817338 -0.11073367 -0.021892894 -0.14614922 -0.081704
0.027583947 0.15206572 0.13956192 0.0605147 0.099939875 0.048362542 -0.017399218 0.20688461
0.11324591 -0.099790804 -0.2027194 -0.072601445 -0.014443028 0.15933235 -0.05622073 -0.008941314
0.009439717 0.017077914 0.057753887 -0.010347362 0.0027926934 0.030551953 -0.0661581 -0.08940843
0.019426582 -0.1579343 -0.10023513 0.022388678 0.1797853 0.16603474 -0.14113824 0.075061634
0.17352968 0.07640399 -0.06916178 -0.11720034 -0.08192457 0.15464659 -0.088686116 -0.18156847
0.011803932 -0.08690215 -0.0060577746 0.06458512 -0.035445664 0.042418655 0.057509955 0.06248302
0.08514923 0.13578248 0.023692211 0.15226194 -0.029807342 0.038782757 -0.02332655 0.044038907
-0.067129314 0.10537251 -0.4271595 -0.036465503 -0.1542663 0.12663734 0.1372849 -0.042862058
-0.13906471 -0.1818183 0.105984986 -0.034548968 0.19925757 0.20909913 0.06892565 0.30301777
-0.000111091715 -0.009083755 -0.07195214 -0.041580737 -0.08516653 0.0014633364 0.081366226 0.076361954
0.009085896 -0.092516035 0.00978627 -0.15606624 -0.08609063 0.07126942 -0.0007353005 -0.029162917
0.111313365 -0.20471375 0.033989716 0.022301454 0.19635154 0.06461495 -0.097856 0.0232352
0.098185085 -0.098088056 0.041413724 -0.08393493 -0.17912243 -0.31191438 0.15043278 -0.029193722
-0.21245722 0.07664704 -0.16001607 0.0650193 0.03708124 -0.14463867 -0.012384076 -0.09434786
-0.13029595 -0.14701232 0.20985843 0.08274385 0.032211307 0.13230743 0.17544319 0.12538567
-0.067601435 0.07243926 0.084853165 -0.07545518 0.02561408 -0.012148444 -0.072100565 -0.025530167
0.078508236 -0.15639582 0.01118807 0.26715478 0.048170906 0.12501615 -0.05513919 0.023606576
-0.077959225 -0.17554398 -0.052955717 -0.15307307 -0.0155699635 -0.071132556 -0.22830664 0.02628001
0.14128186 -0.1431804 -0.23466697 -0.009956898 0.10319273 -0.19554928 0.1894893 -0.14212352
-0.024061408 0.057889957 0.032320127 0.11284004 0.09003669 0.2615724 0.013890343 0.045963302
-0.065997384 0.08118498 0.09279197 -0.004170859 -0.20623095 -0.17036511 0.19455571 0.045616228
-0.092339225 -0.0073283254 -0.1366859 -0.10255795 0.050145995 0.030882511 0.058651526 -0.023743
0.039477743 -0.07702266 -0.051425274 -0.05753609 0.05859218 -0.08425845 -0.25785404 0.027774252
-0.07680111 -0.07511417 0.13174391 0.13003998 -0.15233058 0.15968889 -0.062296864 -0.1570226
0.06256961 0.15772727 -0.13549313 0.0052410783 -0.018494485 -0.026717423 0.07674307 -0.16610737
-0.15653892 0.15114376 -0.05379751 0.2895289 0.071262576 0.01262259 0.23398446 -0.11737806
-0.011602985 0.015115628 0.05107654 0.013049926 -0.12818931 0.14619452 -0.12549956 0.065509334
0.04044309 -0.003223761 0.058160577 0.13850401 0.042990766 -0.13441025 0.16575535 -0.0491202
0.054211747 -0.05810345 0.113574624 0.05295593 0.25158304 -0.020969756 -0.17614184 0.08175172
0.06137558 0.11711036 -0.019843122 0.012793174 0.04226795 -0.11950466 0.13663502 -0.14884089
-0.016318042 -0.055992227 0.062690385 -0.03340872 -0.052493226 -0.15946604 -0.00686223 -0.08988885
00000000: efdd 4cbe c912 4abd 9794 62be 48a6 693e
00000010: 56c8 e2bd ba58 b3bc 24a8 15be 6d54 a7bd
00000020: bbf7 e13c 1eb7 1b3e 52e9 0e3e 43de 773d
00000030: 47ad cc3d cd17 463d ce88 8ebc 8fd9 533e
00000040: 79ed e73d 1f5f ccbd ad95 4fbe 11b0 94bd
00000050: 73a2 6cbc 0528 233e b547 66bd 977e 12bc
00000060: 0ba9 1a3c fbe6 8b3c 578f 6c3d fb87 29bc
00000070: 9f05 373b 1748 fa3c e67d 87bd c41b b7bd
00000080: 7f24 9f3c 87b9 21be 1348 cdbd 7668 b73c
00000090: a319 383e 0305 2a3e 8b86 10be eab9 993d
000000a0: c4b1 313e b279 9c3d b1a4 8dbd bb06 f0bd
000000b0: 12c8 a7bd ad5b 1e3e 11a1 b5bd 16ed 39be
000000c0: 4765 413c c1f9 b1bd 4c80 c6bb 3445 843d
000000d0: 792f 11bd 2fbf 2d3d 8f8f 6b3d 32ee 7f3d
000000e0: b862 ae3d 900a 0b3e 2b16 c23c 8eea 1b3e
000000f0: 872e f4bc abda 1e3d 5217 bfbc 2462 343d
00000100: 187b 89bd 8bcd d73d a6b4 dabe da5c 15bd
00000110: fcf7 1dbe 38ad 013e 6a94 0c3e 2090 2fbd
00000120: fb66 0ebe 942e 3abe a80e d93d 3883 0dbd
00000130: 2d0a 4c3e 151e 563e e428 8d3d 2525 9b3e
00000140: e9f9 e8b8 08d4 14bc a55b 93bd 9050 2abd
00000150: ca6b aebd 6ccd bf3a 56a3 a63d a863 9c3d
00000160: 03dd 143c 0c79 bdbd 9756 203c d4cf 1fbe
00000170: 4950 b0bd b4f5 913d 2ec1 40ba 12e7 eebc
00000180: 43f8 e33d 7ba0 51be cd38 0b3d 8ab1 b63c
00000190: 6110 493e d854 843d ba68 c8bd bf57 be3c
000001a0: 4315 c93d 64e2 c8bd 70a1 293d 14e6 abbd
000001b0: df6b 37be 3eb3 9fbe 0d0b 1a3e ac27 efbc
000001c0: 638e 59be 20f9 9c3d 41db 23be d728 853d
000001d0: 80e2 173d 291c 14be 94e6 4abc 7339 c1bd
000001e0: 4d6c 05be 668a 16be 21e5 563e 9c75 a93d
000001f0: 01f0 033d 997b 073e 61a7 333e 1a65 003e
00000200: 9f72 8abd 095b 943d 7fc7 ad3d 3f88 9abd
00000210: 9ed4 d13c 440a 47bc 76a9 93bd a424 d1bc
00000220: edc8 a03d 3a26 20be 2b4e 373c 83c8 883e
00000230: db4e 453d 3c04 003e a2d9 61bd 9462 c13c
00000240: 16a9 9fbd cdc1 33be 18e8 58bd 30bf 1cbe
00000250: 2919 7fbc f2ad 91bd 37c9 69be 2d49 d73c
00000260: 31ac 103e e29d 12be 8a4c 70be 4222 23bc
00000270: b656 d33d 123e 48be 7c09 423e d488 11be
00000280: 6e1c c5bc 051e 6d3d 1c62 043d ae18 e73d
00000290: 2865 b83d d1ec 853e 5294 633c 0444 3c3d
000002a0: a329 87bd 5044 a63d b709 be3d b4ab 88bb
000002b0: 352e 53be 3174 2ebe 9d39 473e 15d8 3a3d
000002c0: 591c bdbd 7322 f0bb 63f7 0bbe e709 d2bd
000002d0: e365 4d3d 52fd fc3c 953c 703d ae80 c2bc
000002e0: 6ab3 213d 0ebe 9dbd 4fa3 52bd f7aa 6bbd
000002f0: 5bfe 6f3d b28f acbd 7205 84be d486 e33c
00000300: e649 9dbd 75d5 99bd e0e7 063e 3329 053e
00000310: 8cfc 1bbe 7c85 233e ff2a 7fbd 88ca 20be
00000320: 7f24 803d 4283 213e b6be 0abe 5abd ab3b
00000330: bf81 97bc 7fde dabc 782b 9d3d 0d18 2abe
00000340: bd4b 20be 6ec5 1a3e c75a 5cbd 223d 943e
00000350: 1df2 913d fbce 4e3c 9f99 6f3e e963 f0bd
00000360: 721a 3ebc 8aa7 773c a235 513d 5bcf 553c
00000370: 0f44 03be 04b4 153e f582 00be c229 863d
00000380: a7a7 253d bc45 53bb c939 6e3d ffd3 0d3e
00000390: 1617 303d d7a2 09be c5bb 293e 4332 49bd
000003a0: 230d 5e3d e2fd 6dbd d099 e83d 51e8 583d
000003b0: 7ecf 803e c4c8 abbc 875e 34be 726d a73d
000003c0: f664 7b3d 8ed7 ef3d 0b8e a2bc 769a 513c
000003d0: 2821 2d3d dcbe f4bd 0dea 0b3e bf69 18be
000003e0: 6aad 85bc 1b58 65bd d163 803d 95d7 08bd
000003f0: 2303 57bd 114b 23be 8fdc e0bb a517 b8bd

network_body._body_endoder.seq_layers.0.bias f4 [128]
-0.006501537 -0.0008856155 -0.0009575707 -0.0062401993 0.009302481 -0.0019609798 0.008643128 -0.004043748
-0.0040048654 -0.0001287734 -0.01528222 -0.0041635213 -0.0062821284 -0.0005096509 -0.005334662 0.0021210015
0.018148167 0.0047835037 0.018260833 -0.005254419 -0.007213357 -0.0070922333 0.00053057045 0.018865557
-0.0022954838 0.0076685715 -0.008461967 0.00047707313 -0.013371736 -0.00483914 0.008851213 -0.008177206
0.014079228 -0.0059885588 0.022658516 -0.009752697 -0.008410528 -0.007921909 -0.005640514 -0.005033682
0.0077302405 -0.013092111 0.0045943656 -0.0034752744 0.0045191864 -0.00022848403 0.0016480271 -0.005496443
0.0013081193 0.0011044574 -0.0037388522 0.007357098 0.018030351 -0.0067576906 -0.0040634437 0.0011332973
-0.0048691016 0.0035818547 -8.248815e-05 -0.010369226 0.0036853345 -0.0023526372 -0.0048299115 -0.005903723
-0.018183475 -0.0025980473 -0.004822223 0.0035305812 0.004714878 0.0018827339 -0.009459478 0.017947081
0.0006731061 0.0029558486 -0.0018163645 -0.0159005 -0.0014129739 0.0055282526 0.01017334 4.2665097e-06
-0.011010594 -0.0031744973 0.015254759 -0.0041173096 0.013478002 -0.004083155 -0.0043553202 0.005136499
0.0053356616 -0.0005138831 -0.008720878 0.0005051706 0.0006342973 -0.0135497255 -0.0039923396 -0.004534127
0.00016059537 -0.0024494324 -0.0014764168 0.0127134025 0.00203383 0.00942996 0.0051031737 -0.0011696497
0.0056276578 -0.0002224237 0.00016988814 0.0070418897 -0.0058859326 0.016776422 -0.017881881 0.003673284
0.0100128995 0.0040005804 0.00015392152 0.002552301 -0.0066448464 -0.002194792 -0.007511888 -0.008182972
0.007189314 -0.008349983 0.0028057438 -0.0060863397 -0.0054215495 0.010150748 0.009714523 0.0035581707
00000000: d80a d5bb a628 68ba 7b05 7bba 967a ccbb
00000010: 6f69 183c c883 00bb e89b 0d3c 6b81 84bb
00000020: 3f3b 83bb 5907 07b9 4762 7abc 266e 88bb
00000030: 50da cdbb 189a 05ba 63ce aebb 8000 0b3b
00000040: 77ab 943c f0be 9c3b be97 953c 432d acbb
00000050: 065e ecbb f765 e8bb fb15 0b3a f18b 9a3c
00000060: d46f 16bb a448 fb3b 10a4 0abc ac1f fa39
00000070: 2015 5bbc a691 9ebb ae04 113c b0f9 05bc
00000080: 90ac 663c ac3b c4bb 5a9e b93c c7c9 1fbc
00000090: 50cc 09bc e5ca 01bc 10d4 b8bb 96f1 a4bb
000000a0: f54d fd3b 4b80 56bc 558c 963b 6ec1 63bb
000000b0: af15 943b 3795 6fb9 9d02 d83a 811b b4bb
000000c0: 3375 ab3a 71c3 903a 8807 75bb d013 f13b
000000d0: 63b4 933c 9e6f ddbb a326 85bb 268b 943a
000000e0: fc8c 9fbb 8dbd 6a3b 7dfd acb8 b0e3 29bc
000000f0: a785 713b b42e 1abb 3c44 9ebb 0574 c1bb
00000100: 83f5 94bc 0044 2abb bd03 9ebb 5361 673b
00000110: 437f 9a3b 11c6 f63a edfb 1abc c205 933c
00000120: 6373 303a e9b6 413b 1413 eeba c441 82bc
00000130: 8933 b9ba 5826 b53b 15ae 263c 0a29 8f36
00000140: c765 34bc 3a0b 50bb 19ef 793c 7fea 86bb
00000150: d6d2 5c3c fdcb 85bb 13b7 8ebb 1450 a83b
00000160: c6d6 ae3b 1cb6 06ba 03e2 0ebc 6d6d 043a
00000170: f946 263a abff 5dbc 2cd2 82bb 0493 94bb
00000180: 7e65 2839 a886 20bb 5484 c1ba e04b 503c
00000190: 014a 053b 1e80 1a3c 8638 a73b ee4e 99ba
000001a0: 3768 b83b 683a 69b9 0024 3239 a7bf e63b
000001b0: c8de c0bb b56e 893c 067d 92bc 7bbb 703b
000001c0: 250d 243c 4d17 833b fe65 2139 8144 273b
000001d0: 03bd d9bb 80d6 0fbb 4926 f6bb df11 06bc
000001e0: 5694 eb3b 5ece 08bc 92e0 373b eb6f c7bb
000001f0: 41a7 b1bb 534f 263c aa29 1f3c 3330 693b

network_body._body_endoder.seq_layers.2.weight f4 [128, 128]
0.0517378 -0.014009576 0.07440601 0.112139896 0.03341467 -0.021589119 -0.09460624 0.091357134
-0.0138271535 0.15508181 -0.12417744 0.30469692 0.15168598 -0.11775809 0.0011889726 0.07544053
-0.06027751 0.044871856 0.036504075 0.05054217 -0.06437884 -0.12925956 -0.037275445 -0.012605676
-0.0045967204 -0.083465435 -0.020776585 0.00017500525 0.00018796197 0.13477525 -0.08953915 0.008727472
-0.027309831 -0.0037389237 -0.025436861 -0.1037852 -0.18974479 0.0544173 -0.06010263 0.032203708
-0.03977156 -0.06708168 0.121154495 0.12122398 0.003919861 0.009445627 0.03672695 -0.005519256
0.033143252 0.10644706 -0.11170853 0.042139683 -0.2526938 0.00426497 0.07766869 0.007028806
-0.23711385 -0.060827747 -0.057951007 0.08234873 -0.17977862 0.08894769 -0.10583057 -0.027427217
0.040245425 0.008440611 -0.116368234 0.003208887 -0.2539583 -0.13069755 -0.086066686 -0.12779048
-0.017309288 -0.06826975 -0.037213597 0.002325086 0.011765161 -0.009714444 -0.11076697 -0.13579684
-0.020389652 -0.047087368 0.003882245 -0.018604772 0.105218574 0.050005324 -0.27049512 0.04044212
0.07902481 0.15458025 -0.102985896 0.08032052 -0.021026978 -0.026667425 0.04203739 -0.09593218
0.07056765 -0.047335126 0.012339907 -0.041944228 0.01077851 0.03308219 0.028595896 -0.05784714
0.06905969 -0.10585358 -0.012372487 0.10991129 -0.00029575202 0.022581037 -0.016811227 -0.0100467615
-0.0223293 -0.0009248384 0.089637116 -0.12101738 -0.01663126 0.078739546 -0.054341424 -0.008844111
-0.07137729 0.09022027 0.18075265 0.10376655 0.09074748 0.034285683 0.19099063 0.18980812
0.006726825 -0.12070874 0.1385857 0.01943847 -0.08675174 -0.022578085 -0.09242261 0.01845867
-0.00075192214 -0.017763704 0.12517448 0.11647026 -0.011593848 0.056938305 0.028563123 -0.034206383
0.12626562 0.005889898 -0.09673774 -0.0022885972 0.079144076 -0.18139295 -0.18213715 0.07136997
0.006816982 -0.014240241 0.081749365 0.09793062 0.056598235 -0.0030913712 -0.16276067 0.045750387
-0.043395117 0.03361993 -0.101588815 0.01813642 0.12361666 0.069014914 -0.028154751 0.011096436
0.07717743 0.062344275 -0.037866957 0.054990172 0.092731886 0.027641064 0.05444585 -0.03639438
0.13407806 0.03473957 -0.048297107 0.04152709 0.026423397 -0.091367915 -0.041515745 0.09379667
0.030057343 0.06546867 -0.03522826 -0.045520835 -0.022159152 -0.007916055 -0.06515519 -0.19986036
-0.044377394 -0.0054319114 -0.07254494 0.078345194 0.06017721 0.05880647 0.040571105 -0.14649038
0.050891187 0.054774318 -0.0850431 -0.05425482 0.052800704 0.1303919 -0.06559279 -0.053151663
0.19349398 0.052631482 0.07159748 -0.0049392045 0.019179026 0.13988702 -0.006871866 0.09529255
-0.018423712 0.033860467 0.035373796 0.039402008 0.04357079 0.113136336 -0.011073895 -0.0015835321
-0.04480141 0.03490029 0.05333782 -0.010676627 0.21166827 0.11269372 0.041374326 -0.10544411
0.01596276 0.0135679385 0.09374036 -0.08882302 0.06692394 0.099775836 0.06129144 0.016149784
-0.10232185 -0.0378396 -0.13699459 -0.10478161 -0.140644 0.018838065 -0.019214654 -0.042794704
-0.04403132 0.07157836 -0.07292866 -0.06154228 0.052983638 -0.06036506 0.033381972 -0.14102496
00000000: 04eb 533d 6c88 65bc 2e62 983d 9aa9 e53d
00000010: d2dd 083d aadb b0bc ebc0 c1bd 7319 bb3d
00000020: 498b 62bc c4cd 1e3e be50 febd 3c01 9c3e
00000030: 9253 1b3e 272b f1bd 4dd7 9b3a 9180 9a3d
00000040: 8de5 76bd 8dcb 373d 4c85 153d 4e05 4f3d
00000050: 0ed9 83bd 9e5c 04be 23ae 18bd 0a88 4ebc
00000060: 16a0 96bb edef aabd a833 aabc 9d81 3739
00000070: a817 4539 8602 0a3e 4d60 b7bd acfd 0e3c
00000080: deb8 dfbc bb08 75bb f760 d0bc 568d d4bd
00000090: 754c 42be ade4 5e3d 2d2e 76bd 09e8 033d
000000a0: 81e7 22bd 1f62 89bd d91f f83d 4744 f83d
000000b0: 2d72 803b d5c1 1a3c 006f 163d e0da b4bb
000000c0: 38c1 073d eb00 da3d 71c7 e4bd a99a 2c3d
000000d0: 1561 81be 29c1 8b3b c310 9f3d e651 e63b
000000e0: f9cd 72be 8426 79bd 095e 6dbd 73a6 a83d
000000f0: e317 38be 352a b63d b3bd d8bd 0baf e0bc
00000100: 63d8 243d 7d4a 0a3c 7852 eebd 314c 523b
00000110: d306 82be 94d5 05be bb43 b0bd 82db 02be
00000120: 35cc 8dbc 03d1 8bbd 496d 18bd 7860 183b
00000130: a9c2 403c 5529 1fbc cbd9 e2bd 540e 0bbe
00000140: 3308 a7bc afde 40bd 436d 7e3b 0969 98bc
00000150: d67c d73d 62d2 4c3d 567e 8abe a3a6 253d
00000160: c2d7 a13d 494a 1e3e 45ea d2bd 167f a43d
00000170: c540 acbc a575 dabc 662f 2c3d 1778 c4bd
00000180: c685 903d 7ae2 41bd 522d 4a3c b6cd 2bbd
00000190: 5998 303c 3181 073d f141 ea3c 1ff1 6cbd
000001a0: 2b6f 8d3d c3c9 d8bd f9b5 4abc 2c19 e13d
000001b0: 2a0f 9bb9 defb b83c b3b7 89bc 2c9b 24bc
000001c0: f0eb b6bc db70 72ba aa93 b73d f6d7 f7bd
000001d0: 483e 88bc 3342 a13d 1d95 5ebd e4e6 10bc
000001e0: 422e 92bd 68c5 b83d 3917 393e 8f83 d43d
000001f0: d1d9 b93d 256f 0c3d 0c93 433e 0f5d 423e
00000200: b36c dc3b 2536 f7bd 69e9 0d3e 6d3d 9f3c
00000210: e5aa b1bd adf5 b8bc 1148 bdbd a336 973c
00000220: a41c 45ba 3085 91bc bd2d 003e f687 ee3d
00000230: 1ff4 3dbc 2438 693d 36fd e93c fe1b 0cbd
00000240: c64b 013e 0c00 c13b 701e c6bd 4afc 15bb
00000250: 4a16 a23d 13bf 39be 2982 3abe 6b2a 923d
00000260: fd60 df3b e64f 69bc 366c a73d d98f c83d
00000270: 8dd3 673d 9a98 4abb bcaa 26be c264 3b3d
00000280: 14bf 31bd 0db5 093d cc0d d0bd d492 943c
00000290: bb2a fd3d b157 8d3d cba4 e6bc d3cd 353c
000002a0: 330f 9e3d b65c 7f3d 621a 1bbd 603d 613d
000002b0: 37ea bd3d 836f e23c 9d02 5f3d 4612 15bd
000002c0: c24b 093e 144b 0e3d 30d3 45bd 4f18 2a3d
000002d0: e175 d83c 1a1f bbbd 6a0c 2abd 7818 c03d
000002e0: d13a f63c 7014 863d 824b 10bd 0e74 3abd
000002f0: 1c87 b5bc 57b2 01bc 1670 85bd 32a8 4cbe
00000300: 12c5 35bd 2dfe b1bb 7192 94bd 7273 a03d
00000310: 617c 763d 0edf 703d e32d 263d 9301 16be
00000320: 4773 503d 095b 603d 142b aebd 4d3a 5ebd
00000330: 8d45 583d 7485 053e 8355 86bd 8fb5 59bd
00000340: 4923 463e 1c94 573d b3a1 923d 0dd9 a1bb
00000350: 551d 9d3c 8b3e 0f3e 642d e1bb be28 c33d
00000360: 53ed 96bc 46b1 0a3d 1de4 103d 0064 213d
00000370: 4977 323d 06b4 e73d 486f 35bc 858e cfba
00000380: af81 37bd 9bf3 0e3d c278 5a3d 05ed 2ebc
00000390: 91bf 583e f7cb e63d 2078 293d 15f3 d7bd
000003a0: 56c4 823c 0f4c 5e3c f2fa bf3d d8e8 b5bd
000003b0: 6b0f 893d 4657 cc3d bc0c 7b3d 8d4c 843c
000003c0: 1e8e d1bd b2fd 1abd 4f48 0cbe be97 d6bd
000003d0: fb04 10be 4952 9a3c 0d68 9dbc 8049 2fbd
000003e0: 2f5a 34bd ad97 923d 9f5b 95bd c213 7cbd
000003f0: 5f05 593d 5a41 77bd 89bb 083d d968 10be

network_body._body_endoder.seq_layers.2.bias f4 [128]
-0.006769594 -0.004335495 -0.0035761218 -0.004170652 0.0017067833 0.001141109 -0.00054146256 -0.00303708
-0.00077588455 -0.00064115337 0.0014263302 0.00039740754 5.1612165e-05 -0.0068316343 0.003185394 0.00448469
0.0048153023 -0.015874777 0.0019343562 -0.0030788672 0.0036873373 0.00054143684 -0.0013462066 0.0042137676
0.0012910437 -0.0015016133 0.005900614 -0.0022965723 -0.0018473368 -0.008061427 -0.0002632955 -0.0004032504
0.004416615 -0.0057122298 -0.004495144 -0.0020958588 -0.0045801997 -0.004483707 -0.004060473 0.0038180803
-0.005731796 -0.0046219258 -0.0010465817 -0.0029488527 -0.0013372888 -0.0070475903 -0.0034355104 0.0005240005
-0.004121103 -0.0019061016 -0.0012099539 -0.0038950136 -0.027798949 -0.002105702 -0.0042067654 -0.003557632
-0.0008242972 -0.0028892774 -0.00026866648 0.0074695614 -0.0046199514 0.005055967 -0.0030767985 0.006822655
0.001942873 2.051725e-05 -0.0036622048 -0.004772466 -0.00033739186 0.0068328944 -0.0011955716 0.0026515448
0.002139714 -0.00047440446 -0.0003535595 -0.0007196458 0.00067897496 -0.0029973732 -0.003918971 -0.01099689
0.004639354 -0.000702707 -0.003634243 0.0082956785 -7.312072e-05 -0.0041222316 -0.0025642826 -0.0013595079
-0.0022715551 -0.0022123049 -0.0029800236 -7.1350114e-05 -0.0021041294 -0.005245302 -0.00023655283 -0.0043009375
-0.00021804353 -0.00011887751 -0.004288037 -0.0022321537 0.0014197232 0.004293064 -0.00045643904 0.0025849345
-0.008183829 0.0034129603 0.0040126154 -0.0015098529 -0.0032736526 -0.00037930705 -0.0030025272 0.0025918249
-0.005024703 -0.006986721 -0.0019861478 0.001804539 -0.000995064 -0.0015486191 0.0011155839 0.0021946093
-0.003218719 0.0027335356 -0.0066714836 -0.003960457 0.0056427084 -0.0012662357 0.00019821459 0.007102924
00000000: 78d3 ddbb c510 8ebb 5e5d 6abb f7a9 88bb
00000010: 25b6 df3a 4491 953a f0f0 0dba bf09 47bb
00000020: bb64 4bba 1313 28ba b3f3 ba3a 235b d039
00000030: 247a 5838 e7db dfbb 0bc2 503b 4ef4 923b
00000040: afc9 9d3b d20b 82bc 398a fd3a d2c6 49bb
00000050: 41a7 713b 36ef 0d3a 3373 b0ba a513 8a3b
00000060: 3d38 a93a c8d1 c4ba f059 c13b 1782 16bb
00000070: 5622 f2ba 1314 04bc ec0a 8ab9 5a6b d3b9
00000080: 40b9 903b a82d bbbb 004c 93bb ad5a 09bb
00000090: 8015 96bb 0fec 92bb b70d 85bb c238 7a3b
000000a0: cad1 bbbb 8673 97bb 742d 89ba 8a41 41bb
000000b0: f747 afba 79ef e6bb 4d26 61bb 145d 093a
000000c0: 510a 87bb 28d6 f9ba 5197 9eba 7c43 7fbb
000000d0: 9fba e3bc d1ff 09bb e8d8 89bb 2927 69bb
000000e0: a615 58ba 085a 3dbb cedb 8cb9 39c3 f43b
000000f0: f662 97bb 86ac a53b 1da4 49bb 9490 df3b
00000100: 00a8 fe3a 751c ac37 9a01 70bb 5962 9cbb
00000110: f8e3 b0b9 79e6 df3b bab4 9cba 8ac5 2d3b
00000120: 723a 0c3b 7db9 f8b9 f45d b9b9 9da6 3cba
00000130: 3dfd 313a 946f 44bb b66a 80bb 4d2c 34bc
00000140: b905 983b de35 38ba 7b2c 6ebb 99ea 073c
00000150: 6358 99b8 c913 87bb 860d 28bb 8431 b2ba
00000160: 5fde 14bb 51fc 10bb 804c 43bb cda1 95b8
00000170: 6fe5 09bb c8e0 abbb 2b0b 78b9 e1ee 8cbb
00000180: 9da2 64b9 e14d f9b8 a982 8cbb 5349 12bb
00000190: 0116 ba3a d5ac 8c3b 364e efb9 0168 293b
000001a0: 7715 06bc f9ab 5f3b 427c 833b 42e6 c5ba
000001b0: c78a 56bb bbdd c6b9 0cc6 44bb 9bdb 293b
000001c0: 44a6 a4bb ddf0 e4bb 082a 02bb 4886 ec3a
000001d0: cf6c 82ba 09fb caba c938 923a 6fd3 0f3b
000001e0: 25f1 52bb 1e25 333b 769c dabb b9c6 81bb
000001f0: 78e6 b83b d2f7 a5ba d3d7 4f39 a5bf e83b

action_model._continuous_distribution.log_sigma f4 [1, 2]
0.028039416 0.00951139
00000000: ebb2 e53c a9d5 1b3c

action_model._continuous_distribution.mu.weight f4 [2, 128]
0.03534025 -0.015445194 0.008566255 -0.0027881511 -0.010720023 0.015107803 -0.006819369 -0.024682693
-0.020720733 0.0038645645 -0.0027002792 -0.018599069 0.0031618292 0.009233997 1.4069067e-05 0.0013814245
-0.0038186626 0.038816072 0.019510498 0.012699131 0.0039410265 -0.011304477 -0.017837383 0.012075951
-0.015618017 0.0015322088 0.012023814 -0.0058796187 0.0149174435 0.013546136 -0.008674541 -0.006796134
-0.0027536093 0.0037013083 0.017880868 0.013173384 -0.00078334846 -0.010103429 0.011039344 -0.0020515868
0.005413712 -0.011351517 -0.020014573 -0.007591501 0.024587391 -0.007121269 -0.008457405 0.02866454
-0.012753594 -0.010941659 -0.019797798 0.013203677 0.033625968 -0.0017126026 -0.023100797 -0.0049868687
-0.00299517 -0.025641873 0.016520966 0.003904919 0.008727158 -0.022146419 0.0014998029 -0.020028027
0.010129574 0.025483392 0.0015562618 0.0024076486 0.018598842 -0.012483015 -0.033277687 -0.049638294
0.01779399 0.014200763 0.0068913233 0.021879898 0.014991545 -0.00018921825 0.009896904 -0.0028921168
-0.014118007 -0.0271638 0.012677353 -0.027884964 0.030947635 0.00520603 -0.010446239 0.019256411
0.0029482374 -0.02452582 0.014123778 0.009479654 -0.006806457 0.002651256 -0.011187095 0.006873512
0.021093976 -0.022706209 -0.01397743 0.0034920485 -0.009689621 0.013557909 0.0034848917 -0.010116879
0.018113 0.012203418 -0.003262964 -0.013713097 -0.0218026 -0.01860973 -0.010017433 -0.0059524863
0.0055769337 0.004491134 -0.0052584317 -0.0027297346 0.006385845 -0.00269994 -0.0060594114 0.007189699
0.012107906 -0.00279049 -0.0029450627 -0.008468435 0.015957525 0.01458168 0.01887426 -0.019485481
0.0077315657 -0.0040725595 0.010243019 0.034031168 -0.026915533 -0.0126095135 -0.018409504 0.0093045095
-0.010891138 -0.017661616 -0.020187961 0.02280798 -0.012145273 0.006389582 -0.010349232 0.0014941096
-0.011044494 0.0009559108 0.0011963008 -0.0021602456 0.0031197758 0.0100842165 -0.005286378 -0.01847989
-0.0024375443 0.004993914 -0.004258317 0.003722877 -0.001157501 0.0064059705 -0.00012595994 -0.0074962666
0.0030869974 0.0030882128 0.009647425 0.006237583 0.016035242 0.013488616 0.014101633 -0.035468113
0.010564657 -0.0026523336 0.0021269494 0.026154483 0.012601048 -0.000246496 0.0152725 0.008888536
0.03267709 -0.007602742 -0.009874098 0.021016566 0.014003617 -0.008543205 -0.0020592483 0.02327563
-0.021968203 0.0039359718 0.020698749 -0.0023698173 0.009496663 0.012013814 0.02150989 -0.032222327
-0.014695769 0.007400204 -0.0035199989 0.0019936785 -0.005194099 -0.027103737 0.0066088047 -0.02549774
-0.015554556 -0.038007997 -0.011042174 -0.006397528 -0.023378609 0.010724164 0.008159646 -0.007182122
-0.036729358 -0.006972721 -0.0039217644 -0.038268954 0.02642264 0.0025029127 0.02657071 0.012275593
0.015413407 0.008826697 0.014702936 -0.008621013 0.024312546 0.01077067 -0.009107047 0.0065537
0.014782789 -0.025667116 0.025012601 0.032030433 0.009299076 -0.008334164 -0.0030536626 -0.012221551
0.012391761 0.0005327657 -0.015550255 0.006685642 0.008046403 0.0046147793 -0.012644158 -0.020982226
-0.0063440455 0.006196129 0.016804328 -0.016761161 -0.0032641285 0.009942204 -0.010409557 -0.019081125
0.027628487 -0.003815881 -0.0030025186 0.014394158 0.0073287995 -0.013120238 -0.017117104 -0.003980793
00000000: f0c0 103d d70d 7dbc 7a59 0c3c 6ab9 36bb
00000010: 09a3 2fbc b886 773c 0375 dfbb 5c33 cabc
00000020: 87be a9bc a244 7d3b 2bf7 30bb 135d 98bc
00000030: b136 4f3b 314a 173c 2f0a 6c37 ea10 b53a
00000040: 8742 7abb 9afd 1e3d 7bd4 9f3c 0410 503c
00000050: ba23 813b 6a36 39bc b41f 92bc 36da 453c
00000060: b6e2 7fbc 65d4 c83a 88ff 443c d1a9 c0bb
00000070: 4b68 743c 9df0 5d3c a91f 0ebc 1bb2 debb
00000080: e675 34bb a691 723b e67a 923c 2dd5 573c
00000090: a059 4dba da88 25bc 5dde 343c ea73 06bb
000000a0: 8265 b13b b7fb 39bc 9af5 a3bc 20c2 f8bb
000000b0: 7f6b c93c 8959 e9bb ed90 0abc e6d1 ea3c
000000c0: 73f4 50bc a544 33bc fe2e a2bc 3c54 583c
000000d0: 62bb 093d 6879 e0ba e23d bdbc e368 a3bb
000000e0: 9d4a 44bb e80e d2bc fa56 873c abe9 7f3b
000000f0: 5bfc 0e3c 686c b5bc 0995 c43a d111 a4bc
00000100: 83f6 253c 8cc2 d03c 7bfb cb3a a4c9 1d3b
00000110: 995c 983c 8f85 4cbc 2f4e 08bd 8651 4bbd
00000120: b4c4 913c 51aa 683c 9cd0 e13b 793d b33c
00000130: 199f 753c e368 46b9 a026 223c ab89 3dbb
00000140: 374f 67bc 9e86 debc acb4 4f3c 026f e4bc
00000150: e585 fd3c 5897 aa3b b426 2bbc 9fbf 9d3c
00000160: 3737 413b 5fea c8bc 6b67 673c 8d50 1b3c
00000170: b308 dfbb b2c0 2d3b 144a 37bc 333b e13b
00000180: 46cd ac3c 5f02 babc 9701 65bc dada 643b
00000190: 37c1 1ebc fe21 5e3c c862 643b 44c1 25bc
000001a0: b761 943c d8f0 473c 74d7 55bb e6ac 60bc
000001b0: 5e9b b2bc 6f73 98bc 2920 24bc 130d c3bb
000001c0: b6be b63b 5d2a 933b ec4e acbb 59e5 32bb
000001d0: 5a40 d13b 7af1 30bb 078e c6bb 9197 eb3b
000001e0: 3d60 463c a7e0 36bb f401 41bb 31bf 0abc
000001f0: 5bb9 823c 00e8 6e3c 319e 9a3c 04a0 9fbc
00000200: 1359 fd3b 1b73 85bb 56d2 273c 4464 0b3d
00000210: f77d dcbc 2298 4ebc 87cf 96bc f171 183c
00000220: be70 32bc 18af 90bc 3961 a5bc cdd7 ba3c
00000230: f8fc 46bc b35f d13b d38f 29bc 00d6 c33a
00000240: f7f3 34bc 1696 7a3a 32cd 9c3a e892 0dbb
00000250: 2775 4c3b 4538 253c 5a39 adbb 2363 97bc
00000260: 35bf 1fbb fda3 a33b 5a89 8bbb 83fb 733b
00000270: 4ab7 97ba 2de9 d13b 1d14 04b9 3ea3 f5bb
00000280: 394f 4a3b 9d63 4a3b 3c10 1e3c a364 cc3b
00000290: 575c 833c 5bff 5c3c 890a 673c 0347 11bd
000002a0: 6217 2d3c c6d2 2dbb 4a64 0b3b ed41 d63c
000002b0: a074 4e3c 223c 81b9 8239 7a3c 39a1 113c
000002c0: 6ad8 053d 6c20 f9bb f8c6 21bc ef2a ac3c
000002d0: 6d6f 653c cdf8 0bbc 74f4 06bb 89ac be3c
000002e0: a9f6 b3bc 53f9 803b 6c90 a93c f04e 1bbb
000002f0: e497 1b3c 97d5 443c 8235 b03c 8ffb 03bd
00000300: 86c6 70bc 697d f23b c8af 66bb 60a8 023b
00000310: 4333 aabb a808 debc ac8e d83b a3e0 d0bc
00000320: 89d8 7ebc 46ae 1bbd 3cea 34bc 5ba2 d1bb
00000330: 7f84 bfbc 67b4 2f3c 09b0 053c 0258 ebbb
00000340: 8671 16bd 6c7b e4bb 2582 80bb e8bf 1cbd
00000350: 4b74 d83c e807 243b d1aa d93c 921f 493c
00000360: 8488 7c3c da9d 103c 95e4 703c 263f 0dbc
00000370: 1b2b c73c 7777 303c b935 15bc 6cc0 d63b
00000380: 8333 723c d843 d2bc 3ae7 cc3c 5832 033d
00000390: 275b 183c 048c 08bc f51f 48bb e63c 48bc
000003a0: d006 4b3c 4da9 0b3a 7fc6 7ebc 3b13 db3b
000003b0: 0fd5 033c 9337 973b 7129 4fbc ebe2 abbc
000003c0: b6e1 cfbb e608 cb3b 3ba9 893c b44e 89bc
000003d0: fdea 55bb a0e4 223c d98c 2abc 0550 9cbc
000003e0: 2355 e23c dc13 7abb e7c5 44bb 79d5 6b3c
000003f0: 6d26 f03b 44f6 56bc 2b39 8cbc 5071 82bb

action_model._continuous_distribution.mu.bias f4 [2]
0.0003502837 -0.0028735823
00000000: 48a6 b739 b652 3cbb
