Assets/Brain/8(60%).onnx (onnx, 112473 bytes, 7 tensors)

network_body._body_endoder.seq_layers.0.weight f4 [128, 84]
-0.067739464 0.1237901 0.21897817 0.09047305 0.0738715 0.20443602 0.115210935 0.24793158
0.13772309 -0.090824924 -0.08386847 0.16575986 -0.41034082 0.19086967 0.0855572 -0.019594174
0.049769666 0.17025694 -0.022436734 0.3228105 0.023863766 0.054853775 -0.05621899 0.0052777147
0.050465968 -0.05786337 0.2245406 0.25404894 -0.13717984 -0.23114622 0.1559022 0.03448194
-0.035538796 0.016303765 -0.17871779 -0.1799275 0.11975578 0.013697197 0.13464674 0.1854323
-0.17938882 -0.05945206 -0.01797531 -0.09702723 -0.020591477 -0.07318874 0.0054279827 0.0882434
0.1414792 0.12445833 -0.19395876 0.10599258 -0.011309357 -0.024698086 0.12878434 -0.09258952
-0.0048238733 0.022403626 0.07637299 0.02663145 0.10309742 -0.026275594 -0.07927702 0.22938055
-0.025464348 0.066680655 0.020552946 0.04419075 0.20151177 0.30372483 -0.1221621 0.14931068
0.07415051 -0.093920596 0.035541978 0.12617819 -0.047984213 -0.15722428 0.05422009 0.14447932
-0.0105778985 -0.051282905 -0.07001565 0.16618381 -0.12789756 0.122987576 -0.06206807 -0.15068547
-0.05806478 0.12264703 0.08181437 0.020700268 -0.12227962 0.022203777 -0.23538285 -0.072848655
0.02405027 -0.18121521 -0.29282963 -0.16293703 0.26455846 -0.0994269 0.10742614 -0.0392132
0.065520145 -0.08647857 0.018415831 0.09937866 0.18713923 -0.2542233 0.10077095 -0.05634631
0.1506007 0.24699952 -0.11948885 -0.036705233 0.23018105 0.2064998 -0.08615105 0.041787326
0.034952518 0.0689683 0.01695496 0.07789884 -0.0071741575 0.13578492 0.089871615 0.08921524
-0.01812499 -0.030941065 -0.15490052 -0.084007464 -0.16257782 0.044754382 -0.019694442 -0.16747876
0.009571013 -0.094393894 -0.00506494 0.09081367 -0.038501967 -0.2536586 0.18124305 0.24518488
-0.07651566 0.29412234 0.08258651 -0.16848621 0.025533276 0.014318723 0.028435543 0.1096923
-0.041034043 -0.2669554 0.13862924 0.057966076 -0.016609028 -0.012966959 0.12529768 -0.22917382
-0.11235934 -0.10785928 0.05064274 0.020271217 -0.003821603 -0.07511377 0.107528485 -0.022546034
0.10325662 -0.22917186 0.17253274 -0.053366855 0.08474012 -0.06742336 -0.062383443 0.06926665
-0.042046674 -0.022734994 -0.09841101 0.023175122 -0.0037326824 -0.19550258 -0.06606543 0.1656782
0.088590086 -0.15204096 -0.089735135 0.16056837 -0.06608617 -0.03955494 0.04800516 0.04647395
0.036914293 0.026618833 0.042164825 -0.120143786 0.128009 0.1041939 0.09876761 0.1214869
0.36547187 0.2214441 0.05172422 -0.13329446 -0.011245653 -0.14526649 0.008329144 0.13934895
0.16172802 -0.00085526257 0.116236575 -0.013268372 -0.0666529 0.12119513 -0.0535233 -0.08494951
0.02075662 -0.084794044 -0.033304017 0.084395014 0.20645948 -0.05944929 -0.12156957 -0.0048703165
-0.14649197 -0.29013175 0.0013736852 0.02506919 -0.12420393 0.084960915 -0.029482186 -0.111826554
-0.03928504 0.05183738 0.04120331 0.04906908 0.18691847 0.08249387 -0.014767877 0.0026879895
-0.14165054 0.020442821 0.03996233 -0.061296087 0.059945304 0.08983675 0.059137244 0.015847722
0.14831758 -0.1170538 0.0083466275 0.03332569 0.08258259 -0.21960054 -0.018174443 0.053554744
00000000: fdba 8abd aa85 fd3d d03b 603e ef49 b93d
00000010: f149 973d ad57 513e b6f3 eb3d c7e1 7d3e
00000020: 4807 0d3e 6b02 babd 3bc3 abbd f4bc 293e
00000030: 3118 d2be 5773 433e 9d38 af3d f683 a0bc
00000040: 47db 4b3d d657 2e3e 3ecd b7bc 6b47 a53e
00000050: f27d c33c 5aae 603d e245 66bd aef0 ac3b
00000060: 67b5 4e3d 2402 6dbd f9ed 653e b412 823e
00000070: df78 0cbe 98b1 6cbe d4a4 1f3e ef3c 0d3d
00000080: 2191 11bd 798f 853c cc01 37be ea3e 38be
00000090: 8542 f53d 356a 603c d6e0 093e f7e1 3d3e
000000a0: b4b1 37be 0184 73bd f540 93bc 36b6 c6bd
000000b0: 75af a8bc fae3 95bd 38dd b13b f5b8 b43d
000000c0: ecdf 103e 02e4 fe3d 209d 46be a312 d93d
000000d0: e24a 39bc a453 cabc 0be0 033e 939f bdbd
000000e0: 9511 9ebb cf87 b73c 7169 9c3d 332a da3c
000000f0: bd24 d33d ea3f d7bc fe5b a2bd bce2 6a3e
00000100: 9c9a d0bc de8f 883d a75e a83c 5c01 353d
00000110: 1a59 4e3e d281 9b3e 2030 fabd e6e4 183e
00000120: 39dc 973d 7159 c0bd 7794 113d db34 013e
00000130: 188b 44bd 67ff 20be e315 5e3d 63f2 133e
00000140: ec4e 2dbc 060e 52bd 5d64 8fbd 172c 2a3e
00000150: 94f7 02be e9e0 fb3d 173b 7ebd 4b4d 1abe
00000160: 56d5 6dbd 5e2e fb3d 4b8e a73d 9c93 a93c
00000170: bd6d fabd b2e4 b53c 3408 71be ad31 95bd
00000180: 1205 c53c 7b90 39be c4ed 95be f7d8 26be
00000190: 3574 873e 55a0 cbbd 3c02 dc3d 059e 20bd
000001a0: 6d2f 863d ad1b b1bd ccdc 963c 0a87 cb3d
000001b0: 6da1 3f3e 8e29 82be 0061 ce3d 63cb 66bd
000001c0: 1237 1a3e 71ed 7c3e 92b6 f4bd 3a58 16bd
000001d0: 95b4 6b3e af74 533e f66f b0bd 3029 2b3d
000001e0: 5f2a 0f3d 413f 8d3d 21e5 8a3c 6d89 9f3d
000001f0: 3215 ebbb 340b 0b3e 9c0e b83d 7bb6 b63d
00000200: dc7a 94bc 1e78 fdbc 3e9e 1ebe 1b0c acbd
00000210: cd7a 26be 5f50 373d 3d56 a1bc 8d7f 2bbe
00000220: bdcf 1c3c 9651 c1bd ccf7 a5bb 84fc b93d
00000230: 3db4 1dbd 8adf 81be c797 393e bf11 7b3e
00000240: 3eb4 9cbd 3497 963e 1e23 a93d a687 2cbe
00000250: 292b d13c 1499 6a3c a8f1 e83c 5ba6 e03d
00000260: 5013 28bd 61ae 88be d3f4 0d3e d66d 6d3d
00000270: a80f 88bc 5e73 54bc 094e 003e 8bac 6abe
00000280: a71c e6bd 54e5 dcbd c36e 4f3d d30f a63c
00000290: dc73 7abb 40d5 99bd e537 dc3d 76b2 b8bc
000002a0: 3578 d33d 07ac 6abe 6cac 303e 3497 5abd
000002b0: 3a8c ad3d 4215 8abd c885 7fbd acdb 8d3d
000002c0: 2239 2cbd bd3e babc b68b c9bd c1d9 bd3c
000002d0: 05a0 74bb d431 48be 504d 87bd 8ca7 293e
000002e0: b86e b53d a0b0 1bbe 0ec7 b7bd 096c 243e
000002f0: 3058 87bd 5c04 22bd 0fa1 443d 785b 3e3d
00000300: 7133 173d bd0f da3c 06b5 2c3d f20d f6bd
00000310: cb14 033e 9d63 d53d ac46 ca3d 20ce f83d
00000320: 211f bb3e 3ec2 623e c7dc 533d 587e 08be
00000330: b03f 38bc bdc0 14be f676 083c 7eb1 0e3e
00000340: 089c 253e b333 60ba 710d ee3d 9663 59bc
00000350: 5181 88bd 2735 f83d 3f3b 5bbd 02fa adbd
00000360: ca09 aa3c 80a8 adbd cb69 08bd 4bd7 ac3d
00000370: 1d6a 533e 1981 73bd 77f9 f8bd 2d97 9fbb
00000380: fe01 16be 268c 94be 3a0d b43a e75d cd3c
00000390: a15e febd fdff ad3d a084 f1bc 5205 e5bd
000003a0: 5ae9 20bd 6f53 543d cdc4 283d a9fc 483d
000003b0: 8e67 3f3e 8cf2 a83d f7f4 71bc fb28 303b
000003c0: d70c 11be b477 a73c 8aaf 233d 9b11 7bbd
000003d0: 3589 753d 54fc b73d e539 723d 15d3 813c
000003e0: 90e0 173e e7b9 efbd 4bc0 083c 8580 083d
000003f0: 1021 a93d f7de 60be 92e2 94bc 385c 5b3d

network_body._body_endoder.seq_layers.0.bias f4 [128]
0.044186454 0.014609958 0.0022537604 -0.00025207968 0.023174196 0.024196481 0.02717314 0.01353822
0.017287262 0.015435353 0.033426795 0.008665803 0.04695516 0.023877732 -0.001924927 0.037381515
0.0130516505 -0.041292932 0.0338628 0.012426235 0.038297392 0.0016391174 0.030570723 0.003378808
-0.009117773 -0.03424941 -0.0025705118 0.00052954647 0.01375578 0.017975463 0.024303965 -0.001800074
0.0051992275 -0.0072990586 0.008991432 0.031712815 0.028706705 -0.03047425 0.019952482 0.011821583
-0.007780117 0.01591215 0.014821444 0.0030374893 0.0072097885 -0.01956108 0.014306453 -0.010866043
0.014972068 0.036148384 0.034167673 0.009766086 0.04006705 0.0032207458 0.0021245275 0.023847122
0.043931942 0.0096553285 0.025933718 -0.0063049407 0.005289343 0.020335576 0.054377157 -0.00355601
0.025542798 -0.049594775 -0.010000788 0.009659984 -0.016130805 0.01669438 0.00849052 0.013494268
0.02809899 -0.03538134 -0.0074402434 0.009634507 0.01587933 -0.0076455427 0.027092466 0.0118984105
0.0029854483 0.044439696 -0.0043987976 -0.045207173 0.013641815 0.01773749 0.020137561 0.016687984
0.0050567603 0.019514073 0.038730673 0.009084302 0.010877543 0.030766873 0.021871328 0.019416828
0.011430243 0.014877051 -0.0055873697 0.007629969 0.009778543 0.04500521 0.010858982 0.028732145
-0.011121828 -0.0029774676 -0.012150829 0.0012667023 0.017359015 0.0050355596 0.006665231 -0.027302705
-0.00923622 0.009765126 0.027538221 -0.03294576 0.009320694 0.012441527 0.0078073423 0.022166083
0.028814798 0.005145562 0.004534194 0.02818328 0.013989161 -0.0011451016 0.021201765 -0.016016379
00000000: dbfc 343d 9b5e 6f3c d3b3 133b 9029 84b9
00000010: d0d7 bd3c b337 c63c 349a de3c 69cf 5d3c
00000020: 049e 8d3c 90e4 7c3c 89ea 083d 03fb 0d3c
00000030: 0e54 403d 3c9b c33c d54d fcba 5c1d 193d
00000040: 97d6 553c c722 29bd b8b3 0a3d 6897 4b3c
00000050: badd 1c3d a7d7 d63a 746f fa3c fe6e 5d3b
00000060: b662 15bc 1c49 0cbd 0876 28bb 43d1 0a3a
00000070: ec5f 613c 4741 933c 1c19 c73c 76f0 ebba
00000080: 485e aa3b f12c efbb cd50 133c 4ce5 013d
00000090: 532a eb3c 22a5 f9bc 6373 a33c 50af 413c
000000a0: 5af0 febb 325a 823c a4d5 723c 9d10 473b
000000b0: 1740 ec3b 8f3e a0bc 9d65 6a3c 7d07 32bc
000000c0: 684d 753c 5410 143d 67f3 0b3d ef01 203c
000000d0: 591d 243d 2613 533b a83b 0b3b 0a5b c33c
000000e0: fbf1 333d 6231 1e3c f372 d43c ad99 cebb
000000f0: 3a52 ad3b cb96 a63c 95ba 5e3d f30b 69bb
00000100: 213f d13c e423 4bbd 58da 23bc e944 1e3c
00000110: c024 84bc a7c2 883c d21b 0b3c 1017 5d3c
00000120: da2f e63c 06ec 10bd 49cd f3bb 0dda 1d3c
00000130: 5e15 823c 7687 fabb 05f1 dd3c 8df1 423c
00000140: 83a7 433b 6606 363d ca23 90bb 282b 39bd
00000150: eb81 5f3c 364e 913c 87f7 a43c 3db5 883c
00000160: 2eb3 a53b fadb 9f3c 0ea4 1e3d 53d6 143c
00000170: b937 323c cf0a fc3c 802b b33c 0a10 9f3c
00000180: ea45 3b3c e0be 733c 4116 b7bb d204 fa3b
00000190: 2f36 203c 6257 383d dfe9 313c ad5f eb3c
000001a0: 5438 36bc 9e21 43bb 4514 47bc 7a07 a63a
000001b0: 7e34 8e3c 5601 a53b 0368 da3b eca9 dfbc
000001c0: 8453 17bc e8fd 1f3c d697 e13c 22f2 06bd
000001d0: d3b5 183c 8cd7 4b3c bcd4 ff3b a595 b53c
000001e0: 030d ec3c 1a9c a83b 9393 943b 9fe0 e63c
000001f0: cb32 653c 3c17 96ba 53af ad3c c834 83bc

network_body._body_endoder.seq_layers.2.weight f4 [128, 128]
0.08151634 0.022994168 -0.003088371 0.05424159 0.00069034734 -7.60468e-05 -0.015603419 0.13634112
-0.08982533 0.053910155 -0.06392961 0.025416967 0.1223298 -0.023457814 0.13110936 0.050844096
-0.03423695 -0.011252683 -0.07652903 -0.015904156 0.23968433 0.10976925 0.13654274 -0.08817728
-0.11713203 0.030635022 -0.026202941 -0.21927883 -0.109184265 0.17054632 0.16173105 0.012632833
-0.0014494285 -0.05429334 0.03674929 0.0058688144 0.0061420677 0.032782614 -0.08558292 0.025208479
-0.027813595 -0.054609545 -0.02905673 0.11492463 0.037054908 0.09393914 -0.21107213 0.035086785
-0.012512664 0.017678592 -0.06450487 0.02584638 0.021860467 0.009274682 -0.08408109 0.13208243
-0.0026790511 0.004810889 0.15538526 -0.07789777 0.18112788 -0.039689846 -0.0065011824 -0.07043446
0.07155437 0.014094698 0.021832101 -0.034623735 0.07048478 -0.075963266 -0.07322676 0.04719682
-0.093761526 -0.10654368 0.12099588 -0.08850847 -0.041285515 -0.06226969 0.15712793 0.008157435
0.016220206 0.039595623 0.07065454 -0.13538548 0.03351922 0.11579114 0.14691932 -0.14678793
-0.11157552 -0.010396653 -0.03655436 -0.14119025 0.00778033 0.027463175 -0.06473387 -0.19979516
-0.036776457 0.050531037 -0.03039043 -0.12532529 -0.045632243 0.04746558 -0.21308596 -0.0014158969
-0.032877337 -0.17888924 0.008037322 -0.10525621 -0.086219706 -0.0196074 -0.1405396 0.14863689
0.018040387 0.08258497 0.054038774 0.056926813 0.059633505 0.038984552 -0.12905307 0.011306703
-0.17673922 0.0066546868 -0.00039360314 0.026149135 0.09221977 0.03596748 -0.06420096 -0.002624722
-0.034661476 -0.10108122 -0.05788546 0.13559723 0.00035039659 0.10326433 0.22107162 0.09804958
0.032875948 -0.112876676 -0.20835446 0.03280061 -0.02405495 -0.04766168 0.044056594 0.01902652
-0.12024759 0.04151303 0.10904304 -0.08214192 0.15240535 -0.038100205 0.13823928 -0.0017222716
-0.035653938 0.04086228 0.03066968 -0.07006064 0.045398224 0.15316282 -0.0294626 -0.049324714
0.10177016 0.0029438885 -0.12502028 0.19601591 0.14863034 -0.08157087 -0.022917628 -0.044289116
-0.10086367 -0.072622925 -0.12467898 0.116742894 0.0065698964 0.022725318 0.010786717 -0.067175716
0.014244352 0.016393593 -0.1074124 0.12610997 -0.09635906 -0.05791173 -0.062380824 0.04656807
0.088748775 -0.018992752 -0.12279999 0.05033527 -0.091493614 0.036263958 -0.034614895 0.04450003
0.09888609 0.046530105 -0.13991803 0.043782543 -0.014990211 0.08551182 0.022562243 0.06822404
0.13956632 0.063131124 -0.024893362 0.0041697333 -0.2080699 -0.06589398 -0.0674189 -0.20718949
0.018937394 0.06611574 -0.003978557 0.00033229837 0.049962703 0.29644844 -0.11807625 -0.02063584
4.586438e-05 -0.06699366 -0.152712 0.05022507 -0.003141557 0.007766686 -0.09572349 -0.18032937
-0.04150005 0.16112728 0.17330283 0.018362759 -0.013664644 0.088651925 0.16042621 0.1081863
0.0793568 -0.025963685 0.14158323 -0.06651119 -0.039865974 -0.005004368 -0.070946686 -0.2007415
0.01973421 -0.053751964 0.14666475 -0.10442166 0.12940967 0.11141423 -0.07161369 -0.17365651
-0.09988688 0.105657354 -0.089700796 0.11693786 -0.109047115 0.1697141 0.07328724 0.16829138
00000000: 0af2 a63d 445e bc3c 4466 4abb 6e2c 5e3d
00000010: 6df8 343a 517b 9fb8 7ca5 7fbc 029d 0b3e
00000020: 58f6 b7bd e5d0 5c3d 87ed 82bd 3e37 d03c
00000030: 0c88 fa3d 9a2a c0bc 8841 063e e641 503d
00000040: 0b3c 0cbd 2c5d 38bc 41bb 9cbd 6f49 82bc
00000050: cf6f 753e b3ce e03d dcd1 0b3e 4a96 b4bd
00000060: ebe2 efbd 4cf6 fa3c 8da7 d6bc a18a 60be
00000070: 009c dfbd b2a3 2e3e d39c 253e f1f9 4e3c
00000080: c0fa bdba b162 5ebd 6c86 163d 2f4f c03b
00000090: 6643 c93b 1047 063d 1946 afbd 0382 ce3c
000000a0: 56d9 e3bc 42ae 5fbd 6108 eebc 9b5d eb3d
000000b0: e3c6 173d 2a63 c03d 4b23 58be 29b7 0f3d
000000c0: eb01 4dbc b2d2 903c 211b 84bd cabb d33c
000000d0: b914 b33c d6f4 173c b532 acbd 9e40 073e
000000e0: 0593 2fbb a9a4 9d3b 501d 1f3e de88 9fbd
000000f0: 9679 393e d291 22bd df07 d5bb f13f 90bd
00000100: 198b 923d 73ed 663c 3cd9 b23c 9ed1 0dbd
00000110: 535a 903d a192 9bbd e9f7 95bd 7451 413d
00000120: 0b06 c0bd 9333 dabd b0cc f73d ee43 b5bd
00000130: 001b 29bd 810e 7fbd 25e6 203e c3a6 053c
00000140: 3de0 843c 052f 223d 54b3 903d 7ea2 0abe
00000150: 734b 093d e823 ed3d 0572 163e 934f 16be
00000160: b581 e4bd b956 2abc 06ba 15bd 2d94 10be
00000170: 23f2 fe3b 74fa e03c 3193 84bd 1a97 4cbe
00000180: e9a2 16bd a2f9 4e3d 5af5 f8bc 4655 00be
00000190: e0e8 3abd 456b 423d 3533 5abe 9e95 b9ba
000001a0: 63aa 06bd be2e 37be f9ae 033c 9190 d7bd
000001b0: f593 b0bd b39f a0bc 9de9 0fbe 4534 183e
000001c0: 6fc9 933c 4f22 a93d c357 5d3d 172c 693d
000001d0: 4342 743d 44ae 1f3d 7d26 04be c03f 393c
000001e0: 20fb 34be 8f0f da3b 855c ceb9 b636 d63c
000001f0: b8dd bc3d a352 133d cb7b 83bd 8703 2cbb
00000200: 31f9 0dbd ac03 cfbd 4e19 6dbd 00da 0a3e
00000210: 6fb5 b739 407c d33d 9960 623e 38ce c83d
00000220: eea8 063d e32b e7bd df5a 55be ef59 063d
00000230: e30e c5bc e538 43bd b074 343d 81dd 9b3c
00000240: 5e44 f6bd 9109 2a3d f551 df3d 063a a8bd
00000250: 2610 1c3e f60e 1cbd 998e 0d3e d8bd e1ba
00000260: dd09 12bd 355f 273d fb3e fb3c f47b 8fbd
00000270: 7df3 393d b7d6 1c3e 8d5b f1bc b608 4abd
00000280: e06c d03d 41ee 403b 5105 00be 65b8 483e
00000290: 8d32 183e a10e a7bd c0bd bbbc 8168 35bd
000002a0: 9d91 cebd 54bb 94bd b157 ffbd e616 ef3d
000002b0: 4948 d73b 722a ba3c c5ba 303c 6c93 89bd
000002c0: 2461 693c db4b 863c 08fb dbbd f922 013e
000002d0: e657 c5bd da34 6dbd 0983 7fbd 29be 3e3d
000002e0: ebc1 b53d b096 9bbc 907e fbbd 5b2c 4e3d
000002f0: 0161 bbbd 8489 143d 59c8 0dbd aa45 363d
00000300: ca84 ca3d 5a96 3e3d ac46 0fbe 5355 333d
00000310: 8199 75bc d220 af3d 74d4 b83c 0cb9 8b3d
00000320: 79ea 0e3e e44a 813d 2aed cbbc 42a2 883b
00000330: 4710 55be 6cf3 86bd ec12 8abd 7b29 54be
00000340: 9822 9b3c b067 873d 8e5e 82bb 5538 ae39
00000350: b1a5 4c3d 17c8 973e f6d1 f1bd 7e0c a9bc
00000360: 815e 4038 f933 89bd 8960 1cbe ceb8 4d3d
00000370: 95e2 4dbb af7f fe3b ad0a c4bd 43a8 38be
00000380: f5fb 29bd 8dfe 243e 4c76 313e 7f6d 963c
00000390: ace1 5fbc 248f b53d c546 243e c790 dd3d
000003a0: d185 a23d cbb1 d4bc 32fb 103e 0537 88bd
000003b0: 814a 23bd aefb a3bb 7f4c 91bd 2e8f 4dbe
000003c0: a3a9 a13c 052b 5cbd 492f 163e 06db d5bd
000003d0: f883 043e 252d e43d 33aa 92bd 03d3 31be
000003e0: 7e91 ccbd e262 d83d 0db5 b7bd 1e7d ef3d
000003f0: 1854 dfbd 88c9 2d3e 9f17 963d 9354 2c3e

network_body._body_endoder.seq_layers.2.bias f4 [128]
0.0020130724 0.007825499 0.01635709 0.0035913177 0.013443018 -0.0023489934 -0.0048868367 -0.009152961
0.0019675123 -0.005378152 0.007295384 0.020917162 0.0047011944 0.03779439 0.0099784965 0.0269442
0.0048934002 0.016059792 0.025185745 0.0028405555 0.024877692 0.014555719 0.012650844 0.012730146
0.029096693 -0.0068321666 0.001971189 0.003910778 0.0005503825 0.022691187 0.010047657 0.019866385
0.007091026 0.0045756106 -0.015319823 0.0002451474 0.017638512 0.009444033 0.011189089 0.028746204
0.012392331 0.015443781 2.5868509e-05 0.007657075 0.022540491 0.00411942 0.017026301 -0.0037316615
0.012275988 0.022848725 0.0038601705 0.009059177 0.01004632 0.017293053 0.013079961 0.019556921
0.0068813716 0.011238666 -0.034801625 0.011679677 0.030259855 0.0039471844 0.017279748 0.020505117
-0.012793362 0.018622685 0.009378402 0.025560254 0.027025308 0.0025776995 0.009779883 -0.0007129672
0.019953027 0.014608447 0.005736757 -0.011651087 0.00951195 0.011119929 -0.033047155 -0.006815489
0.021141684 0.020982938 0.047981694 0.008128758 0.011171257 0.0029864365 0.015423156 0.035356842
0.020408353 0.023248421 -0.00010488911 -0.020505881 0.021350311 0.011939632 0.010814237 -0.020236388
0.010251886 0.013941484 0.013452591 -0.0015311753 0.02752517 0.040365115 0.012108829 0.010319478
0.014686962 -0.0015669969 0.008208463 0.0072360355 0.01284154 0.013677698 0.0003281308 0.016183063
-0.01141904 -0.0096026035 0.009259141 0.014867175 0.0110978605 0.0035396288 0.012605118 0.0036265955
0.013895472 -0.013335534 0.025681403 0.011733774 0.007305259 0.0058572916 0.009326415 0.03204929
00000000: c0ed 033b 8636 003c 4eff 853c 505c 6b3b
00000010: 1b40 5c3c 92f1 19bb c221 a0bb 4df6 15bc
00000020: 61f1 003b 353b b0bb 1e0e ef3b 785a ab3c
00000030: 7a0c 9a3b 4ace 1a3d d97c 233c 15ba dc3c
00000040: d158 a03b d38f 833c 5652 ce3c 9d28 3a3b
00000050: 4dcc cb3c 1c7b 6e3c 7c45 4f3c 1a92 503c
00000060: 305c ee3c 5ee0 dfbb 102f 013b fc25 803b
00000070: 8b47 103a dee2 b93c ee9e 243c d4be a23c
00000080: d65b e83b 01ef 953b ffff 7abc 2187 8039
00000090: a47e 903c 25bb 1a3c 7152 373c 297d eb3c
000000a0: 3409 4b3c ea07 7d3c 3300 d937 33e8 fa3b
000000b0: d6a6 b83c 33fc 863b be7a 8b3c e48e 74bb
000000c0: 3a21 493c 402d bb3c eafa 7c3b f16c 143c
000000d0: 5299 243c 29aa 8d3c 554d 563c d635 a03c
000000e0: 217d e13b 6222 383c 268c 0ebd 1e5c 3f3c
000000f0: 84e3 f73c 6257 813b 428e 8d3c 59fa a73c
00000100: 409b 51bc 9a8e 983c dea7 193c bd63 d13c
00000110: 2e64 dd3c 9fee 283b cd3b 203c 6be6 3aba
00000120: 8874 a33c 4558 6f3c 68fb bb3b 33e4 3ebc
00000130: 03d8 1b3c 5d30 363c 745c 07bd 7754 dfbb
00000140: 5331 ad3c 69e4 ab3c 7488 443d 7b2e 053c
00000150: a607 373c 17b8 433b 68b1 7c3c 56d2 103d
00000160: 6b2f a73c 7973 be3c eaf7 dbb8 f3fb a7bc
00000170: d9e6 ae3c 729e 433c 332e 313c c8c6 a5bc
00000180: 87f7 273c d26a 643c 4268 5c3c b8b1 c8ba
00000190: 777c e13c e455 253d 1c64 463c 0713 293c
000001a0: 95a1 703c b163 cdba ca7c 063c 441c ed3b
000001b0: 5365 523c 6c18 603c f808 ac39 5892 843c
000001c0: ed16 3bbc 3d54 1dbc a7b3 173c 7495 733c
000001d0: cdd3 353c 1ef9 673b b285 4e3c 2dac 6d3b
000001e0: d5a9 633c 497d 5abc ce61 d23c 043f 403c
000001f0: f460 ef3b 86ee bf3b d2cd 183c 1e46 033d

action_model._continuous_distribution.log_sigma f4 [1, 2]
0.2772253 0.46202105
00000000: 79f0 8d3e 068e ec3e

action_model._continuous_distribution.mu.weight f4 [2, 128]
0.06274721 0.073201224 0.08053267 -0.037012603 -0.053413652 0.07857524 0.054905105 -0.0024869049
-0.056306917 -0.033686675 0.06447509 -0.03324892 0.09889029 -0.024144024 0.08651452 0.12094253
0.1243377 -0.07765998 -0.06673142 -0.04245904 0.10425477 0.07628619 0.06556779 -0.030665793
0.014457922 0.07045786 -0.017287496 -0.050510872 0.059960645 0.09820944 0.08313827 0.11128761
0.07063009 0.060110543 0.07876967 0.076506644 -0.034544248 -0.056908958 0.088791855 -0.050689045
-0.08196822 -0.05737062 0.106397815 0.085807845 0.04998722 0.0050665257 0.06607938 0.006761671
-0.05109762 0.085434966 -0.040750638 0.061959684 0.16345537 -0.06449947 -0.07025207 0.13456926
-0.06770567 -0.052661687 -0.010040159 0.12326614 -0.06951483 0.065774836 0.020256883 0.11735508
0.03262941 -0.051984444 -0.07039463 -0.08164628 -0.07041927 0.10373662 0.07933764 0.09593668
-0.03052573 -0.07459447 -0.07950104 -0.020471653 -0.072008066 0.07638961 -0.014268938 0.037367463
-0.078276336 -0.07295201 -0.04314084 0.0027154994 0.05858974 -0.062148526 -0.055083696 -0.07592687
-0.066858806 -0.079297505 -0.042366084 0.058866184 0.08248014 0.0954868 0.08722077 0.0073413393
-0.07048902 -0.07168268 0.118340395 0.08229936 0.097196706 -0.022061026 -0.0785633 -0.05837918
0.08052937 0.05455232 -0.049701586 -0.03037652 0.08536154 -0.0804001 0.050707962 0.10283155
0.019320967 -0.040384926 -0.059459276 -0.026881611 0.08466842 0.06880001 0.10031075 -0.04733837
0.044144277 -0.0075806403 -0.049410366 -0.07566397 0.09334592 -0.04573321 -0.036903348 -0.005835145
0.0071442258 -0.039630983 0.03863627 -0.015619119 0.028433185 -0.004938508 -0.005214152 -0.03023991
-0.049321003 -0.042890076 0.02907302 0.049407054 0.002090105 0.01558902 0.022002555 -0.0078117144
-0.037706856 -0.0139387725 0.038247656 -0.08870231 0.10527795 0.006893223 -0.038363285 -0.05186179
0.06449165 -0.030461865 0.039997485 -0.056178126 -0.018746242 0.018789575 0.037678916 0.01027979
0.011009946 -0.0131698 -0.015265224 -0.00082960736 0.04094367 0.017492697 -0.029631615 0.061438847
-0.013966052 -0.006096142 -0.00026684164 -0.025018742 0.019420698 -0.023892049 0.06964274 -0.10482129
0.01491154 0.030284382 -0.0037758732 -0.004771717 -0.05062255 -0.010703688 -0.02131813 0.009182231
-0.019551469 -0.0020585568 -0.009028772 -0.00942424 -0.0103515 0.07175802 0.04686462 0.0599099
0.00054678397 -0.057324596 -0.015402814 -0.022909576 0.028646143 0.043949854 -0.06600228 0.006672102
0.08525496 -0.006511173 -0.0236676 -0.014418427 0.009877119 0.007986068 -0.01534542 -0.08110646
0.025130812 -0.0148787405 0.08842226 -0.032736618 -0.015418548 -0.017386679 0.026481034 0.022025304
-0.0025060978 0.0086876685 0.020449135 -0.05321226 0.018935354 0.026358508 0.026938098 0.020354534
-0.016947644 0.019732704 -0.015436577 -0.0030911455 0.07578254 0.10709543 -0.0057248743 -0.0054655615
0.002461512 -0.03661343 0.010920315 0.022526015 0.0103356205 -0.01984471 0.06892119 -0.046869572
-0.065445565 -0.13052194 -0.02709067 -0.0646226 0.13879862 -0.04592233 0.07642055 0.0131566
-0.111889645 -0.047767553 -0.0129276365 -0.034982495 -0.0027746654 -0.03002976 -0.0397706 0.12793258
00000000: 9c81 803d 86ea 953d 50ee a43d 879a 17bd
00000010: 46c8 5abd 0eec a03d 2de4 603d 57fb 22bb
00000020: 15a2 66bd 0afb 09bd 840b 843d 0530 08bd
00000030: fe86 ca3d b0c9 c5bc 862e b13d b8b0 f73d
00000040: c4a4 fe3d 320c 9fbd 7caa 88bd 88e9 2dbd
00000050: 8683 d53d ef3b 9c3d 6848 863d d436 fbbc
00000060: ece0 6c3c 364c 903d 829e 8dbc 7de4 4ebd
00000070: 4b99 753d 0822 c93d 6644 aa3d c2ea e33d
00000080: 82a6 903d 7936 763d fe51 a13d 84af 9c3d
00000090: 457e 0dbd 5e19 69bd 81d8 b53d 519f 4fbd
000000a0: f4de a7bd 75fd 6abd 19e7 d93d 06bc af3d
000000b0: 66bf 4c3d 1905 a63b a054 873d 0291 dd3b
000000c0: bd4b 51bd 87f8 ae3d 24ea 26bd 70c9 7d3d
000000d0: d860 273e 4c18 84bd 51e0 8fbd 86cc 093e
000000e0: 45a9 8abd c8b3 57bd 7b7f 24bc f572 fc3d
000000f0: cb5d 8ebd f5b4 863d c3f1 a53c dc57 f03d
00000100: 6ba6 053d a4ed 54bd 0f2b 90bd 2a36 a7bd
00000110: fa37 90bd dd73 d43d c67b a23d 737a c43d
00000120: 1911 fabc fcc4 98bd 71d1 a2bd 2bb4 a7bc
00000130: f778 93bd 2872 9c3d 44c8 69bc a00e 193d
00000140: 584f a0bd dd67 95bd 73b4 30bd 85f6 313b
00000150: ccfb 6f3d 748f 7ebd 719f 61bd 8c7f 9bbd
00000160: 45ed 88bd bb66 a2bd 0f88 2dbd ab1d 713d
00000170: 59eb a83d 958e c33d cea0 b23d 9e8f f03b
00000180: 8c5c 90bd 5ece 92bd 735c f23d 918c a83d
00000190: 110f c73d 53b9 b4bc cce5 a0bd 021f 6fbd
000001a0: 95ec a43d 4172 5f3d e493 4bbd 2ed8 f8bc
000001b0: 08d2 ae3d cfa8 a4bd 27b3 4f3d 5999 d23d
000001c0: 0147 9e3c aa6a 25bd 928b 73bd d336 dcbc
000001d0: a366 ad3d 05e7 8c3d b96f cd3d e1e5 41bd
000001e0: a1d0 343d 0567 f8bb 8662 4abd b6f5 9abd
000001f0: 252c bf3d bf52 3bbd f727 17bd be34 bfbb
00000200: 1c1a ea3b 1954 22bd 1141 1e3d 55e7 7fbc
00000210: b6ec e83c 35d3 a1bb 7adb aabb b0b9 f7bc
00000220: d204 4abd 81ad 2fbd 8b2a ee3c 0d5f 4a3d
00000230: 25fa 083b 1769 7f3c b43e b43c 69f9 ffbb
00000240: 8172 1abd 735f 64bc 93a9 1c3d 8fa9 b5bd
00000250: f79b d73d 8ce0 e13b d222 1dbd 076d 54bd
00000260: 3314 843d 298b f9bc 67d4 233d 091b 66bd
00000270: b891 99bc 98ec 993c 3555 1a3d 906c 283c
00000280: 1063 343c 25c6 57bc fd1a 7abc 027a 59ba
00000290: 8db4 273d d84c 8f3c 00be f2bc 4da7 7b3d
000002a0: ded1 64bc 25c2 c7bb e1e6 8bb9 1bf4 ccbc
000002b0: 2818 9f3c 42b9 c3bc daa0 8e3d 8bac d6bd
000002c0: 884f 743c f416 f83c a474 77bb 105c 9cbb
000002d0: 9759 4fbd 855e 2fbc 5ca3 aebc 1171 163c
000002e0: 672a a0bc dae8 06bb 6aed 13bc 2168 1abc
000002f0: 5699 29bc def5 923d 1ef5 3f3d 1564 753d
00000300: 0d56 0f3a 32cd 6abd 165c 7cbc ddac bbbc
00000310: 51ab ea3c c304 343d 342c 87bd a6a1 da3b
00000320: 279a ae3d ae5b d5bb 8ee2 c1bc 443b 6cbc
00000330: a4d3 213c ffd7 023c 5b6b 7bbc 251b a6bd
00000340: 22df cd3c f6c5 73bc bb16 b53d d516 06bd
00000350: 149e 7cbc 826e 8ebc c1ee d83c 696e b43c
00000360: 583d 24bb b956 0e3c f284 a73c 19f5 59bd
00000370: 511e 9b3c cced d73c 49ad dc3c 8dbe a63c
00000380: c9d5 8abc 7ba6 a13c b2e9 7cbc d194 4abb
00000390: e033 9b3d d954 db3d ba97 bbbb 7418 b3bb
000003a0: 5251 213b f7f7 15bd 1feb 323c 7a88 b83c
000003b0: bc56 293c 6091 a2bc 8e26 8d3d 4ffa 3fbd
000003c0: 5308 86bd 8ba7 05be 41ed ddbc db58 84bd
000003d0: 3a21 0e3e 0e19 3cbd 6182 9c3d c88e 573c
000003e0: 6626 e5bd e9a7 43bd 70ce 53bc ce49 0fbd
000003f0: 29d7 35bb f900 f6bc 7fe6 22bd c200 033e

action_model._continuous_distribution.mu.bias f4 [2]
-0.0069216373 0.009871307
00000000: e7ce e2bb 43bb 213c
