Assets/Brain/9(70%).onnx (onnx, 112473 bytes, 7 tensors)

network_body._body_endoder.seq_layers.0.weight f4 [128, 84]
-0.102234066 -0.044991355 0.06436478 -0.12415789 -0.0010912276 -0.11474856 0.13134302 -0.16438337
-0.06699539 0.022442538 -0.0051059364 0.0016473718 -0.30422282 0.16163391 0.06504975 0.021604892
0.04193201 0.23521104 -0.018914102 0.16882275 0.1352453 0.18718757 -0.03392801 -0.069191225
-0.19748563 0.20118007 0.10607237 0.16964822 -0.25739673 0.04114209 -0.08882171 -0.018530443
0.052074447 -0.1762949 -0.012879212 0.05624482 0.022354601 0.088966094 -0.04540942 -0.12156542
0.06452388 0.024170289 -0.044869356 0.22213738 0.014165087 0.12590465 -0.060722608 0.03363956
0.013302356 0.05067991 -0.17033663 0.2296936 -0.2108592 0.102471724 0.07615692 -0.19534063
0.049462058 0.028304612 0.038845945 0.12527227 0.056988105 0.08306861 0.090651095 0.19118384
0.028172286 -0.006561279 0.1864309 -0.21571706 -0.0723043 0.003369277 0.30450937 -0.07978482
-0.24596812 0.035255466 -0.074298374 -0.26023123 -0.038357537 0.25482115 0.06090168 0.081290744
-0.018017674 -0.06761055 0.04919436 -0.033967834 0.18261826 0.07427095 0.16282746 0.11753567
0.20762588 0.083518624 -0.16371426 0.08964612 0.23214331 -0.07461538 0.11521998 0.17976922
0.030119495 0.27183264 -0.050801225 -0.0031357307 0.43982175 0.06549805 -0.112391315 0.1596361
0.10286181 0.03161814 -0.10918911 0.16700318 0.21569088 0.2434404 0.1240356 -0.13689645
0.061912302 0.31685686 0.1853654 -0.21502778 -0.025723936 0.06020014 0.09276895 -0.14622557
0.017859355 0.16199099 0.0829847 -0.07525792 0.046511438 0.037758786 0.085066915 -0.026047036
-0.01943447 0.124700785 -0.11062642 -0.05817584 0.056590926 -0.07284453 -0.059085388 0.17894082
0.19095181 -0.021491311 0.29917052 -0.19718127 -0.1739072 0.22266711 0.04010746 -0.17835008
0.2440928 0.10307346 0.15619151 0.16639163 0.039139338 -0.013948493 0.1277477 -0.011239378
-0.04034945 0.16256331 0.08947559 0.17524101 -0.1020932 -0.095176466 0.10249272 0.105577685
-0.060384303 -0.11721614 0.04784569 -0.10884196 -0.19539344 0.022405984 0.13670759 0.027729858
-0.09704827 -0.15831526 -0.047243822 -0.03136686 0.02770562 0.034867328 -0.131399 0.16613668
0.034693602 0.015722489 -0.016569093 0.19003825 -0.022358295 0.014466836 -0.02354649 -0.034504488
-0.10209876 -0.032788604 -0.08776847 0.3516821 -0.0013012727 -0.18479457 0.102305084 0.104732946
0.11696986 -0.097649805 0.08125458 0.05804068 0.2266937 0.031204056 0.072139695 0.11767858
-0.050124887 0.02120224 -0.1316972 0.17280023 -0.1968384 0.06612317 0.18261199 0.058603983
0.05480394 0.025783945 0.11239764 -0.05632134 -0.05360085 0.14033264 -0.01826568 0.14550911
0.10382746 0.0016460555 -0.023856828 -0.1500681 -0.051611345 0.0031042872 -0.08067353 0.003678778
0.029351214 -0.13508122 -0.1427242 -0.17135863 0.0004882426 -0.054450255 -0.055362705 0.17837125
0.007374434 0.075821534 0.10515442 -0.122092105 0.0587152 -0.07603205 0.15562646 0.025365196
0.07123816 0.0501885 -0.057363752 0.07388871 -0.06151254 0.035918947 -0.12906297 -0.03398842
-0.120648384 0.0030872675 0.25103822 0.047001384 0.098135635 0.11930269 0.17730686 -0.22387566
00000000: 1860 d1bd db48 38bd afd1 833d 7e46 febd
00000010: 8607 8fba 4b01 ebbd c97e 063e 1d54 28be
00000020: e134 89bd 6ad9 b73c b34f a7bb a0ec d73a
00000030: 18c3 9bbe 5c83 253e ce38 853d befc b03c
00000040: e6c0 2b3d 2adb 703e bff1 9abc dfdf 2c3e
00000050: be7d 0a3e 19ae 3f3e 19f8 0abd 21b4 8dbd
00000060: ac39 4abe 2602 4e3e 793c d93d 43b8 2d3e
00000070: 81c9 83be 9c84 283d 28e8 b5bd 28cd 97bc
00000080: 044c 553d a686 34be 5503 53bc f860 663d
00000090: ff20 b73c db33 b63d 3aff 39bd 4af7 f8bd
000000a0: 1925 843d c500 c63c eec8 37bd fb77 633e
000000b0: ae14 683c 26ed 003e 45b8 78bd a3c9 093d
000000c0: 20f2 593c bd95 4f3d ba6c 2ebe cd34 6b3e
000000d0: 79eb 57be b2dc d13d 29f8 9b3d 6007 48be
000000e0: ba98 4a3d 13df e73c ed1c 1f3d 6047 003e
000000f0: 5c6c 693d e01f aa3d 48a7 b93d b2c5 433e
00000100: 91c9 e63c ffff d6bb bee7 3e3e efe4 5cbe
00000110: 4714 94bd 17cf 5c3b a7e8 9b3e 3966 a3bd
00000120: 11df 7bbe 0968 103d bf29 98bd 073d 85be
00000130: cb1c 1dbd eb77 823e 0a74 793d c37b a63d
00000140: cd99 93bc 6677 8abd 0680 493d db21 0bbd
00000150: 4800 3b3e 5e1b 983d 3ebc 263e 8bb6 f03d
00000160: e19b 543e d00b ab3d b6a4 27be 6398 b73d
00000170: fab6 6d3e f3cf 98bd 74f8 eb3d 6c15 383e
00000180: 29bd f63c a62d 8b3e f214 50bd d580 4dbb
00000190: 5130 e13e d723 863d 6b2d e6bd a577 233e
000001a0: 36a9 d23d 0682 013d 8a9e dfbd e202 2b3e
000001b0: 12de 5c3e 7148 793e 6006 fe3d 952e 0cbe
000001c0: c197 7d3d 103b a23e 6dd0 3d3e 3e30 5cbe
000001d0: 01bb d2bc 6c94 763d a6fd bd3d 28bc 15be
000001e0: c84d 923c f7e0 253e e2f3 a93d d320 9abd
000001f0: c782 3e3d f5a8 1a3d 9037 ae3d 9860 d5bc
00000200: 0a35 9fbc 2063 ff3d 1b90 e2bd ca49 6ebd
00000210: e3cb 673d 832f 95bd 8503 72bd 433c 373e
00000220: df88 433e 8c0e b0bc e12c 993e e3e9 49be
00000230: bb14 32be d902 643e b847 243d 67a1 36be
00000240: 77f3 793e 2e18 d33d abf0 1f3e 9162 2a3e
00000250: 9250 203d 3888 64bc 4bd0 023e 5e25 38bc
00000260: 7745 25bd ff76 263e fa3e b73d 6172 333e
00000270: 3d16 d1bd e1eb c2bd b4e7 d13d 1d39 d83d
00000280: 8855 77bd 040f f0bd d8f9 433d 89e8 debd
00000290: 3815 48be c18c b73c 13fd 0b3e ba29 e33c
000002a0: 3ec1 c6bd 651d 22be bd82 41bd 897a 00bd
000002b0: e5f6 e23c 0bd1 0e3d 768d 06be bc1f 2a3e
000002c0: e11a 0e3d 73cc 803c e8bb 87bc 6399 423e
000002d0: be28 b7bc 4f06 6d3c 92e4 c0bc 9454 0dbd
000002e0: 2819 d1bd 584d 06bd f5bf b3bd ad0f b43e
000002f0: 778f aaba ca3a 3dbe 5485 d13d 3a7e d63d
00000300: e58d ef3d 9ffc c7bd cd68 a63d 10bc 6d3d
00000310: 6522 683e a69f ff3c fabd 933d 7801 f13d
00000320: c14f 4dbd 52b0 ad3c a1db 06be 8bf2 303e
00000330: 0190 49be 966b 873d a3fe 3a3e bb0a 703d
00000340: 197a 603d da38 d33c bc30 e63d 35b1 66bd
00000350: 918c 5bbd 5cb3 0f3e e8a1 95bc 5700 153e
00000360: 7ea3 d43d 75c0 d73a 656f c3bc 74ab 19be
00000370: 6b66 53bd 4c71 4b3b 2a38 a5bd a717 713b
00000380: f571 f03c bb52 0abe 4b26 12be a378 2fbe
00000390: d0fa ff39 3b07 5fbd 01c4 62bd f4a6 363e
000003a0: 3ca5 f13b 5248 9b3d 335b d73d 6d0b fabd
000003b0: 597f 703d b1b6 9bbd 8b5c 1f3e acca cf3c
000003c0: 50e5 913d 7592 4d3d 41f6 6abd f752 973d
000003d0: 93f4 7bbd bf1f 133d 1529 04be 7137 0bbd
000003e0: 8016 f7bd c153 4a3b 1588 803e 8684 403d
000003f0: 56fb c83d f854 f43d ee8f 353e a93f 65be

network_body._body_endoder.seq_layers.0.bias f4 [128]
0.0130485045 0.026810791 0.00016006906 0.03688784 0.014822824 0.0074617052 0.003358284 -0.00598752
0.0109584555 0.0064708777 0.002116001 -0.018115198 0.000728166 0.026798593 -0.00042005876 0.017033944
-0.009838732 0.008051656 0.0030825934 -0.004603474 0.0031727955 0.0004563716 -0.0053052376 -0.0047571408
0.0045342515 0.021986848 0.011896594 -0.009875639 0.026821636 0.0032533363 -0.0039809155 0.01204056
0.020542359 0.034867443 0.007572223 0.018554213 0.0043940335 0.027802214 0.006146492 0.0030660417
0.012054417 0.008065669 0.038350664 0.0106654335 0.014064347 0.0035542462 0.013735732 0.0041347784
0.020252384 0.011508698 -0.0041124295 0.008400063 0.0066945753 0.022206314 0.012753092 -0.07102094
-0.008432298 0.005573329 -0.015410823 -0.0009254965 0.029780576 0.020022145 0.0047068377 0.0032703055
0.036288757 -0.012442186 0.02150328 0.0035182582 0.018818678 0.046753187 -0.016688649 0.0009976549
0.004069398 0.016792813 0.0056587537 0.043225963 0.017095141 0.039787736 -0.04772222 -0.01743147
-0.018270418 0.037142977 0.05178631 0.009859323 0.031094177 0.02699981 0.01323528 0.054296542
-0.008388997 -0.0061551747 0.0006744946 0.026842821 -0.05124376 0.02629454 -0.014272603 0.023105104
0.017719049 0.015669165 0.021815475 -0.0144353295 -0.009214991 -0.0028551437 0.02342505 -0.058167968
0.01105518 0.016548514 -0.010727549 0.02016968 0.015290417 -0.011143775 0.021737121 0.006710386
-0.019573938 0.0054364447 -0.0025290826 0.008978471 0.02486741 0.006289746 0.015936136 0.02670488
-0.0023837553 -0.011315234 -0.00015985277 0.0007991458 0.018589387 0.028385019 0.0058111115 0.014701242
00000000: 65c9 553c 4ea2 db3c 36d8 2739 b417 173d
00000010: 6edb 723c 5281 f43b a816 5c3b f532 c4bb
00000020: 188b 333c a809 d43b 9bac 0a3b 5366 94bc
00000030: 65e2 3e3a b988 db3c 553b dcb9 c58a 8b3c
00000040: a232 21bc 18eb 033c 5605 4a3b bdd8 96bb
00000050: adee 4f3b 2945 ef39 8fd7 adbb cae1 9bbb
00000060: 0f94 943b c31d b43c efe9 423c 6fcd 21bc
00000070: 0cb9 db3c ed35 553b 5772 82bb c545 453c
00000080: 7348 a83c 2ad1 0e3d 6920 f83b 01ff 973c
00000090: d3fb 8f3b 78c1 e33c 8368 c93b a5ef 483b
000000a0: e47f 453c de25 043c 9615 1d3d 12be 2e3c
000000b0: 266e 663c 5bee 683b d60b 613c 097d 873b
000000c0: 54e8 a53c fa8e 3c3c 8fc1 86bb 6ba0 093c
000000d0: 2b5e db3b 04ea b53c 58f2 503c 6d73 91bd
000000e0: 9f27 0abc 79a0 b63b ad7d 7cbc 059d 72ba
000000f0: 65f6 f33c 7b05 a43c d13b 9a3b 9f52 563b
00000100: 85a3 143d 4fda 4bbc a627 b03c 9492 663b
00000110: a129 9a3c 4580 3f3d a2b6 88bc bec3 823a
00000120: 9658 853b 1591 893c 116d b93b b50d 313d
00000130: 1c0b 8c3c 77f8 223d 6078 43bd 71cc 8ebc
00000140: d8ab 95bc 3c23 183d e21d 543d ff88 213c
00000150: 37b9 fe3c b52e dd3c cad8 583c 0d66 5e3d
00000160: 0172 09bc 59b1 c9bb 91d0 303a 7ae5 db3c
00000170: fae4 51bd a667 d73c a3d7 69bc ea46 bd3c
00000180: 8a27 913c 9f5c 803c 5eb6 b23c 2982 6cbc
00000190: 79fa 16bc 5d1d 3bbb e4e5 bf3c 8941 6ebd
000001a0: c920 353c c090 873c 9ac2 2fbc e23a a53c
000001b0: a884 7a3c 6194 36bc 0c12 b23c cce2 db3b
000001c0: 8659 a0bc 3424 b23b f7be 25bb 701a 133c
000001d0: bdb6 cb3c 371a ce3b 808c 823c 31c4 da3c
000001e0: c738 1cbb 8863 39bc 279e 27b9 c47d 513a
000001f0: c548 983c b387 e83c 236b be3b 7add 703c

network_body._body_endoder.seq_layers.2.weight f4 [128, 128]
-0.19211832 -0.098978736 -0.0355302 -0.16039638 -0.0026098248 0.094048455 -0.085688606 0.112677105
0.082477555 0.00017381327 -0.037837032 0.071171835 -0.121049784 -0.0053539244 0.061982304 -0.05163337
0.1350273 -0.009975551 -0.19054222 -0.07159609 0.112029344 0.0788507 0.032277517 0.046507504
-0.12423927 0.059198264 -0.12919967 -0.14718123 -0.014571735 -0.046992455 0.10346254 -0.06627728
-0.028798541 0.12858461 -0.067287125 0.018043693 0.09894164 -0.04005435 -0.0782192 0.0333451
0.003604329 0.09439434 0.009483977 -0.12570974 -0.06338348 -0.21763009 0.0031438423 -0.08130047
0.09025132 0.07760075 0.07336969 0.015438179 -0.07263668 0.005898813 0.04861635 -0.019585181
0.018645776 -0.004237355 -0.16105261 -0.060625024 -0.06623413 0.10509373 -0.24312814 0.06937236
-0.275746 0.03445928 -0.11883871 -0.1817819 0.09551625 -0.2786945 -0.06537162 -0.011322718
0.029193498 0.09902236 -0.17237335 0.02314381 -0.040819813 -0.15771183 0.08663675 0.016404055
-0.042288315 0.033504833 -0.010038194 -0.07498606 0.047533903 -0.06624005 -0.09176327 0.019154033
0.012188689 0.1186213 -0.08107296 -0.055582874 0.1090602 -0.030059064 -0.040950738 0.13327906
0.018538693 -0.11244844 0.09143482 0.21451157 -0.027743889 0.0025590314 -0.13263625 0.074409336
0.13908398 0.023267357 -0.14207108 -0.20100248 0.09393409 -0.0359563 -0.04340644 0.054464027
0.14460446 0.111138836 -0.09484321 -0.16961625 0.2103242 0.027805606 -0.10547411 -0.04058138
-0.12628214 -0.11325005 -0.09595031 -0.064093 0.06431936 0.10131572 -0.0916313 -0.20113067
-0.026525296 -0.17821488 0.08838588 0.06269445 0.08214303 -0.13865122 0.1878403 0.06544928
0.082754724 -0.13184789 0.0634917 0.01699752 -0.034701686 0.0069341646 3.644442e-05 0.12504733
-0.07887348 0.026909227 -0.034255352 0.06035435 0.08187792 0.23619136 -0.019056596 0.053621862
-0.020181278 0.052304767 0.022836845 -0.005847858 -0.21939187 -0.043888617 0.04351167 0.014259203
-0.0017550298 0.117964715 0.02505363 -0.008116983 0.16246955 0.08110895 0.21535459 -0.064799406
-0.12825483 0.032053337 0.13079606 -0.18436156 0.13675334 0.0986991 -0.04788097 -0.047021918
0.048705086 -0.0006751478 -0.12103683 0.015316842 -0.036963418 -0.065589294 0.10052448 0.095828384
0.0060282513 0.019387946 0.090437755 0.0985191 -0.13834868 0.10695509 -0.04309576 -0.22927728
-0.011401022 0.14902145 0.049929496 -0.027021566 -0.13700004 -0.07130869 -0.06276072 -0.19489798
-0.04771917 -0.05928306 0.15493575 -0.12302754 0.128315 -0.15812977 -0.04062846 -0.050646048
-0.00423564 -0.060302775 -0.06328675 0.038266122 -0.05405297 -0.14981566 0.12581937 -0.031759735
0.04684842 0.0072265984 -0.12148173 -0.034423903 0.13213556 0.022303652 -0.070664465 0.09710359
-0.10716254 -0.07926902 -0.12568454 0.029927123 0.23625259 -0.03403589 0.10410619 0.040767543
0.022571754 -0.08885354 -0.11473949 -0.04758494 0.051153217 -0.08857176 0.07749941 -0.09032166
-0.08786798 -0.0008940173 -0.012189329 -0.12341432 0.027766794 -0.09735199 -0.099885084 -0.010620967
0.06235334 -0.0052881185 0.0012174905 -0.10135713 -0.0053379657 -0.039095197 -0.03622449 -0.01463173
00000000: aaba 44be 5db5 cabd 1d88 11bd f33e 24be
00000010: 9809 2bbb 7a9c c03d 827d afbd 41c3 e63d
00000020: fee9 a83d a541 3639 01fb 1abd 8ac2 913d
00000030: f3e8 f7bd f96f afbb 28e1 7d3d 837d 53bd
00000040: 9944 0a3e 7e70 23bc 801d 43be f9a0 92bd
00000050: a46f e53d 7a7c a13d 6e35 043d a77e 3e3d
00000060: 2971 febd e179 723d eb4c 04be adb6 16be
00000070: 49be 6ebc 297b 40bd 2be4 d33d 62bc 87bd
00000080: ebea ebbc afab 033e d5cd 89bd 5ed0 933c
00000090: eaa1 ca3d 0810 24bd 6331 a0bd df94 083d
000000a0: 9b36 6c3b d251 c13d af62 1b3c 0eba 00be
000000b0: 33cf 81bd 6cda 5ebe ec08 4e3b dc80 a6bd
000000c0: afd5 b83d 24ed 9e3d d942 963d 6af0 7c3c
000000d0: 8ac2 94bd d44a c13b f021 473d 1a71 a0bc
000000e0: 07bf 983c 83d9 8abb faea 24be f251 78bd
000000f0: c2a5 87bd 623b d73d 95f6 78be 1913 8e3d
00000100: 942e 8dbe 2d25 0d3d b661 f3bd 0925 3abe
00000110: 069e c33d 0cb1 8ebe 8ee1 85bd ec82 39bc
00000120: 3427 ef3c 3ccc ca3d a482 30be 1698 bd3c
00000130: ad32 27bd 367f 21be 9c6e b13d cc61 863c
00000140: 8336 2dbd 5d3c 093d 3d77 24bc 4b92 99bd
00000150: e9b2 423d dda8 87bd 62ee bbbd ebe8 9c3c
00000160: 11b3 473c b9ef f23d 9409 a6bd deaa 63bd
00000170: f45a df3d 6d3e f6bc f6bb 27bd 4e7a 083e
00000180: 75de 973c 5e4b e6bd 2e42 bb3d eca8 5b3e
00000190: 2747 e3bc 6cb5 273b ccd1 07be ec63 983d
000001a0: 086c 0e3e 2f9b be3c 157b 11be 98d3 4dbe
000001b0: 8460 c03d ea46 13bd f4ca 31bd ac15 5f3d
000001c0: 3113 143e c29c e33d 283d c2bd e2af 2dbe
000001d0: 3a5f 573e 95c8 e33c cf02 d8bd a938 26bd
000001e0: 1b50 01be a4ef e7bd 9981 c4bd 3143 83bd
000001f0: deb9 833d 9e7e cf3d 31a9 bbbd 33f5 4dbe
00000200: 944b d9bc f67d 36be a803 b53d f365 803d
00000210: 9b3a a83d 96fa 0dbe 3559 403e 460a 863d
00000220: 4f7b a93d 2203 07be f007 823d 623e 8b3c
00000230: 5b23 0ebd fd37 e33b e6db 1838 680c 003e
00000240: 6b88 a1bd bd70 dc3c 574f 0cbd 1f36 773d
00000250: 9caf a73d 26dc 713e 941c 9cbc 99a2 5b3d
00000260: 3553 a5bc 863d 563d 5614 bb3c 639f bfbb
00000270: 43a8 60be 8dc4 33bd 4b39 323d 6f9f 693c
00000280: 0709 e6ba 7c97 f13d 453d cd3c 18fd 04bc
00000290: 6b5e 263e 731c a63d ea85 5c3e 8db5 84bd
000002a0: 3c55 03be 5c4a 033d 67ef 053e 47c9 3cbe
000002b0: 1109 0c3e c122 ca3d d61e 44bd 0e9a 40bd
000002c0: fc7e 473d 67fc 30ba 28e2 f7bd 7ef3 7a3c
000002d0: f466 17bd ae53 86bd c7df cd3d ac41 c43d
000002e0: a388 c53b 78d3 9e3c 6e37 b93d 62c4 c93d
000002f0: 47ab 0dbe 450b db3d 2e85 30bd aac7 6abe
00000300: 5acb 3abc 1499 183e df82 4c3d 555c ddbc
00000310: bd49 0cbe 4a0a 92bd b188 80bd 5693 47be
00000320: 2d75 43bd cbd2 72bd 7aa7 1e3e ddf5 fbbd
00000330: 0265 033e c5ec 21be 076a 26bd 3b72 4fbd
00000340: 20cb 8abb 0b00 77bd 7c9c 81bd f0bc 1c3d
00000350: a666 5dbd 4769 19be cbd6 003e 7f16 02bd
00000360: 21e4 3f3d 1acd ec3b 6acb f8bd 1400 0dbd
00000370: 8b4e 073e 26b6 b63c 88b8 90bd 3fde c63d
00000380: 0978 dbbd cc57 a2bd 73b3 00be ba29 f53c
00000390: 33ec 713e 3869 0bbd a035 d53d defb 263d
000003a0: 66e8 b83c d8f8 b5bd 8afc eabd 6de8 42bd
000003b0: 0986 513d 1c65 b5bd 03b8 9e3d 90fa b8bd
000003c0: 21f4 b3bd 7c5c 6aba c0b5 47bc a6c0 fcbd
000003d0: 3077 e33c 7b60 c7bd 8d90 ccbd 9003 2ebc
000003e0: 3766 7f3d f447 adbb 3494 9f3a 5494 cfbd
000003f0: 1aea aebb 4922 20bd 2160 14bd ecb9 6fbc

network_body._body_endoder.seq_layers.2.bias f4 [128]
0.002873997 0.01450289 0.015923062 -0.0044020345 0.015512991 0.024687205 -0.004272946 0.0114594735
-0.011748043 0.010413638 0.014228875 0.009535432 0.026368571 0.02704421 -0.005904201 -0.00078117265
-0.008213072 0.010532549 0.0054131495 -0.0146153085 0.00029221992 -2.4154777e-05 -0.0038846852 0.007284565
0.006423059 0.018319558 0.017866092 0.025319085 0.013317215 0.011264059 0.002549814 0.0008271855
0.0022205643 0.013467553 -0.012024835 0.013306672 0.028233629 0.013221767 -0.009024761 0.0056548235
0.011227564 -0.0034487469 -0.0096264295 -0.008256891 -0.010983209 0.017671842 -0.00065187877 0.0109886145
0.009575509 0.0077760336 0.013078238 0.0042444128 0.0026836845 0.006490567 0.010236878 -0.011993736
0.025475802 0.0037970827 0.008682316 -0.008427011 0.0057516736 0.008419797 0.0038450742 0.0025930011
0.01833643 0.010578494 -0.020688364 0.0071979314 0.020615634 0.013105826 0.0016875948 0.00032821452
0.010774533 0.023425946 0.0045074853 0.019527044 0.018284287 0.0059027295 -0.0039419523 -0.0023617276
0.018944928 -0.0075233737 0.0039725974 -0.0054481574 0.010031503 0.0024335377 0.013981975 0.0125743495
0.00020059221 0.00010941264 0.01456334 -0.0053386763 0.026158346 0.0051853536 0.016433176 0.01768907
-0.004602696 0.021352407 -0.0024222226 0.012773717 -0.00014794842 0.0049610273 -0.0016282774 0.025400477
0.020627845 0.0020415497 0.015500696 0.0057298783 -0.0027396497 -0.007996304 0.0244487 0.021830952
0.00950768 0.020867603 0.017687306 0.00020319066 -0.014004164 0.010400028 -0.027350668 0.011476818
0.02022129 0.010880798 0.00027117817 -0.012502133 -0.004433537 0.0084923245 0.00077629637 0.020255173
00000000: ab59 3c3b 889d 6d3c 1571 823c f13e 90bb
00000010: 332a 7e3c d23c ca3c 1204 8cbb 84c0 3b3c
00000020: dd7a 40bc f79d 2a3c 3a20 693c 803a 1c3c
00000030: e702 d83c d28b dd3c 0778 c1bb 9cc7 4cba
00000040: 1f90 06bc b690 2c3c ca60 b13b 0c75 6fbc
00000050: 1835 9939 fd9f cab7 3496 7ebb 5cb3 ee3b
00000060: 8678 d23b e612 963c e95b 923c f869 cf3c
00000070: 7330 5a3c e38c 383c c81a 273b 7bd7 583a
00000080: e386 113b 03a7 5c3c d003 45bc 3a04 5a3c
00000090: 364a e73c 1ca0 583c 97dc 13bc 194c b93b
000000a0: d1f3 373c 5f04 62bb 2cb8 1dbc e947 07bc
000000b0: ebf2 33bc 8ac4 903c d8e2 2aba 9709 343c
000000c0: 98e2 1c3c 19ce fe3b 1b46 563c b714 8b3b
000000d0: c1e0 2f3b d2ae d43b 94b8 273c 6081 44bc
000000e0: a1b2 d03c 7ad8 783b 4640 0e3c 7211 0abc
000000f0: 8978 bc3b 30f3 093c a4fd 7b3b 57ef 293b
00000100: 4836 963c 6b51 2d3c a57a a9bc a0dc eb3b
00000110: 1ee2 a83c d2b9 563c 4932 dd3a 3514 ac39
00000120: ab87 303c c5e7 bf3c 87b3 933b 2ef7 9f3c
00000130: eec8 953c af6b c13b 7e2b 81bb 37c7 1abb
00000140: 6532 9b3c a286 f6bb 902c 823b 7586 b2bb
00000150: 2c5b 243c fd7b 1f3b a714 653c a504 4e3c
00000160: 1056 5239 7774 e538 139b 6e3c 10f0 aebb
00000170: 074a d63c e6e9 a93b de9e 863c abe8 903c
00000180: 36d2 96bb 3eeb ae3c 27be 1ebb da48 513c
00000190: 9a22 1bb9 1d90 a23b ec6b d5ba a914 d03c
000001a0: bafb a83c 85cb 053b a2f6 7d3c b4c1 bb3b
000001b0: b28b 33bb ee02 03bc a448 c83c d3d6 b23c
000001c0: 1ac6 1b3c 89f2 aa3c f8e4 903c 940f 5539
000001d0: b971 65bc e164 2a3c 820e e0bc 4309 3c3c
000001e0: 1ea7 a53c 6045 323c eb2c 8e39 bfd5 4cbc
000001f0: 3447 91bb 6423 0b3c 5e80 4b3a 2dee a53c

action_model._continuous_distribution.log_sigma f4 [1, 2]
0.4340759 0.37263322
00000000: 323f de3e c8c9 be3e

action_model._continuous_distribution.mu.weight f4 [2, 128]
-0.06365189 0.06607401 -0.08114956 0.0048234793 0.08259989 0.114609726 -0.006099092 0.04671057
0.025782494 -0.065841004 -0.03753153 0.05792079 0.096638225 -0.0747118 -0.088895984 -0.047236875
-0.06465359 -0.076121494 0.034728564 -0.04822304 -0.060387243 0.018872807 0.0684361 -0.06138597
0.037584107 -0.046519656 0.036118723 -0.08749395 -0.04722672 0.011722025 -0.09748814 -0.0678902
0.04856785 0.06701134 -0.03368348 -0.07374751 0.08175459 -0.03703469 -0.03637322 -0.07485544
-0.057003804 -0.0329343 -0.0016159355 -0.03493148 -0.03455554 0.09296363 0.027790586 0.086841784
-0.08745845 -0.0456368 0.086281046 0.04706955 -0.06515233 -0.018806677 0.09186305 -0.045104347
0.090610035 0.08399821 -0.023705233 0.024154944 0.08079445 0.034521658 -0.040584885 -0.053228732
0.020697095 -0.06744297 0.0051420396 0.100345746 -0.048650384 -0.062715545 -0.06167977 -0.048469428
0.06207925 -0.10908949 0.08016025 -0.08549769 -0.038914587 -0.063025855 -0.09608296 -0.06929643
0.07965123 -0.023389209 -0.048609644 0.009466514 -0.041765176 -0.052193664 -0.09315302 -0.06766326
-0.055808045 -0.02564459 -0.054142836 -0.04102173 -0.1003411 -0.043759804 0.112767145 0.031182362
0.022217978 -0.030810064 -0.06322591 0.099960476 -0.024734732 -0.018002337 -0.051559046 0.11830055
0.10169552 -0.076430015 0.102054656 -0.09428733 -0.06794103 -0.005723027 -0.1021561 0.07398666
-0.040069386 0.088241 -0.07541885 -0.030964682 -0.038671058 -0.08631538 -0.049337402 -0.006417166
0.114386305 0.051290624 -0.06454247 0.009648553 -0.008061379 -0.0077049397 -0.04103387 0.070962325
-0.051018722 -0.05404029 0.014213104 -0.052349906 0.05927519 0.049614128 -0.03583616 0.038916506
0.062321328 0.038635876 0.03806141 0.10544948 0.0393454 -0.075644836 -0.04164857 0.036024008
-0.028011827 0.012060886 -0.044985186 -0.070734575 -0.022223074 -0.06480596 0.054343183 -0.016321817
0.01151418 -0.02590321 0.023786012 -0.017407184 0.036418036 0.058393657 -0.06287147 -0.022588512
0.036384307 -0.022233782 -0.04635183 -0.01816731 0.08915945 -0.07757017 -0.05938626 -0.039771557
-0.046899475 -0.025250804 -0.05800514 0.08465879 -0.010165736 0.03606993 0.056127623 0.015162871
-0.0040954426 -0.0036765318 0.0045025595 -0.10901314 -0.024851413 -0.08164202 0.027557502 0.031729262
0.032023944 0.014742356 -0.015033916 0.04028145 -0.002197364 0.1114638 -0.0027260697 -0.005875356
0.045098186 -0.037238255 -0.030684542 0.06566388 0.07707645 -0.042926695 -0.055000816 -0.13174433
0.009841976 -0.038573533 0.019010326 -0.011225603 -0.16907673 0.016777545 -0.10283527 -0.030805016
-0.0023671533 0.007112829 0.0006404853 -0.09829425 -0.017141946 0.04872775 -0.006822429 -0.024663836
0.017499456 -0.050358765 -0.093553714 -0.04489745 -0.08020503 -0.10518172 0.049120337 -0.0049079494
-0.013530169 0.025549503 -0.039657447 8.372316e-05 -0.072400235 -0.017103279 -0.021755645 0.017043147
0.042705312 -0.011621626 -0.059274342 -0.14398015 -0.019030632 -0.02191649 -0.0025435183 0.10012901
0.06505816 0.0258435 0.04007033 0.026331367 -0.009183387 0.010190599 -0.1051194 0.024527496
0.022148188 0.09959111 -0.101331525 -0.0028527945 0.05959714 0.03454909 -0.06674185 0.057811577
00000000: ec5b 82bd d051 873d be31 a6bd 470e 9e3b
00000010: 222a a93d 81b8 ea3d e4da c7bb 9553 3f3d
00000020: cf35 d33c a6d7 86bd a9ba 19bd 5a3e 6d3d
00000030: 43ea c53d 8002 99bd 190f b6bd 747b 41bd
00000040: 1a69 84bd 96e5 9bbd 8a3f 0e3d 8685 45bd
00000050: 9d58 77bd 259b 9a3c 3a28 8c3d db6f 7bbd
00000060: cbf1 193d 658b 3ebd 3af1 133d 0730 b3bd
00000070: ce70 41bd bd0d 403c dda7 c7bd 040a 8bbd
00000080: 15ef 463d 3e3d 893d b0f7 09bd ef08 97bd
00000090: f36e a73d b0b1 17bd 16fc 14bd cf4d 99bd
000000a0: d27c 69bd 1ee6 06bd cccd d3ba 5014 0fbd
000000b0: 1c8a 0dbd b763 be3d 15a9 e33c 1bda b13d
000000c0: 6a1d b3bd a7ed 3abd 1eb4 b03d 00cc 403d
000000d0: 966e 85bd 7610 9abc b222 bc3d 56bf 38bd
000000e0: c191 b93d 4107 ac3d 7a31 c2bc 97e0 c53c
000000f0: 9077 a53d 9566 0d3d 563c 26bd 5f06 5abd
00000100: f48c a93c 8a1f 8abd 8e7e a83b 1282 cd3d
00000110: a045 47bd 0271 80bd eda3 7cbd e187 46bd
00000120: d046 7e3d 4f6a dfbd 0f2b a43d 6a19 afbd
00000130: e764 1fbd b313 81bd 25c7 c4bd 49eb 8dbd
00000140: 2f20 a33d ba9a bfbc e81a 47bd 7019 1b3c
00000150: f611 2bbd 06c9 55bd 03c7 bebd 0993 8abd
00000160: fa96 64bd 9a14 d2bc e1c4 5dbd 6706 28bd
00000170: a27f cdbd 7b3d 33bd 76f2 e63d 2772 ff3c
00000180: 7a02 b63c 6365 fcbc 967c 81bd 14b8 cc3d
00000190: 7ea0 cabc a379 93bc 942f 53bd 8f47 f23d
000001a0: be45 d03d 5787 9cbd 0802 d13d b719 c1bd
000001b0: ab24 8bbd 3b88 bbbb 3837 d1bd 5186 973d
000001c0: cc1f 24bd b3b7 b43d 3375 9abd a5a9 fdbc
000001d0: 8b65 1ebd 1ec6 b0bd 0416 4abd 1747 d2bb
000001e0: 5e43 ea3d 1e16 523d d82e 84bd f714 1e3c
000001f0: e013 04bc b879 fcbb 2213 28bd b254 913d
00000200: 02f9 50bd 5a59 5dbd 14de 683c db6c 56bd
00000210: 8bca 723d 2f38 4b3d f0c8 12bd ea66 1f3d
00000220: a644 7f3d a740 1e3d 48e6 1b3d e6f5 d73d
00000230: a428 213d aeeb 9abd b197 2abd e98d 133d
00000240: 0f79 e5bc 069b 453c 6342 38bd 4add 90bd
00000250: 2a0d b6bc fdb8 84bd f596 5e3d 55b5 85bc
00000260: f9a5 3c3c f832 d4bc e2da c23c 8399 8ebc
00000270: 142b 153d 302e 6f3d c2c2 80bd 8b0b b9bc
00000280: b607 153d 9f23 b6bc 6bdb 3dbd 9cd3 94bc
00000290: 3b99 b63d 1cdd 9ebd 023f 73bd 80e7 22bd
000002a0: aa19 40bd c6da cebc cc96 6dbd 9661 ad3d
000002b0: 308e 26bc 10be 133d 14e6 653d b16d 783c
000002c0: 1033 86bb f8f1 70bb 358a 933b 4842 dfbd
000002d0: 3195 cbbc ee33 a7bd 45c0 e13c 8bf6 013d
000002e0: 8a2b 033d ec89 713c d050 76bc 29fe 243d
000002f0: a701 10bb 2247 e43d dca7 32bb 0f86 c0bb
00000300: e0b8 383d 2487 18bd 265e fbbc c97a 863d
00000310: 42da 9d3d e7d3 2fbd 8948 61bd fce7 06be
00000320: 3d40 213c 48ff 1dbd 8bbb 9b3c 97eb 37bc
00000330: 7322 2dbe 1071 893c 4c9b d2bd cd5a fcbc
00000340: 3e22 1bbb bc12 e93b 3ee6 273a 7f4e c9bd
00000350: 446d 8cbc c096 473d af8e dfbb d00b cabc
00000360: 055b 8f3c fe44 4ebd 1799 bfbd 63e6 37bd
00000370: 8942 a4bd 8369 d7bd 6832 493d ddd2 a0bb
00000380: a4ad 5dbc 314d d13c d96f 22bd 8794 af38
00000390: 9346 94bd 2d1c 8cbc e538 b2bc 129e 8b3c
000003a0: c4eb 2e3d a268 3ebc a7c9 72bd 886f 13be
000003b0: 21e6 9bbc 368a b3bc 28b1 26bb 7010 cd3d
000003c0: 363d 853d bfb5 d33c c920 243d e1b4 d73c
000003d0: eb75 16bc 78f6 263c d748 d7bd e3ed c83c
000003e0: 1e70 b53c 6df6 cb3d e786 cfbd f3f5 3abb
000003f0: 211c 743d 5983 0d3d f3af 88bd d5cb 6c3d

action_model._continuous_distribution.mu.bias f4 [2]
-0.002046191 0.0049655456
00000000: 6319 06bb 04b6 a23b
